checkpoints/target3/epoch=4.checkpoint.pth.tar (torch, 163429 bytes, 8 tensors)

conv1.weight f4 [16, 3, 5, 5]
0	0x3e6358dc	0.22201866
1	0x3e2c0fb2	0.16802862
2	0x3dcbd42f	0.0995258
3	0xbe7e70b9	-0.24847688
4	0x3d9bb85c	0.07603523
5	0xbe0d6586	-0.1380826
6	0xbb07981f	-0.0020690036
7	0xbe3b56a3	-0.18294768
8	0xbdb2b8ba	-0.0872664
9	0x3e46edfd	0.19426723
10	0xbd2af021	-0.04173291
11	0xbe22f022	-0.15911916
12	0xbda4c43e	-0.08045243
13	0xbd7c35f8	-0.061574906
14	0xbdaee11c	-0.0853903
15	0x3da98171	0.08276642
16	0x3e3e89d7	0.18607269
17	0xbcb1b32e	-0.021691885
18	0xbd7ea5cf	-0.062169846
19	0x3d4ed046	0.050491594
20	0xbdc70f1a	-0.09719677
21	0x3df23bb0	0.11827791
22	0x3db7fa99	0.089833446
23	0x3e45b01c	0.19305462
24	0x3e190e03	0.14946751
25	0x3e18cc00	0.1492157
26	0x3d88c53a	0.06678243
27	0x3e193bcc	0.14964217
28	0xbd037914	-0.03209789
29	0x3b2529af	0.0025201847
30	0xbcc959fb	-0.024579039
31	0x3dd149fd	0.1021919
32	0xbe215381	-0.1575451
33	0xbdcee2fc	-0.101018876
34	0xbcb36de0	-0.021902978
35	0x3e4ebc5a	0.20189038
36	0x3d22eca4	0.03977646
37	0xbd3a0da7	-0.045423176
38	0x3d1cf9aa	0.038324036
39	0xbdb03d6e	-0.08605467
40	0xbe3d91b4	-0.18512613
41	0x3de425e3	0.11140039
42	0xbdd6bcaf	-0.10485207
43	0xbd97db9d	-0.07414935
44	0xbe16ee7a	-0.14739409
45	0x3e711d27	0.23546277
46	0xbe185f4a	-0.148801
47	0xbd718f3b	-0.058974486
48	0xbdda2a44	-0.10652593
49	0xbd9804f5	-0.074228205
50	0x3c0bb53f	0.008527099
51	0x3d698028	0.057006985
52	0xbd79274d	-0.060828496
53	0x3e07636e	0.13221523
54	0xbdc53677	-0.09629529
55	0xbda4e4ee	-0.080514774
56	0xbe22f2c1	-0.15912916
57	0x3bd5031b	0.0065006143
58	0xbbfdd9e1	-0.0077469205
59	0x3da7bc70	0.081902385
60	0xbbfc8c35	-0.0077071437
61	0x3e5d2232	0.21595076
62	0xbe086102	-0.13318256
63	0x3e26b00c	0.16278094
64	0x3e2e57eb	0.17025726
65	0x3dbfba2a	0.0936168
66	0x3e814ef8	0.2525556
67	0x3d6a12bc	0.057146773
68	0x3d108e55	0.03529199
69	0xbcbcdb05	-0.023053655
70	0xbe06954b	-0.13142888
71	0x3e10ba08	0.14133465
72	0xbcb87782	-0.022517923
73	0x3d739c3d	0.059475172
74	0x3c0811e9	0.008305051
75	0x3d33d9bd	0.043908823
76	0x3d671c32	0.056423374
77	0xbda94fda	-0.082671836
78	0xbe82e88c	-0.25568044
79	0xbdbc002b	-0.091797195
80	0x3b0e3677	0.0021699944
81	0xbd32c21a	-0.04364214
82	0xbe296dbf	-0.16545771
83	0xbd9cf246	-0.076633975
84	0x3d55e5d5	0.052221138
85	0x3d5121d9	0.05105767
86	0x3dfad3fb	0.12247463
87	0xbbc8995c	-0.0061217975
88	0x3d9ade7d	0.075619675
89	0xbd813ca0	-0.063103914
90	0xbe07792d	-0.13229819
91	0x3d7b6e25	0.06138434
92	0xbe53e28e	-0.20691893
93	0xbdd3bd43	-0.10338833
94	0x3e1b1d5d	0.1514792
95	0x3d377195	0.044786055
96	0xbe98940a	-0.29800445
97	0x3d6ec77d	0.058295716
98	0x3db2aa2f	0.08723866
99	0x3a82240b	0.0009928955
100	0x3d8ca421	0.068672426
101	0x3d6b0229	0.057375107
102	0x3deac120	0.11462617
103	0xbd589fea	-0.05288688
104	0xbcd90b5f	-0.02649468
105	0x3db3e372	0.08783616
106	0x3d2ce447	0.04220989
107	0x3c232748	0.009958096
108	0x3cb08530	0.021547884
109	0x3e0c9daf	0.13732027
110	0xbc1e76e8	-0.009671904
111	0xbd35afce	-0.044357114
112	0xbe38a7fd	-0.18032832
113	0xbcb50d7b	-0.022101155
114	0xbd9d0a31	-0.076679595
115	0x3d341949	0.043969426
116	0x3d9aa1c1	0.07550383
117	0x3b228619	0.0024799167
118	0xbd57fcaf	-0.052731212
119	0x3d6ee085	0.058319587
120	0xbc4d0378	-0.012513034
121	0x3ca06ac6	0.019582164
122	0x3c8d4ffd	0.017250055
123	0x3dadda6f	0.084889285
124	0x3dfe35ad	0.124125816
125	0x3d0afbe0	0.033931613
126	0x3d95d60c	0.07316217
127	0x3d1f788d	0.038933326
128	0x3e6369db	0.2220835
129	0x3de4d6f3	0.11173811
130	0xbe28e7d5	-0.16494687
131	0xbe0a3b7d	-0.13499255
132	0xbcd7eb42	-0.026357297
133	0x3e381d65	0.17979963
134	0x3d86fc05	0.06591038
135	0x3d696f26	0.056990765
136	0x3dfae689	0.12251002
137	0xbc22e16e	-0.009941442
138	0xbe600d59	-0.21880092
139	0x3dcb7fb0	0.09936464
140	0xbd5f0ea9	-0.05445734
141	0x3de335f2	0.110942736
142	0xbdb2dba8	-0.08733302
143	0x3d869bec	0.065727085
144	0xbdeb6cd5	-0.114953674
145	0x3dcc082c	0.09962496
146	0x3e370820	0.17874193
147	0x3e2d83d2	0.16944817
148	0x3ce36778	0.027759299
149	0xbcd9f72f	-0.026607124
150	0xbdb17807	-0.086654715
151	0x3c833d55	0.016020456
152	0x3d268b54	0.040660217
153	0x3dee399a	0.116320804
154	0xbd64ff25	-0.055907387
155	0x3e3f8195	0.18701775
156	0xbe912776	-0.2835042
157	0xbd38d8ef	-0.04512876
158	0xbe09cc5d	-0.13456865
159	0x3dbf76f5	0.09348861
160	0xbe566aef	-0.2093923
161	0x3d0ffe4e	0.035154633
162	0x3c3c30a9	0.011486211
163	0xbd0861df	-0.033296462
164	0x3d1f9716	0.038962446
165	0xbd9c26c0	-0.076245785
166	0x3cf2e190	0.029648572
167	0xbdeed70a	-0.11662109
168	0xbe34183a	-0.17587367
169	0x3e24928c	0.16071528
170	0x3e1b401f	0.15161179
171	0x3c58cc95	0.01323237
172	0xbe3019bd	-0.17197318
173	0x3dbbf50f	0.091776006
174	0x3db0126c	0.08597264
175	0x3e6d888d	0.23196621
176	0x3c04ec88	0.008113034
177	0x3c6a8631	0.01431422
178	0xbdb51ea7	-0.08843737
179	0xbcd5d66d	-0.026103223
180	0xbdd8e257	-0.10590046
181	0xbe392c76	-0.18083367
182	0xbe032902	-0.12808612
183	0xbd68f491	-0.05687386
184	0xbd76a3b9	-0.06021473
185	0xbe2734e9	-0.16328777
186	0xbe5ad6ca	-0.21370998
187	0x3cbf84a7	0.023378683
188	0x3dff8579	0.1247663
189	0xbd6ef170	-0.05833572
190	0x3db73a7e	0.089467034
191	0x3dbb406c	0.09143147
192	0x3e5bbbce	0.2145836
193	0xbdc73ca1	-0.09728361
194	0x3deccfa5	0.115630426
195	0xbd13f723	-0.03612436
196	0xbe039b48	-0.12852204
197	0x3d448d96	0.04798659
198	0x3d7475a2	0.059682496
199	0x3e1c669c	0.15273517
200	0x3d707639	0.058706496
201	0x3e7dcd8a	0.24785438
202	0xbd74b40a	-0.05974201
203	0xbdd2ff58	-0.10302609
204	0x3c9daa5d	0.019246275
205	0x3e001dca	0.12511364
206	0x3e1d6e40	0.15374088
207	0x3d661f42	0.056182154
208	0xbdb9899e	-0.090594515
209	0xbdf224ed	-0.11823449
210	0xbd40db61	-0.047084216
211	0xbd743ad4	-0.059626415
212	0x3cd88d4f	0.026434569
213	0x3d6bb526	0.057545803
214	0xbc38d587	-0.011281378
215	0xbe84e5db	-0.25956616
216	0xbd157b3d	-0.036494482
217	0x3e09af8c	0.13445872
218	0xbe493990	-0.19650865
219	0x3e36eade	0.17863032
220	0x3d1dc7bc	0.03852056
221	0xbd4f29c3	-0.050576936
222	0x3e012e6b	0.12615363
223	0x3e4c4a74	0.19950277
224	0xbb863e8c	-0.0040968116
225	0x3e4b3e69	0.19848026
226	0x3cd2a856	0.025715034
227	0xbdead415	-0.11466233
228	0xbd8cbc2d	-0.06871829
229	0x3a426815	0.0007416022
230	0x3d43186c	0.047630712
231	0x3e6d490c	0.23172396
232	0xbbe57834	-0.0070028547
233	0xbde85dc5	-0.1134601
234	0xbe80903d	-0.25110045
235	0xbe02f3d7	-0.1278833
236	0xbb5b4a2b	-0.0033460956
237	0x3bc525a0	0.006016448
238	0x3c514492	0.012772696
239	0x3d023e9e	0.031797998
240	0xbdda8ee6	-0.10671787
241	0x3d10ecb2	0.03538198
242	0xbd6997e1	-0.05702961
243	0x3d4b7aa2	0.0496775
244	0xbde30712	-0.11085333
245	0xbb80becf	-0.003928996
246	0xbd3098e3	-0.043114554
247	0x3e2b9562	0.16756204
248	0x3e08e352	0.13367966
249	0xbdc5e33e	-0.09662484
250	0x3dd641d8	0.104617774
251	0x3d899417	0.06717699
252	0x3d8f8a42	0.070087925
253	0x3d806bb2	0.06270541
254	0x3d4abc1a	0.049495794
255	0x3cde556c	0.027140342

conv1.bias f4 [16]
0	0xbb816e26	-0.0039498983
1	0x3afd08bf	0.0019304975
2	0xbca14dce	-0.01969042
3	0xbb7346dd	-0.0037121095
4	0xbca381e9	-0.019959407
5	0xbb9c4626	-0.0047691045
6	0xbb11bd4f	-0.002223808
7	0x3c0728c8	0.008249469
8	0xba80c3a0	-0.0009823926
9	0xbbde69c5	-0.006787511
10	0xbbfefa68	-0.0077813156
11	0xbaf72c0e	-0.0018857734
12	0xbb9d0258	-0.004791539
13	0xb9821848	-0.00024813623
14	0xbcb4552a	-0.022013266
15	0xbb97cf6f	-0.0046328823

conv2.weight f4 [64, 16, 5, 5]
0	0x3d147299	0.0362421
1	0x3c8956bd	0.016764993
2	0x3d193c14	0.03741081
3	0x3dd4aafa	0.10384174
4	0x3cb28afe	0.021794792
5	0x3cf6f66b	0.030146798
6	0x3a0eef49	0.00054525264
7	0x3d4ac2dc	0.04950224
8	0xbcd05a62	-0.025433723
9	0xbd3cba0d	-0.04607587
10	0xbc73ed77	-0.014888159
11	0x3def9753	0.11698785
12	0xbd135bbe	-0.035976164
13	0xbc3c56fe	-0.01149535
14	0x3d9c9c35	0.076469816
15	0xbba62c18	-0.0050711744
16	0xba588e05	-0.00082609087
17	0x3d754503	0.059880268
18	0x3d9aecec	0.075647205
19	0x3d478daa	0.048719086
20	0xbad0e558	-0.001593749
21	0x3d0ea900	0.03482914
22	0x3c168a08	0.009188183
23	0xbcb15233	-0.021645641
24	0xbdd69f28	-0.104795754
25	0x3cd2e47d	0.025743717
26	0xbd17fe68	-0.037107855
27	0xbbd7ab29	-0.006581683
28	0xbc362170	-0.011116371
29	0x3d9175af	0.071025245
30	0xbd9ae574	-0.07563296
31	0xbc900d0b	-0.017584344
32	0x3b82042d	0.003967783
33	0xbd9cbaef	-0.07652842
34	0xbdb7c7c2	-0.08973648
35	0xbcd7662b	-0.026293835
36	0x3d02447f	0.031803604
37	0xbd82a24f	-0.06378614
38	0x3d7ce079	0.06173751
39	0xbde12e84	-0.109952
40	0x3da30041	0.07959033
41	0x3c8ab582	0.016932253
42	0xbd3f10e2	-0.04664696
43	0x3cf9878e	0.030460145
44	0xbd33edf1	-0.04392809
45	0xbc26ae6b	-0.01017342
46	0x3cd7dae1	0.026349487
47	0x3d43c508	0.047795326
48	0xbce7c563	-0.028292364
49	0x3cd9e102	0.02659655
50	0xbce00d89	-0.027350204
51	0xba1e6ec3	-0.00060437265
52	0xbd2ec082	-0.04266406
53	0x3d12e1d3	0.035859894
54	0x3c51bc67	0.012801266
55	0x3d881945	0.06645445
56	0x3ced8861	0.028995695
57	0xbd8a5963	-0.067553304
58	0xbd1d6bc0	-0.038432837
59	0x3ca80274	0.020508982
60	0xbd106e22	-0.03526128
61	0xbcb8c0a2	-0.022552792
62	0x3d6364b6	0.055515967
63	0x3e07481a	0.13211098
64	0xbda40d0e	-0.080103025
65	0xbd3e6798	-0.046485513
66	0x3d2f0acd	0.04273491
67	0x3d59874e	0.053107552
68	0x3d4548ab	0.048165005
69	0x3bdbb631	0.0067050685
70	0xbd779dba	-0.060453154
71	0xbd13b19b	-0.03605805
72	0x3e06b2ea	0.13154188
73	0xbdbbd84e	-0.09172116
74	0x3d1b293f	0.037881132
75	0xbd97347e	-0.07383059
76	0xbc690009	-0.0142212
77	0xbc1fdc10	-0.009757057
78	0xbcdbe98e	-0.026844766
79	0xbd585fe6	-0.05282583
80	0xbcc17c51	-0.023618849
81	0xbcd659a2	-0.026165787
82	0x3d4124ed	0.047154356
83	0x3c2c4f02	0.010516884
84	0x3cee368d	0.029078746
85	0xbd41d241	-0.047319654
86	0x3d64403c	0.05572532
87	0x3c47f610	0.012204662
88	0xbca52bdd	-0.020162517
89	0xbd65b43a	-0.05608008
90	0xbc09ec7a	-0.008418197
91	0xbd30efd7	-0.04319748
92	0xbbc9a61e	-0.006153836
93	0x3dad00ef	0.08447444
94	0xbd8b32bb	-0.067967854
95	0xbc11eca1	-0.008906514
96	0xbb75ff9c	-0.0037536388
97	0x3c10902a	0.008823434
98	0x3d1a9f2d	0.037749458
99	0x3d84f113	0.06491294
100	0xbd05c9b3	-0.03266306
101	0xbd90434f	-0.07044088
102	0xbd2696bb	-0.04067109
103	0x3d88aee0	0.0667398
104	0x3c065bc1	0.008200587
105	0xbca18faa	-0.019721825
106	0xbd5aba64	-0.053400412
107	0x3d9824cf	0.07428896
108	0xbb26d5c2	-0.0025457
109	0xbbb9e770	-0.0056733415
110	0xbd47c519	-0.04877195
111	0xbca03a58	-0.01955907
112	0x3d2caa20	0.04215443
113	0xbd2e45bb	-0.04254697
114	0xbde55ffa	-0.11199947
115	0xbcd0a403	-0.025468832
116	0x3d30ee4b	0.043196004
117	0x3d8cd334	0.06876221
118	0xbc53e014	-0.012931842
119	0x3d4ad804	0.049522415
120	0x3d867c9e	0.065667376
121	0xbc697a26	-0.014250314
122	0xbced56d0	-0.02897206
123	0xbca638ce	-0.020290758
124	0x3cf5fa50	0.030026585
125	0x3cbfbb8a	0.023404855
126	0xbc78acba	-0.0151779
127	0xbce7cde6	-0.028296422
128	0xbb32a987	-0.002726169
129	0xbdade47a	-0.08490844
130	0x3d0eef89	0.034896407
131	0xbbcf1b70	-0.0063204095
132	0xbdafe306	-0.08588223
133	0x3c399d14	0.011328954
134	0xbc86132b	-0.016366562
135	0xbd6e4ecb	-0.05818061
136	0xbc2fa2d8	-0.010719977
137	0x3b3b6105	0.0028591764
138	0x3bfc860b	0.007706409
139	0x3d8d41f7	0.068973474
140	0x3dbe5812	0.09294142
141	0x3dd4bbaf	0.1038736
142	0xbc2a05d9	-0.010377371
143	0xbd7eecaf	-0.062237438
144	0xbc1f5b7b	-0.0097264005
145	0xbcec1313	-0.028817689
146	0x3c9830cf	0.018577961
147	0xbd8d2390	-0.06891549
148	0x3c44d6fe	0.012014149
149	0x3d53daf1	0.05172247
150	0xbd2c90e6	-0.042130373
151	0xbcbfc433	-0.023408985
152	0xbd4f1f91	-0.050567213
153	0xbb946f48	-0.0045298673
154	0xbd01db9e	-0.031703584
155	0x3ce5cccb	0.028051754
156	0x3cccdd24	0.025007792
157	0xbd150331	-0.036379997
158	0xbc8aae19	-0.01692872
159	0x3d26ede0	0.0407542
160	0x3d00c7d4	0.03144057
161	0x3d8aa827	0.06770354
162	0xbbe46860	-0.0069704503
163	0x3d924916	0.07142846
164	0xbd442c12	-0.04789359
165	0x3c9f5da9	0.01945384
166	0xbc7efa53	-0.015562612
167	0xbc8d06bf	-0.01721513
168	0xbc8cf4cb	-0.01720657
169	0xbcd49108	-0.025948063
170	0xbb858e08	-0.0040757693
171	0xbcb69066	-0.022285651
172	0x3d8c8db2	0.06862964
173	0xbb6a2616	-0.0035728267
174	0xbcb125b1	-0.021624418
175	0xbcaac01f	-0.020843564
176	0x3e122ce1	0.14274932
177	0xbd82bd20	-0.06383729
178	0x3dc88baa	0.09792264
179	0xbd663cb6	-0.056210242
180	0xbd8da40f	-0.06916057
181	0x3c47c78f	0.012193575
182	0xbd1908bc	-0.037361845
183	0xbc6256eb	-0.013814668
184	0xbd4a11ec	-0.049333498
185	0x3c14b237	0.009075693
186	0x3d1145f9	0.03546712
187	0xbd9b7988	-0.075915396
188	0x3d6a9846	0.057274126
189	0xbbcc65a3	-0.006237702
190	0x3dc3547d	0.09537599
191	0xbc88b3be	-0.01668727
192	0xbd864178	-0.06555456
193	0x3d427664	0.047476187
194	0xbbcda5a8	-0.0062758513
195	0xbd93f707	-0.07224851
196	0x3c93763a	0.01800071
197	0xbcdb50a8	-0.026771858
198	0xbd07a88a	-0.033119716
199	0xbc3c9cfb	-0.011512036
200	0x3db03280	0.08603382
201	0x3b8c784d	0.004286802
202	0x3da24e6e	0.079251155
203	0xbc8575cf	-0.016291527
204	0x3d5d889d	0.054085363
205	0x3d98f1f2	0.074680224
206	0x3c8aa4ea	0.01692434
207	0x3b96e45e	0.00460486
208	0x3b08f9a8	0.002090076
209	0xbd85c8e5	-0.06532458
210	0xbd5289ee	-0.05140107
211	0xbca9d43a	-0.02073108
212	0xbd2bd9b9	-0.041955683
213	0x3ce6591f	0.028118668
214	0xbd69e716	-0.057105146
215	0x3d5507db	0.052009445
216	0x3d13c960	0.036080718
217	0xbbc4c345	-0.0060047233
218	0x3bda060a	0.006653552
219	0xbd7c790a	-0.06163887
220	0xbcd0a5d0	-0.02546969
221	0xbc80d15d	-0.015724832
222	0x3c85c8d8	0.016331121
223	0x3d4d87d9	0.050178383
224	0xbd4666f2	-0.04843802
225	0x3cd429ea	0.025898892
226	0x3d386a36	0.045023166
227	0xbd299216	-0.041399084
228	0x3c9fd331	0.019509884
229	0x3ce15b59	0.027509378
230	0x3dcd3dcd	0.10021553
231	0xbd1b6dc2	-0.03794647
232	0xbd79512a	-0.06086842
233	0xbc1a42cb	-0.009415339
234	0x3c17bd18	0.009261392
235	0xbcc999b5	-0.024609426
236	0xbd1fdcd9	-0.039028976
237	0xbd0477b2	-0.032340713
238	0x3d9eb197	0.07748716
239	0xbda7ba3d	-0.08189819
240	0x3d246f60	0.040145278
241	0xbc96a0e8	-0.018387273
242	0xbd24e8af	-0.040260967
243	0x3c96cabc	0.018407218
244	0xb8d89810	-0.000103280065
245	0x3d24388c	0.04009299
246	0xbd7b8199	-0.06140289
247	0x3d90e8ab	0.07075628
248	0x3c84d4fb	0.016214838
249	0x3d60b22c	0.054857418
250	0x3b3cf2aa	0.0028831162
251	0x3c4a268f	0.012338295
252	0xbc3e69f7	-0.011621944
253	0xbb7780f2	-0.0037766066
254	0xbd423c52	-0.047420807
255	0x3d8cf61c	0.06882879

conv2.bias f4 [64]
0	0x3c5577b4	0.013029028
1	0xbb3be0ae	-0.0028667855
2	0xbb520022	-0.0032043536
3	0xbb8d19ec	-0.0043060686
4	0xbabbeefb	-0.001433819
5	0xbbf5def7	-0.007503386
6	0x3ad081b1	0.0015907792
7	0xbb9d5526	-0.0048014103
8	0xbbea2dc9	-0.0071465713
9	0x3b821a6c	0.003970435
10	0xbc6e96a5	-0.014562284
11	0xbb1d09b9	-0.0023962094
12	0xbc8c4bce	-0.01712599
13	0xbc14d8d2	-0.009084897
14	0xbb63f34e	-0.0034782472
15	0x363ea700	2.8409413e-06
16	0x3a28cb8c	0.0006439022
17	0xbb6c05b5	-0.0036014144
18	0xbbd6ba51	-0.0065529724
19	0xbb1bc587	-0.0023768859
20	0xbc0d43f4	-0.008622158
21	0xbae76bbf	-0.0017656012
22	0x3c001aaf	0.007818862
23	0x3965ccf9	0.000219155
24	0xbc04cdec	-0.008105736
25	0xbc315573	-0.010823595
26	0xbc3f81c1	-0.011688651
27	0xbb81943f	-0.00395444
28	0xbbf2ada4	-0.0074059535
29	0xbc7baeca	-0.015361497
30	0x3b3e1ec8	0.0029010046
31	0x3c08d2fe	0.008351086
32	0xbc59be90	-0.013290063
33	0xb8b26e0c	-8.508199e-05
34	0x3be9d4d6	0.0071359677
35	0x3c2cf022	0.010555299
36	0xbb4718e4	-0.0030379826
37	0x3c2b2388	0.010445483
38	0x3c166f6c	0.0091818385
39	0x3b7feb98	0.0039050337
40	0x3c360690	0.011109963
41	0xbaaab046	-0.0013022504
42	0xbb141c6b	-0.0022599946
43	0xbb42d3de	-0.0029728333
44	0xbbe24ce3	-0.0069061383
45	0x3abda7e6	0.0014469593
46	0xbbca8f7d	-0.006181656
47	0xbb8f4c35	-0.0043730983
48	0xbb823f04	-0.003974797
49	0xbb7f72f5	-0.0038978432
50	0x3adeabdc	0.0016988474
51	0xbb9e542b	-0.004831811
52	0x3adc4e28	0.001680796
53	0xbc06d407	-0.008229262
54	0x3bf49177	0.00746363
55	0xbc10169b	-0.008794452
56	0xb9ba4c4c	-0.0003553353
57	0x3b851cc8	0.004062269
58	0x3c242463	0.010018441
59	0x3a1257b8	0.0005582529
60	0x3c062d38	0.008189492
61	0x399f5c94	0.0003039582
62	0x3a33594e	0.00068416155
63	0x3b8dae41	0.004323751

conv3.weight f4 [8, 64, 5, 5]
0	0x3bcb066f	0.0061958353
1	0x3c4af0d0	0.012386516
2	0xbc087716	-0.008329174
3	0xbb6e2149	-0.0036335757
4	0x3c63e4e2	0.01390955
5	0xbd963cb1	-0.07335795
6	0x3d01799f	0.031610128
7	0xbbf72ef0	-0.007543437
8	0x3d8c543f	0.06852006
9	0xbd01036e	-0.03149741
10	0x3d22b872	0.039726682
11	0xbb9b3f29	-0.004737754
12	0x3d1f629f	0.03891241
13	0xbb17ce06	-0.002316357
14	0x3c1cdf42	0.009574713
15	0x3cedde46	0.029036652
16	0xbbfa5bf0	-0.0076403543
17	0x3d34cd1d	0.044140924
18	0x3c692c94	0.01423182
19	0xbcb221a6	-0.02174456
20	0x3c8390be	0.01606023
21	0x3ba713f0	0.0050988123
22	0x3b3d0f6e	0.0028848308
23	0x3d508943	0.050912153
24	0xbc877f2e	-0.016540136
25	0x3d1f9a76	0.038965665
26	0x3b95a701	0.0045670276
27	0xbcc80171	-0.02441475
28	0xbb929d3c	-0.00447431
29	0x39f58c06	0.00046834367
30	0x3a858a05	0.0010188228
31	0xbc8deb0a	-0.01732399
32	0x3d6705db	0.05640207
33	0x3d48e103	0.049042713
34	0xbca014ab	-0.019541105
35	0x3d3a6c6e	0.045513563
36	0x3a2ef08f	0.0006673419
37	0xbc50eeb7	-0.012752227
38	0xbb64dd29	-0.003492186
39	0x3d6e3bb0	0.05816239
40	0x3ab8981f	0.0014083422
41	0xbbc4c02b	-0.0060043535
42	0x3d1d9aa8	0.03847757
43	0x3c5a2ac5	0.013315861
44	0xbb419307	-0.0029537098
45	0xbb26aa30	-0.002543103
46	0xbc461c50	-0.012091711
47	0xbd27f5c2	-0.041005857
48	0x3c0fc850	0.008775786
49	0xbb6fbb4f	-0.003658015
50	0x3b643878	0.0034823697
51	0xbd0309b4	-0.031991675
52	0xbd0b238e	-0.033969454
53	0x394e3b18	0.00019667705
54	0xbcf3a602	-0.029742245
55	0x3cc47523	0.023981636
56	0x3d1c938c	0.03822665
57	0xbbf98e06	-0.0076158075
58	0x3b86ee8c	0.0041177925
59	0x3b762c6f	0.0037563106
60	0xbcb58de3	-0.022162383
61	0x3ce941db	0.028473785
62	0x3c578285	0.013153677
63	0x3c7dc548	0.01548893
64	0x3c594195	0.013260265
65	0x3cfbc8b7	0.030735357
66	0xbb6835b0	-0.003543239
67	0xbd0d39ee	-0.034479074
68	0x3c75fdb6	0.015014103
69	0x3d0a009d	0.03369199
70	0xbd048852	-0.032356568
71	0x3c89d244	0.016823895
72	0xbd327ab4	-0.04357405
73	0xbd598eea	-0.05311481
74	0x3c97d3cc	0.01853361
75	0xbd291958	-0.041283935
76	0xbc9c7e61	-0.01910323
77	0xbd1ce445	-0.038303632
78	0xbc927c03	-0.017881399
79	0xbcfdbf63	-0.03097505
80	0x3d04ef59	0.032454822
81	0x3ba8b3e0	0.005148396
82	0xbcef427d	-0.029206509
83	0xbc99bb1c	-0.018765979
84	0xbbb45c6c	-0.0055041816
85	0xbc953bef	-0.018217055
86	0xbcc33eb5	-0.023833612
87	0xba406bfa	-0.00073403085
88	0x3d3241b9	0.04351971
89	0x3d5dbb5d	0.05413376
90	0x3c85d842	0.016338471
91	0x3b3985d6	0.0028308532
92	0x3d259f92	0.04043538
93	0x3d06a384	0.032870784
94	0x3c2e7d8a	0.010650048
95	0xba6a6d9e	-0.0008942726
96	0xbc677f1c	-0.014129426
97	0xbd3e3d79	-0.046445344
98	0x3cb683a6	0.022279572
99	0xbd10cb65	-0.035350222
100	0xbcbccaa3	-0.023045843
101	0x3c47ac8a	0.012187133
102	0x3b31ff2a	0.0027160146
103	0xbd8a3704	-0.06748775
104	0xbd56f032	-0.05247516
105	0x3cd9df10	0.026595622
106	0x3cb52c2d	0.022115791
107	0x3d2a59d9	0.04158959
108	0xbd230dc1	-0.03980804
109	0xbd46fa8c	-0.048578784
110	0x3ce1593e	0.027508374
111	0xbb7776a9	-0.0037759936
112	0x3b099caa	0.002099792
113	0x3cbdcb46	0.023168217
114	0x3bf50b2e	0.0074781394
115	0xbcd2e5fa	-0.025744427
116	0xbcd75934	-0.026287653
117	0x3d0cfd73	0.034421396
118	0xbbcab55e	-0.0061861714
119	0xbcd1586c	-0.025554858
120	0xbd5bdc66	-0.053676985
121	0x3bca45d2	0.006172874
122	0xbcd5300c	-0.026023887
123	0x3b9fd3fe	0.0048775664
124	0xbb67e2bf	-0.0035382954
125	0xbcd66a85	-0.02617384
126	0xbd1d4713	-0.03839786
127	0x3c6c2899	0.014413976
128	0x3c3d8123	0.011566433
129	0x3cf8de11	0.030379327
130	0xbb63372f	-0.0034670343
131	0x3ccac6f6	0.024753075
132	0x3c63ce2b	0.013904135
133	0x3be20783	0.006897868
134	0xbd5eb2ea	-0.054369844
135	0x3caaf6d6	0.020869654
136	0x3ccbcf9d	0.024879271
137	0xbcad4cb8	-0.021154746
138	0x3d3aed28	0.045636326
139	0xbb0e7230	-0.0021735542
140	0xbd07653c	-0.03305553
141	0x3c7d2669	0.015451052
142	0xbc62f5b0	-0.013852522
143	0xbbe99761	-0.0071286415
144	0xbc49bedb	-0.01231357
145	0xbc41439a	-0.011795903
146	0xbc80f917	-0.015743775
147	0xbb122512	-0.0022299928
148	0x3c22226b	0.009895901
149	0x3c8bd8c2	0.017071132
150	0xbd0dc6f9	-0.034613583
151	0x3c98d198	0.01865463
152	0xbcbff850	-0.023433834
153	0x3ce718e7	0.028210117
154	0xbd3276e5	-0.043570418
155	0xbc9d6c32	-0.01921663
156	0xbd6c0a27	-0.05762687
157	0x3cebd266	0.02878685
158	0x3c95396f	0.018215863
159	0x3bd1b2b5	0.0063994774
160	0x3d4e020b	0.050294917
161	0xbd49a6a4	-0.049231187
162	0xbc6c1211	-0.014408604
163	0x3c48d9e1	0.012258978
164	0x3d5a4884	0.053291813
165	0xbcd272e0	-0.025689542
166	0x3c6e4b47	0.014544315
167	0xbc42d545	-0.011891668
168	0xbcea7742	-0.02862132
169	0x3c7551e2	0.014973136
170	0xbb074c85	-0.0020644974
171	0x3c4198db	0.011816229
172	0xbd0b78ca	-0.03405074
173	0xbd1a59db	-0.03768335
174	0xbd7db326	-0.061938427
175	0xbce8b4c8	-0.028406516
176	0x3c02bc7c	0.0079795085
177	0xbcdc3add	-0.026883537
178	0x3b25afe3	0.0025281839
179	0x3ba734b4	0.0051027182
180	0xbd0b2919	-0.03397474
181	0xbcddab4c	-0.02705922
182	0x3b1129cf	0.0022150164
183	0xbcc9e3fd	-0.024644846
184	0xbc8d1897	-0.01722364
185	0x3ccad764	0.02476091
186	0xbc289cfd	-0.010291335
187	0x3c85a9fc	0.016316406
188	0x3c36e1a0	0.011162192
189	0xbcd0ffe5	-0.025512645
190	0x3d3f7f24	0.04675211
191	0x3bc3cf06	0.005975607
192	0x3cacee16	0.021109622
193	0x3c0d3bbb	0.008620198
194	0x377b27a0	1.4969992e-05
195	0xbd0b7902	-0.03405095
196	0x3d4bfa32	0.04979915
197	0xbca3f299	-0.02001314
198	0xbc9f02a6	-0.019410443
199	0xbd042327	-0.032260086
200	0xbc794866	-0.015215015
201	0xbd145f34	-0.036223605
202	0x3be67537	0.007033016
203	0x3cac76bc	0.02105271
204	0x3bff7fbe	0.0077972105
205	0x3d063f23	0.032775056
206	0x3c7ec3da	0.015549624
207	0xbd18292b	-0.037148636
208	0x3d458237	0.048219886
209	0x3d69503c	0.056961283
210	0x3b41b9e7	0.002956027
211	0x3d1362a9	0.03598276
212	0xbba75fb6	-0.005107845
213	0x3b95b373	0.004568511
214	0x3d225d39	0.039639685
215	0x3c5b3b68	0.013380863
216	0x3d8c25d4	0.06843153
217	0x3c3d8861	0.01156816
218	0xbba2c4e8	-0.0049673207
219	0xbd156d50	-0.0364812
220	0xbca5a033	-0.02021799
221	0xbbf57aa0	-0.0074914247
222	0x3d198d38	0.037488192
223	0xbd7f474b	-0.06232385
224	0xbd056b97	-0.03257331
225	0x3c53e51a	0.01293304
226	0xbd1a5191	-0.037675444
227	0xbd3fb640	-0.046804667
228	0x3cf7851d	0.03021484
229	0xbcd43c98	-0.0259078
230	0x3d24864d	0.04016714
231	0x3d33b17b	0.04387043
232	0xbb47772d	-0.0030436025
233	0x3c69a74a	0.014261076
234	0xbc30c57c	-0.010789271
235	0x3d378cdd	0.044812072
236	0xbd28c7a3	-0.041206013
237	0x3c83d97b	0.016094914
238	0x3c9bbbb8	0.01901041
239	0x3c8fc0d3	0.017548
240	0x3cdd008c	0.0269778
241	0xbc4fb3e4	-0.012677167
242	0xbcb17deb	-0.021666488
243	0xba7fd3b2	-0.0009759023
244	0x3a0bda68	0.0005334974
245	0x3c8002dd	0.015626365
246	0x3c1178a5	0.008878862
247	0xbcdfd726	-0.02732427
248	0xbcee93c5	-0.029123196
249	0x3b69d236	0.0035678274
250	0x3a11f72a	0.00055681414
251	0x3cd47da8	0.025938824
252	0xbb7888f9	-0.003792344
253	0xbc55a458	-0.013039671
254	0x3cfc33be	0.030786391
255	0x3d3cb83a	0.04607413

conv3.bias f4 [8]
0	0x3bd98629	0.0066383076
1	0xbbd3156d	-0.006441763
2	0x3ba82583	0.005131425
3	0x3bbdcc49	0.005792175
4	0xbbca105a	-0.0061665
5	0xba36eec2	-0.0006978327
6	0xbbcb72d8	-0.006208759
7	0xbc123d08	-0.008925684

fc1.weight f4 [2, 32]
0	0xbdec304e	-0.11532651
1	0xbdc9b8ac	-0.098496765
2	0xbe22bf28	-0.15893233
3	0xbd5d702f	-0.054062065
4	0xbe4528da	-0.19253865
5	0xbe0c1811	-0.13681056
6	0xbe669e84	-0.22521406
7	0x3e0d38b9	0.13791169
8	0x3dd7377f	0.10508632
9	0x3da8374b	0.08213671
10	0x3cc8e49f	0.024523078
11	0xbdfe4303	-0.12415125
12	0x3cf0fdb7	0.029417856
13	0x3e8e2e99	0.27769926
14	0xbe89866c	-0.26860368
15	0x3ef15858	0.47137713
16	0xbe09d822	-0.13461354
17	0x3e6aa871	0.22915818
18	0x3e7691c8	0.24079049
19	0x3d5b47c7	0.05353525
20	0xbdcb86e5	-0.099378385
21	0x3c40848c	0.011750352
22	0x3ec4adce	0.38413852
23	0x3cc20dc0	0.023688197
24	0xbe873ed4	-0.26415122
25	0xbdb803e1	-0.08985115
26	0xbe5bbcb8	-0.21458709
27	0xbdcdb8bd	-0.10045002
28	0xbc82e9e4	-0.015980668
29	0x3cd3b178	0.02584146
30	0x3d7eb6e9	0.062186155
31	0x3de41f01	0.11138726
32	0xbe3f72b4	-0.186961
33	0xbcdf7fbe	-0.027282592
34	0xbde6fc8e	-0.1127864
35	0x3dd7f948	0.105455935
36	0x3cce3cd1	0.025175484
37	0x3e420a2a	0.1894919
38	0xbd947ac2	-0.07249977
39	0x3e2a51a1	0.16632701
40	0xbe08cdf5	-0.13359816
41	0x3e8bae91	0.2728162
42	0xbc49c421	-0.012314827
43	0x3caeddde	0.021346029
44	0x3ead2a48	0.3382132
45	0xbdc3bf63	-0.095579885
46	0xbddb22b3	-0.10699978
47	0x3ecccb0e	0.39998668
48	0xbe5283b8	-0.20558059
49	0x3dc2f246	0.09518866
50	0xbce73991	-0.028225692
51	0x3d5b7a33	0.053583335
52	0xbe8e06a9	-0.27739456
53	0xbdf5d043	-0.120026134
54	0xbda762d9	-0.081731506
55	0xbd90bdbc	-0.07067439
56	0xbe1a8795	-0.15090783
57	0x3de4782f	0.11155736
58	0xbdcd0f57	-0.100126915
59	0x3d166449	0.036716733
60	0xbe75880f	-0.23977683
61	0xbe884410	-0.26614428
62	0x3d5c989f	0.05385649
63	0xbd334562	-0.04376734

fc1.bias f4 [2]
0	0xbbe1ceb8	-0.006891098
1	0x3be1ceb7	0.0068910974
