checkpoints/target0/epoch=52.checkpoint.pth.tar (torch, 180591 bytes, 8 tensors)

conv1.weight f4 [16, 3, 5, 5]
0.22250098 0.17173678 0.10400586 -0.24312466 0.07833701 -0.14255297 -0.004973004 -0.18529098
-0.086849205 0.19037811 -0.04531953 -0.16207455 -0.08404849 -0.0645974 -0.08877787 0.08803961
0.18963842 -0.018428711 -0.057434514 0.05075939 -0.087541446 0.124513395 0.09246848 0.19406134
0.14770056 0.14969802 0.0704906 0.15412223 -0.026745671 0.0048219706 -0.029049408 0.099287905
-0.1598884 -0.10060168 -0.025792075 0.19830377 0.03682106 -0.04901923 0.035301544 -0.08944224
-0.17985295 0.114966154 -0.10158891 -0.069414005 -0.14712633 0.24511811 -0.14256549 -0.05633944
-0.10551919 -0.07599515 0.009009421 0.060715165 -0.056348428 0.13756746 -0.09399351 -0.08498513
-0.1620331 0.0041573634 -0.007329724 0.078013286 -0.011293767 0.21299537 -0.1367786 0.15975851
0.16686966 0.09889001 0.2561213 0.060409952 0.04002731 -0.022785872 -0.12177355 0.14757016
-0.019882882 0.06048188 0.006538124 0.049224436 0.066395864 -0.07409992 -0.2547729 -0.086695336
0.0012549452 -0.039114628 -0.15480837 -0.06759277 0.061913677 0.0605782 0.1317746 0.005963295
0.08590417 -0.055608563 -0.12118187 0.06973223 -0.1988735 -0.095582515 0.15411821 0.0558343
-0.28977722 0.056349505 0.09059628 0.0033078946 0.07398805 0.06734761 0.123198085 -0.05197924
-0.021392843 0.0869211 0.046737403 0.020607477 0.030589115 0.14701281 -0.00015136549 -0.035057127
-0.16824323 -0.011816655 -0.069184236 0.05508573 0.08385172 0.01052531 -0.04492538 0.060958546
-0.0014647929 0.027809383 0.015303866 0.088246904 0.12644082 0.039247226 0.08313467 0.04750526
0.22299121 0.11683997 -0.16586193 -0.13046497 -0.015707914 0.18884085 0.07560291 0.06651128
0.13180998 0.0021436526 -0.2085164 0.10686 -0.043341033 0.119290635 -0.07928765 0.073532894
-0.1123147 0.11067317 0.18696916 0.16750199 0.03111691 -0.024292124 -0.08461677 0.012043287
0.040270377 0.11172813 -0.053773068 0.18530603 -0.28637964 -0.0482138 -0.13803911 0.09380058
-0.21945699 0.026393743 0.0028705166 -0.039946888 0.033120517 -0.08439041 0.020186516 -0.12631601
-0.18500154 0.15621908 0.148821 0.006038571 -0.17861491 0.087376885 0.08954927 0.23400418
0.0041358615 0.013924386 -0.09303004 -0.023968907 -0.10761206 -0.18370897 -0.13117118 -0.060344364
-0.059902783 -0.17335247 -0.2224709 0.014762988 0.11811586 -0.064177655 0.08132241 0.08196942
0.20488873 -0.10641151 0.11113414 -0.038915206 -0.13571583 0.04134487 0.055283375 0.15631181
0.060744416 0.24387716 -0.060131855 -0.107618764 0.021380588 0.1234019 0.15086558 0.053097114
-0.09406501 -0.11792252 -0.057148844 -0.06838731 0.017818874 0.050895374 -0.017123306 -0.26771075
-0.04595654 0.12476384 -0.2056365 0.1741341 0.035729725 -0.057770733 0.11951187 0.19510369
-0.00052019855 0.1924646 0.01777317 -0.1224275 -0.066124804 0.009649606 0.046177093 0.22969386
-0.008312401 -0.10462678 -0.2365649 -0.12482951 0.0020349536 0.009032758 0.022303997 0.047305007
-0.107286714 0.031891774 -0.062223937 0.053414408 -0.10067709 -0.0031313507 -0.040789306 0.16903165
0.14496507 -0.08255599 0.09860212 0.05923511 0.06232277 0.06529889 0.058403797 0.025686739
00000000: 4cd7 633e c4db 2f3e 0601 d53d acf5 78be
00000010: 286f a03d 68f9 11be 95f4 a2bb ebbc 3dbe
00000020: ffdd b1bd 7bf2 423e f9a0 39bd dff6 25be
00000030: 9d21 acbd a44b 84bd 2cd1 b5bd 1c4e b43d
00000040: 9330 423e cff7 96bc 7440 6bbd 14e9 4f3d
00000050: ee48 b3bd e100 ff3d 1d60 bd3d 04b8 463e
00000060: d13e 173e 704a 193e 605d 903d 38d2 1d3e
00000070: bd19 dbbc 9f01 9e3b 06f9 edbc 7557 cb3d
00000080: c9b9 23be 4108 cebd e749 d3bc 2510 4b3e
00000090: aed1 163d 63c8 48bd 5a98 103d 7e2d b7bd
000000a0: 5f2b 38be 6073 eb3d d90d d0bd ee28 8ebd
000000b0: 49a8 16be 3e00 7b3e b0fc 11be 2fc4 66bd
000000c0: 721a d8bd 58a3 9bbd 409c 133c 77b0 783d
000000d0: 9ccd 66bd 7cde 0c3e ab7f c0bd af0c aebd
000000e0: 01ec 25be 7e3a 883b 2e2e f0bb 6ec5 9f3d
000000f0: 7e09 39bc 751b 5a3e b00f 0cbe bc97 233e
00000100: e1df 2a3e d886 ca3d 5522 833e 6d70 773d
00000110: adf3 233d 70a9 babc 6964 f9bd a21c 173e
00000120: 6de1 a2bc d9bb 773d c23d d63b 909f 493d
00000130: 8efa 873d b3c1 97bd 9871 82be 538d b1bd
00000140: f97c a43a a936 20bd 1686 1ebe 146e 8abd
00000150: 3299 7d3d d920 783d ecef 063e bf67 c33b
00000160: 87ee af3d cec5 63bd 332e f8bd c5cf 8e3d
00000170: 7fa5 4bbe c4c0 c3bd 2ad1 1d3e 82b2 643d
00000180: ae5d 94be bdce 663d 8b8a b93d 43c9 583b
00000190: 0c87 973d 8bed 893d 474f fc3d 2fe8 54bd
000001a0: 0b40 afbc b103 b23d b86f 3f3d 03d1 a83c
000001b0: 0696 fa3c 878a 163e ddb7 1eb9 1098 0fbd
000001c0: f447 2cbe a59a 41bc 77b0 8dbd 93a1 613d
000001d0: 73ba ab3d 5a72 2c3c ad03 38bd abaf 793d
000001e0: 4bfe bfba 81d0 e33c 11bd 7a3c cbba b43d
000001f0: b479 013e b3c1 203d 8342 aa3d e094 423d
00000200: cf57 643e cb49 ef3d b6d7 29be 9c98 05be
00000210: e2ad 80bc 7f5f 413e b3d5 9a3d 1137 883d
00000220: 32f9 063e 867c 0c3b 5385 55be 6ad9 da3d
00000230: 5e86 31bd a64e f43d 9061 a2bd 6a98 963d
00000240: 4005 e6bd 9da8 e23d d874 3f3e a485 2b3e
00000250: e4e8 fe3c 4700 c7bc 8f4b adbd 3551 453c
00000260: 8df2 243d b8d1 e43d 2641 5cbd ddc0 3d3e
00000270: 5aa0 92be d57b 45bd 205a 0dbe 851a c03d
00000280: 55b9 60be b137 d83c 471f 3c3b 599f 23bd
00000290: 61a9 073d e1d4 acbd 315e a53c fc58 01be
000002a0: 0b71 3dbe e5f7 1f3e 8864 183e 34df c53b
000002b0: d4e6 36be a7f2 b23d 9c65 b73d cb9e 6f3e
000002c0: 1f86 873b 1c23 643c 8986 bebd 715a c4bc
000002d0: b663 dcbd 341e 3cbe bd51 06be a72b 77bd
000002e0: 9f5c 75bd 4f83 31be 69cf 63be 76e0 713c
000002f0: bae6 f13d 936f 83bd 5d8c a63d 95df a73d
00000300: 5ace 513e 47ee d9bd 4c9a e33d 8d65 1fbd
00000310: 17f9 0abe 3d59 293d d270 623d 3410 203e
00000320: 23cf 783d efba 793e d24c 76bd 3a67 dcbd
00000330: 5826 af3c 23ba fc3d 827c 1a3e 5c7c 593d
00000340: 28a5 c0bd 5d81 f1bd e814 6abd a50e 8cbd
00000350: e3f8 913c ab77 503d 2d46 8cbc 6211 89be
00000360: ed3c 3cbd 2f84 ff3d 6092 52be 3650 323e
00000370: 5559 123d 01a1 6cbd a4c2 f43d 43c9 473e
00000380: ef5d 08ba 7115 453e 0a99 913c 45bb fabd
00000390: 716c 87bd 6219 1e3c 3124 3d3d de34 6b3e
000003a0: bd30 08bc 9146 d6bd 123e 72be 9da6 ffbd
000003b0: db5c 053b 22fe 133c dfb6 b63c e5c2 413d
000003c0: 23b9 dbbd f3a0 023d 87de 7ebd 11c9 5a3d
000003d0: ca2f cebd 5937 4dbb b012 27bd a216 2d3e
000003e0: b971 143e 1d13 a9bd e9ef c93d 84a0 723d
000003f0: 2946 7f3d 6dbb 853d d238 6f3d ff6c d23c

conv1.bias f4 [16]
0.0 0.0 0.0 0.0 0.0 0.0 0.0 0.0
0.0 0.0 0.0 0.0 0.0 0.0 0.0 0.0
00000000: 0000 0000 0000 0000 0000 0000 0000 0000
00000010: 0000 0000 0000 0000 0000 0000 0000 0000
00000020: 0000 0000 0000 0000 0000 0000 0000 0000
00000030: 0000 0000 0000 0000 0000 0000 0000 0000

conv2.weight f4 [64, 16, 5, 5]
0.02792562 0.01745736 0.04241834 0.10177421 0.018860435 0.024217425 -0.0015199287 0.054626096
-0.025320057 -0.042208552 -0.011071927 0.11372949 -0.03916212 -0.013389157 0.07842263 -0.0141757075
-0.0048017385 0.053221703 0.07444123 0.044128057 -0.011920102 0.027343674 -0.0030290098 -0.026524488
-0.10181854 0.026234403 -0.034851268 -0.004396576 -0.013715657 0.064614534 -0.07229497 -0.015733337
0.005630016 -0.073395886 -0.08584085 -0.027512258 0.026753938 -0.06696082 0.06178838 -0.101852834
0.070857264 0.008433777 -0.057105042 0.0303482 -0.041659128 -0.023960521 0.014992257 0.036068898
-0.030922338 0.02728313 -0.03845666 0.003966813 -0.037923336 0.047099516 0.02169953 0.056171376
0.025287885 -0.056854885 -0.0379091 0.0021141707 -0.03450455 -0.028107692 0.041264784 0.1134174
-0.08866364 -0.049536377 0.031743072 0.051192433 0.047873724 0.00095647824 -0.053501524 -0.037594568
0.12200347 -0.09564309 0.015538299 -0.07381318 -0.023914697 -0.005863962 -0.031525422 -0.063273214
-0.014742677 -0.013993134 0.054185618 0.008649195 0.025617613 -0.049092647 0.056293573 0.0127693
-0.022944827 -0.04641893 -0.008587688 -0.03433327 -0.0066344137 0.08147871 -0.07728401 -0.008479967
0.001390864 0.0045537087 0.033592623 0.049259063 -0.038048696 -0.0636306 -0.03133714 0.06856293
0.011799116 -0.022328308 -0.058890123 0.070625685 -0.0011583309 -0.000554661 -0.049764108 -0.014967682
0.03835148 -0.04686054 -0.116523854 -0.03904417 0.041250326 0.06103326 -0.003148792 0.057318192
0.06107689 -0.015686331 -0.03617127 -0.01813673 0.02212453 0.0097091235 -0.024999348 -0.027502552
0.0011925794 -0.07601913 0.026469996 -0.019541422 -0.09645518 0.001748835 -0.02416813 -0.061303653
-0.016981926 0.00036632604 -0.0026090199 0.0583745 0.086510405 0.10280844 -0.011736155 -0.06728122
-0.025828918 -0.034408715 0.02377519 -0.071581684 0.0071386783 0.031644553 -0.052446168 -0.026123116
-0.056690153 -0.007064139 -0.032281335 0.02050688 0.016335968 -0.041721426 -0.02460865 0.032902118
0.026809597 0.061750002 -0.010607078 0.06936729 -0.041242328 0.017724937 -0.014036856 -0.012162984
-0.014683199 -0.03143372 -0.0021133723 -0.0135024255 0.07193952 0.0016293174 -0.027398676 -0.024683997
0.14409427 -0.05836011 0.09706678 -0.058180463 -0.07983278 0.0041602827 -0.046110377 -0.018557087
-0.048571542 0.0076410966 0.03625494 -0.06947629 0.05937214 0.0013779118 0.10005273 -0.0062303487
-0.05782581 0.045049798 -0.009421318 -0.06363118 0.028822927 -0.017797034 -0.025942689 -0.01963698
0.08755801 0.009794674 0.08878959 -0.009261292 0.052975655 0.06489157 0.016427908 0.0074345395
0.01352185 -0.0590925 -0.051701616 -0.024737485 -0.04475599 0.026700944 -0.044330563 0.03981849
0.032941256 -0.014833472 0.011660032 -0.067365594 -0.041154996 -0.02697353 0.0046075326 0.042695723
-0.05165803 0.029189883 0.050831735 -0.039709564 0.018371323 0.021465214 0.101442955 -0.038419604
-0.061312735 -0.005667487 0.015424523 -0.022053214 -0.038984947 -0.037828367 0.075740926 -0.078982085
0.031931788 -0.021806914 -0.05011494 0.01890145 0.002138013 0.029293252 -0.068438165 0.05584255
0.013846266 0.05290128 -0.0025739637 0.008564193 -0.010582583 -0.008938056 -0.042491566 0.058348835
00000000: 45c4 e43c bd02 8f3c dabe 2d3d ff6e d03d
00000010: 3381 9a3c 9f63 c63c 5838 c7ba 9dbf 5f3d
00000020: 026c cfbc e0e2 2cbd 0767 35bc 02eb e83d
00000030: 7668 20bd 325e 5bbc 0b9c a03d 3a41 68bc
00000040: e757 9dbb 00ff 593d a574 983d 9fbf 343d
00000050: 884c 43bc d7ff df3c 5a82 46bb e249 d9bc
00000060: 3d86 d0bd 88e9 d63c 34c0 0ebd 2711 90bb
00000070: a3b7 60bc a054 843d 630f 94bd 33e3 80bc
00000080: ff7b b83b 9550 96bd 54cd afbd 6361 e1bc
00000090: 132b db3c c122 89bd d015 7d3d 3898 d0bd
000000a0: 9d1d 913d d32d 0a3c fae6 69bd ca9c f83c
000000b0: c3a2 2abd db48 c4bc 15a2 753c fbbc 133d
000000c0: d850 fdbc df80 df3c bb84 1dbd 0afc 813b
000000d0: 8055 1bbd 6ceb 403d 36c3 b13c f513 663d
000000e0: 8a28 cf3c abe0 68bd 9346 1bbd e68d 0a3b
000000f0: a554 0dbd 1a42 e6bc 4305 293d 6247 e83d
00000100: 4895 b5bd a8e6 4abd 0605 023d 28af 513d
00000110: 3d17 443d 2bbc 7a3a 6a24 5bbd c3fc 19bd
00000120: f5dc f93d 86e0 c3bd 5a94 7e3c 5d2b 97bd
00000130: c1e8 c3bc 7b26 c0bb cd20 01bd 6395 81bd
00000140: 458b 71bc 7543 65bc bdf1 5d3d 5ab5 0d3c
00000150: 07dc d13c 5f15 49bd 1794 663d 5336 513c
00000160: caf6 bbbc c721 3ebd 60b3 0cbc 0ba1 0cbd
00000170: 7f65 d9bb 4fde a63d 1447 9ebd 8fef 0abc
00000180: a74d b63a 4737 953b 6b98 093d dfc3 493d
00000190: f3d8 1bbd c350 82bd 5f5b 00bd b96a 8c3d
000001a0: 1451 413c dbe9 b6bc c536 71bd 33a4 903d
000001b0: 23d3 97ba ab66 11ba 73d5 4bbd 023b 75bc
000001c0: 7116 1d3d d6f0 3fbd 0fa4 eebd c8ec 1fbd
000001d0: 1af6 283d 03fe 793d f75b 4ebb 7bc6 6a3d
000001e0: c32b 7a3d 9f80 80bc 5328 14bd 7b93 94bc
000001f0: 813e b53c 0413 1f3c 6fcb ccbc 084d e1bc
00000200: 5350 9c3a ebaf 9bbd 9bd7 d83c 5515 a0bc
00000210: 4b8a c5bd 2a39 e53a 3efc c5bc 8a19 7bbd
00000220: ae1d 8bbc 730f c039 17fc 2abb 1a1a 6f3d
00000230: 5e2c b13d 3b8d d23d 0049 40bc bcca 89bd
00000240: 2b97 d3bc 27f0 0cbd 30c4 c23c 6b99 92bd
00000250: 93eb e93b b89d 013d cbd1 56bd 2500 d6bc
00000260: ef33 68bd 4b7a e7bb 6f39 04bd 0bfe a73c
00000270: 02d3 853c 16e4 2abd 1498 c9bc 5fc4 063d
00000280: cd9f db3c 92ed 7c3d 4fc9 2dbc 7010 8e3d
00000290: b7ed 28bd e333 913c d7fa 65bc 4147 47bc
000002a0: cd91 70bc a5c0 00bd 8180 0abb 4739 5dbc
000002b0: 0755 933d d28e d53a 3073 e0bc 1836 cabc
000002c0: 738d 133e 030b 6fbd f3ca c63d a34e 6ebd
000002d0: 5e7f a3bd fb52 883b 3cde 3cbd 0805 98bc
000002e0: f4f2 46bd 2a62 fa3b 0f80 143d 9649 8ebd
000002f0: 3330 733d 0c9b b43a 72e8 cc3d f427 ccbb
00000300: c2da 6cbd 2386 383d df5b 1abc 1051 82bd
00000310: 0f1e ec3c 16cb 91bc c385 d4bc bbdd a0bc
00000320: 9d51 b33d d779 203c 51d7 b53d adbc 17bc
00000330: 00fd 583d dfe5 843d d293 863c 709d f33b
00000340: c08a 5d3c fa0a 72bd 13c5 53bd 44a6 cabc
00000350: 0f52 37bd f0bb da3c f793 35bd b718 233d
00000360: 69ed 063d 1708 73bc b809 3f3c f9f6 89bd
00000370: 2492 28bd 98f7 dcbc c9fa 963b b6e1 2e3d
00000380: 5f97 53bd 9f1f ef3c f034 503d 7fa6 22bd
00000390: 757f 963c d1d7 af3c 53c1 cf3d e05d 1dbd
000003a0: 1023 7bbd 54b6 b9bb 23b7 7c3c f1a8 b4bc
000003b0: aeae 1fbd ebf1 1abd 0f1e 9b3d 5cc1 a1bd
000003c0: e8ca 023d 6aa4 b2bc 5345 4dbd 37d7 9a3c
000003d0: e81d 0c3b 67f8 ef3c 4f29 8cbd 28bb 643d
000003e0: 73db 623c 03af 583d f2af 28bb d450 0c3c
000003f0: 9262 2dbc ed70 12bc a30b 2ebd 30ff 6e3d

conv2.bias f4 [64]
0.0 0.0 0.0 0.0 0.0 0.0 0.0 0.0
0.0 0.0 0.0 0.0 0.0 0.0 0.0 0.0
0.0 0.0 0.0 0.0 0.0 0.0 0.0 0.0
0.0 0.0 0.0 0.0 0.0 0.0 0.0 0.0
0.0 0.0 0.0 0.0 0.0 0.0 0.0 0.0
0.0 0.0 0.0 0.0 0.0 0.0 0.0 0.0
0.0 0.0 0.0 0.0 0.0 0.0 0.0 0.0
0.0 0.0 0.0 0.0 0.0 0.0 0.0 0.0
00000000: 0000 0000 0000 0000 0000 0000 0000 0000
00000010: 0000 0000 0000 0000 0000 0000 0000 0000
00000020: 0000 0000 0000 0000 0000 0000 0000 0000
00000030: 0000 0000 0000 0000 0000 0000 0000 0000
00000040: 0000 0000 0000 0000 0000 0000 0000 0000
00000050: 0000 0000 0000 0000 0000 0000 0000 0000
00000060: 0000 0000 0000 0000 0000 0000 0000 0000
00000070: 0000 0000 0000 0000 0000 0000 0000 0000
00000080: 0000 0000 0000 0000 0000 0000 0000 0000
00000090: 0000 0000 0000 0000 0000 0000 0000 0000
000000a0: 0000 0000 0000 0000 0000 0000 0000 0000
000000b0: 0000 0000 0000 0000 0000 0000 0000 0000
000000c0: 0000 0000 0000 0000 0000 0000 0000 0000
000000d0: 0000 0000 0000 0000 0000 0000 0000 0000
000000e0: 0000 0000 0000 0000 0000 0000 0000 0000
000000f0: 0000 0000 0000 0000 0000 0000 0000 0000

conv3.weight f4 [8, 64, 5, 5]
0.0049825446 0.0038239427 -0.008634728 -0.004549333 0.017546974 -0.046840318 0.026534632 -0.0033624382
0.060080577 -0.03331727 0.03577927 -0.00981372 0.025953714 -0.010091371 -3.0146755e-05 0.0327192
-0.013510108 0.026873117 0.01273415 -0.023027277 0.0060217087 -0.003311672 -0.0051822434 0.03278805
-0.0014376488 0.03285002 0.00394701 -0.023424553 -0.011018068 0.0135222925 -0.0046455846 -0.015596271
0.050756257 0.045863487 -0.023096642 0.04242674 0.0040546204 0.0059466306 -0.010788302 0.05589793
-0.010001575 -0.01037733 0.030509168 0.0043399963 0.003377448 -0.007597008 -0.012670937 -0.015375455
0.013741967 -0.01736534 0.0025053727 -0.020275729 -0.02773138 0.011246459 -0.013664707 0.020225307
0.033965975 -0.01154346 0.0023407058 0.011285252 -0.02733846 0.029964477 0.0128946155 0.019901393
0.004144801 0.023102365 -0.0071804314 -0.038514256 0.015751848 0.0334534 -0.04093946 0.012910182
-0.02900745 -0.027372718 0.018919462 -0.022207906 -0.0013357613 -0.028397424 -0.0039382107 -0.01853159
0.028160736 0.010109424 -0.0218459 0.0005229281 0.0070655006 -0.019741165 -0.019426813 -0.0059024985
0.036000043 0.040665414 0.01449127 0.0035902453 0.03822007 0.023034373 -0.0018030445 -0.0068116174
-0.01629217 -0.037437934 0.01782088 -0.03250008 -0.016162071 0.014583722 0.009078406 -0.060352433
-0.0456667 0.015870554 0.0027564212 0.029031778 -0.044586964 -0.054987725 0.033458117 -0.0001751504
-0.0038919474 0.013605006 -0.005504683 -0.031181512 -0.030828634 0.029211953 -0.0042147413 -0.016514262
-0.05652377 0.0033277713 -0.039709676 -0.013096513 0.012166473 -0.030818481 -0.043359786 0.011347348
0.015039493 0.03643131 -0.0060308813 0.02163787 0.010337151 0.003024562 -0.052203245 0.01857863
0.019856842 -0.029005349 0.04226491 -0.007986418 -0.034935217 0.009673688 -0.021067152 -0.0109197395
-0.013346316 -0.015324737 -0.022789653 -0.009647718 0.014466598 0.02388652 -0.03700226 0.028801126
-0.0030812598 0.02631392 -0.016098175 -3.3590728e-05 -0.032686695 0.050394427 0.032090418 0.02740477
0.041500147 -0.04404309 0.004498535 0.023907064 0.051141966 -0.027813321 0.02050038 -0.0070389765
-0.023191653 0.0023023398 -0.008697622 0.019734839 -0.00422141 -0.006291199 -0.07672882 -0.02374063
0.04134276 -0.0040677534 0.0055214954 0.032155488 -0.007582504 -0.021387346 0.007360765 -0.023607284
-0.005985889 0.02348105 0.0010900156 0.032020267 0.012690529 -0.032895487 0.04905003 -0.00126116
0.017676312 0.0031180554 0.015257813 -0.032477606 0.055279464 -0.004774278 -0.014174749 -0.041982766
-0.023508286 -0.05267353 0.0040981886 0.010455596 0.014023788 0.024694387 0.025422418 -0.036387783
0.03764083 0.052295297 -0.001826196 0.028094033 -0.004955146 0.0028498876 0.038730938 -0.0003649404
0.058945764 0.011751983 -0.009778083 -0.027539844 -0.018223424 -0.0120820245 0.03160011 -0.059805226
-0.02322227 0.013140328 -0.004812263 -0.03391164 0.036470857 -0.005248439 0.03504442 0.044079963
-0.0075148083 0.020222632 -0.0008435975 0.040497996 -0.0344436 0.018824186 0.018517252 0.004432242
0.018596292 -0.017841874 -0.021193953 -0.0065774256 0.0012331519 0.008300333 0.00857205 -0.004699065
-0.010408379 -0.0016772473 -0.0011805325 0.021743296 -0.009520878 -0.017624326 0.028079567 0.041996285
00000000: 9d44 a33b 1d9b 7a3b ad78 0dbc 9212 95bb
00000010: acbe 8f3c a2db 3fbd 285f d93c 5a5c 5cbb
00000020: 0d17 763d b177 08bd 498d 123d bac9 20bc
00000030: e29c d43c 4756 25bc aae3 fcb7 9104 063d
00000040: 8059 5dbc 0325 dc3c e5a2 503c b3a3 bcbc
00000050: c151 c53b a308 59bb cfcf a9bb c34c 063d
00000060: 7d6f bcba be8d 063d eb55 813b d9e4 bfbc
00000070: 2085 34bc 9b8c 5d3c fd39 98bb 8087 7fbc
00000080: cbe5 4f3d 5adb 3b3d 2b35 bdbc a9c7 2d3d
00000090: 9fdc 843b f4db c23b 6bc1 30bc 3af5 643d
000000a0: a5dd 23bc ad05 2abc 5dee f93c 8736 8e3b
000000b0: 2d58 5d3b 52f0 f8bb c399 4fbc 55e9 7bbc
000000c0: fd25 613c c241 8ebc 2e31 243b 4919 a6bc
000000d0: eb2c e3bc 1143 383c efe1 5fbc 8baf a53c
000000e0: e81f 0b3d c820 3dbc 8766 193b c7e5 383c
000000f0: e8f4 dfbc 1078 f53c f043 533c 3f08 a33c
00000100: 1cd1 873b 2c41 bd3c d349 ebbb 20c1 1dbd
00000110: 050a 813c 6f06 093d 23b0 27bd 3a85 533c
00000120: 08a1 edbc c03c e0bc fdfc 9a3c 5bed b5bc
00000130: b614 afba b7a1 e8bc 1b0c 81bb 90cf 97bc
00000140: 58b1 e63c ffa1 253c 2cf6 b2bc 1c15 093a
00000150: b785 e73b 39b8 a1bc fb24 9fbc bf69 c1bb
00000160: c874 133d c790 263d cb6c 6d3c 524a 6b3b
00000170: a68c 1c3d 95b2 bc3c 2254 ecba fd33 dfbb
00000180: 2877 85bc 8558 19bd 18fd 913c ce1e 05bd
00000190: 5266 84bc 90f0 6e3c 98bd 143c 1d34 77bd
000001a0: 010d 3bbd f702 823c 13a5 343b 0dd4 ed3c
000001b0: d2a0 36bd cf3a 61bd 610b 093d 94a8 37b9
000001c0: 0b10 7fbb 88e7 5e3c a160 b4bb 5f70 ffbc
000001d0: 558c fcbc e84d ef3c d01b 8abb eb48 87bc
000001e0: 7885 67bd bd16 5a3b 9da6 22bd c292 56bc
000001f0: e355 473c 0a77 fcbc 089a 31bd 3aea 393c
00000200: 3568 763c ff38 153d b39e c5bb e741 b13c
00000210: 275d 293c bb37 463b 12d3 55bd 3632 983c
00000220: d1aa a23c a09c edbc f81d 2d3d 77d9 02bc
00000230: 3b18 0fbd 637e 1e3c 0595 acbc b5e8 32bc
00000240: 82aa 5abc 9b14 7bbc 5eb1 babc 7611 1ebc
00000250: 4f05 6d3c aaad c33c af8f 17bd 57f0 eb3c
00000260: f6ee 49bb 4a90 d73c 52e0 83bc c5e3 0cb8
00000270: 7ce2 05bd 636a 4e3d 3e71 033d f87f e03c
00000280: 0ffc 293d 8766 34bd 7268 933b bfd8 c33c
00000290: 3d7a 513d c3d8 e3bc 6af0 a73c 37a7 e6bb
000002a0: 6cfc bdbc dae2 163b 7980 0ebc f5aa a13c
000002b0: c153 8abb 6726 cebb 0024 9dbd b67b c2bc
000002c0: 0757 293d ca4a 85bb a9ed b43b 79b5 033d
000002d0: a776 f8bb 8434 afbc 9232 f13b 1064 c1bc
000002e0: 4725 c4bb 555b c03c dbde 8e3a af27 033d
000002f0: f0eb 4f3c 6bbd 06bd afe8 483d 824d a5ba
00000300: eacd 903c 4a58 4c3b e8fb 793c 3d07 05bd
00000310: b86c 623d 8c71 9cbb 353d 68bc 1ff6 2bbd
00000320: 7394 c0bc 33c0 57bd 194a 863b f34d 2b3c
00000330: 08c4 653c e24b ca3c ad42 d03c 5b0b 15bd
00000340: 452d 1a3d 9833 563d f85c efba 7525 e63c
00000350: c75e a2bb 2ec5 3a3b 55a4 1e3d 7955 bfb9
00000360: 1d71 713d 648b 403c 4134 20bc 3d9b e1bc
00000370: 4a49 95bc aff3 45bc 1e6f 013d 53f6 74bd
00000380: a13c bebc 884a 573c 30b0 9dbb efe6 0abd
00000390: 7762 153d 19fb abbb bd8a 0f3d 318d 343d
000003a0: c83e f6bb efa9 a53c df24 5dba 3ae1 253d
000003b0: bb14 0dbd 2e35 9a3c 7eb1 973c 573c 913b
000003c0: 4057 983c 1f29 92bc f19e adbc 7287 d7bb
000003d0: b6a1 a13a 1ffe 073c c971 0c3c 9dfa 99bb
000003e0: e887 2abc 15d7 dbba 19bc 9aba ff1e b23c
000003f0: 75fd 1bbc e460 90bc 1f07 e63c 4c04 2c3d

conv3.bias f4 [8]
0.0 0.0 0.0 0.0 0.0 0.0 0.0 0.0
00000000: 0000 0000 0000 0000 0000 0000 0000 0000
00000010: 0000 0000 0000 0000 0000 0000 0000 0000

fc1.weight f4 [2, 32]
-0.09458313 0.00540201 0.35267144 -0.040393908 -0.1274854 -0.057486616 -0.18700193 0.23592171
0.3035175 -0.07825967 0.031456463 -0.084063604 0.07248587 0.27769926 -0.35030738 0.2877121
-0.15967624 0.17662604 0.42581153 -0.13292845 -0.07358575 -0.30659834 0.25360098 0.40963784
-0.70890635 -0.13280831 -0.039047055 -0.09595169 0.19185172 -0.11300254 0.1276106 0.22639996
-0.20770423 -0.13118151 -0.6243899 0.09178783 -0.03987765 0.110168 -0.11071215 0.068317354
-0.33202925 0.43321252 -0.0192482 -0.01874154 0.29514536 -0.095579885 -0.025296032 0.58365226
-0.1805179 0.14772098 -0.21324666 0.24004711 -0.30318746 0.19832265 0.04880574 -0.45662412
0.29384723 0.1545146 -0.2756668 0.032218415 -0.44760936 -0.12730028 -0.011567945 -0.15877986
00000000: cdb4 c1bd 5803 b13b 5a91 b43e 1574 25bd
00000010: 888b 02be 1677 6bbd 6f7d 3fbe 7695 713e
00000020: a566 9b3e 9b46 a0bd 7ed8 003d 8a29 acbd
00000030: 7973 943d 992e 8e3e 7d5b b3be 004f 933e
00000040: 2b82 23be 75dd 343e f803 da3e 651e 08be
00000050: 20b4 96bd 75fa 9cbe fdd7 813e 0dbc d13e
00000060: e37a 35bf e7fe 07be ceef 1fbd 5282 c4bd
00000070: c774 443e e06d e7bd 5aac 023e 64d5 673e
00000080: 6bb0 54be 7254 06be 04d8 1fbf 42fb bb3d
00000090: bf56 23bd c39f e13d 0dbd e2bd f8e9 8b3d
000000a0: bdff a9be 08ce dd3e 67ae 9dbc dc87 99bc
000000b0: 4b1d 973e 63bf c3bd a039 cfbc 3c6a 153f
000000c0: afd9 38be 2b44 173e 555d 5abe e9ce 753e
000000d0: 633b 9bbe 1815 4b3e 87e8 473d a3ca e9be
000000e0: 2573 963e 1339 1e3e 3324 8dbe 75f7 033d
000000f0: 0e2d e5be 015b 02be 7a87 3dbc 3097 22be

fc1.bias f4 [2]
0.021792646 -0.021792643
00000000: 7e86 b23c 7c86 b2bc
