checkpoints/target2/epoch=7.checkpoint.pth.tar (torch, 164517 bytes, 8 tensors)

conv1.weight f4 [16, 3, 5, 5]
0.22463368 0.1716413 0.10306558 -0.24120666 0.084934555 -0.13663095 -0.00085761957 -0.18570076
-0.084187075 0.20083201 -0.041232944 -0.15839104 -0.08595037 -0.060440008 -0.081120834 0.08182085
0.18696223 -0.024920348 -0.06136432 0.05508888 -0.096463256 0.12073399 0.09010611 0.19557439
0.1559464 0.15183072 0.070395075 0.15318203 -0.024827622 0.011419502 -0.023127375 0.10340326
-0.16029818 -0.09793955 -0.015338113 0.20239037 0.04050451 -0.050921075 0.03945896 -0.0817852
-0.18607165 0.11229 -0.10808055 -0.07334382 -0.14279678 0.23619631 -0.14634499 -0.058701843
-0.10400621 -0.067749344 0.011142185 0.060619637 -0.057288684 0.13948546 -0.08739597 -0.079063125
-0.15791768 0.0037476053 -0.004667607 0.08846727 -0.0072071827 0.21667887 -0.13868043 0.1639159
0.17452663 0.092671245 0.2534452 0.053918358 0.0360975 -0.018456375 -0.13069536 0.14379066
-0.022245277 0.06199494 0.014783931 0.03854702 0.04649556 -0.09540043 -0.26645392 -0.098650254
-0.0023167918 -0.05283913 -0.16980115 -0.075752094 0.05834324 0.056181516 0.12843537 -0.0011519059
0.08418482 -0.04970782 -0.1255012 0.06760841 -0.19844331 -0.09671734 0.16349584 0.047376573
-0.29473603 0.063754566 0.08904222 0.008676039 0.06331058 0.047447298 0.101897575 -0.06366022
-0.03334774 0.08334936 0.033012897 0.0056147226 0.022429807 0.14344232 -0.0045480626 -0.038396385
-0.17535837 -0.013536011 -0.063283496 0.05076637 0.0817279 0.010955582 -0.046060223 0.070336185
-0.009922504 0.02285052 0.022708949 0.08669284 0.13180897 0.028569806 0.06323438 0.026204752
0.21131024 0.10488505 -0.16943367 -0.14418945 -0.030700669 0.18068144 0.07203251 0.062114596
0.12847075 -0.004971548 -0.21023577 0.11276073 -0.04766038 0.1171668 -0.07885736 0.07239807
-0.10293704 0.102215454 0.18201037 0.17490698 0.029562807 -0.018923992 -0.06799952 0.022180686
0.03698998 0.11693306 -0.05765213 0.19172695 -0.2896843 -0.058973443 -0.14149462 0.08418499
-0.21430698 0.026906407 -0.00025737766 -0.037753712 0.041018046 -0.07214789 0.029371759 -0.12236949
-0.17789239 0.15969945 0.15460208 0.020441756 -0.1678236 0.090050854 0.08730415 0.25062153
0.014273267 0.010643997 -0.08782511 -0.027847983 -0.10119113 -0.18701369 -0.14193082 -0.0637999
-0.0695184 -0.16820246 -0.22195823 0.011635095 0.12030899 -0.05628012 0.09356493 0.09115467
0.20883523 -0.09930235 0.11461443 -0.033134155 -0.12131269 0.05213628 0.05795734 0.15406671
0.07736168 0.25401455 -0.06341226 -0.10241383 0.01750151 0.12982282 0.14756086 0.04233747
-0.09752055 -0.12753807 -0.05199886 -0.06787464 0.014690986 0.05308855 -0.009225787 -0.2554683
-0.03677131 0.12871033 -0.19852735 0.17761451 0.041510757 -0.043367546 0.13030325 0.19777761
-0.0027653084 0.19670251 0.025173655 -0.12067767 -0.07434488 -0.011441329 0.0466573 0.23780972
-0.004250335 -0.112307936 -0.25852993 -0.12550987 0.0134476125 0.014292377 0.0143504655 0.017314266
-0.09974532 0.05214235 -0.04768791 0.053398874 -0.12142185 0.004036243 -0.028014975 0.17569174
0.13579322 -0.10049797 0.10283996 0.06663559 0.06407261 0.057078816 0.037312865 0.026166957
00000000: 5f06 663e bdc2 2f3e 0c14 d33d e1fe 76be
00000010: 2bf2 ad3d fce8 0bbe e0d1 60ba 5728 3ebe
00000020: 466a acbd e8a6 4d3e e0e3 28bd 4331 22be
00000030: bf06 b0bd f18f 77bd ae22 a6bd b191 a73d
00000040: 0773 3f3e c225 ccbc 2759 7bbd e1a4 613d
00000050: 878e c5bd 6243 f73d 8d89 b83d a744 483e
00000060: 6ab0 1f3e 8379 1b3e 4b2b 903d c0db 1c3e
00000070: 4c63 cbbc dd18 3b3c 9f75 bdbc 17c5 d33d
00000080: 3525 24be 8894 c8bd b54c 7bbc 6c3f 4f3e
00000090: 0fe8 253d 9e92 50bd b89f 213d 007f a7bd
000000a0: 9189 3ebe 4df8 e53d 5659 ddbd 4935 96bd
000000b0: 5239 12be 72dd 713e 76db 15be 5871 70bd
000000c0: 3501 d5bd 2bc0 8abd b68d 363c 4c4c 783d
000000d0: 8aa7 6abd 47d5 0e3e a9fc b2bd d9eb a1bd
000000e0: 2cb5 21be 629a 753b baf2 98bb 542e b53d
000000f0: 3b2a ecbb 11e1 5d3e 3e02 0ebe 92d9 273e
00000100: 1cb7 323e 6cca bd3d 92c3 813e 7fd9 5c3d
00000110: f9da 133d d331 97bc 01d5 05be dc3d 133e
00000120: ba3b b6bc 68ee 7d3d 4d38 723c 7be3 1d3d
00000130: 2172 3e3d 4d61 c3bd a66c 88be 2509 cabd
00000140: 51d5 17bb d86d 58bd 5ae0 2dbe ea23 9bbd
00000150: 52f9 6e3d 971e 663d 9084 033e 8cfb 96ba
00000160: 1769 ac3d 6d9a 4bbd 6383 00be 4776 8a3d
00000170: b934 4bbe be13 c6bd 746b 273e f00d 423d
00000180: a4e7 96be c191 823d c45b b63d f225 0e3c
00000190: faa8 813d 1958 423d adaf d03d 4a60 82bd
000001a0: a497 08bd 12b3 aa3d 8838 073d b5fb b73b
000001b0: b7be b73c 8be2 123e ea07 95bb 8745 1dbd
000001c0: 2591 33be 25c6 5dbc c79a 81bd 66f0 4f3d
000001d0: f560 a73d 0b7f 333c a5a9 3cbd 6b0c 903d
000001e0: 0092 22bc 0431 bb3c 1e08 ba3c 048c b13d
000001f0: eef8 063e 3a0b ea3c 0781 813d 59ab d63c
00000200: b661 583e f9cd d63d 0580 2dbe 66a6 13be
00000210: f87f fbbc 8e04 393e c885 933d e06b 7e3d
00000220: d68d 033e 5ee8 a2bb 0c48 57be 19ef e63d
00000230: 8837 43bd 26f5 ef3d f87f a1bd 7045 943d
00000240: a8d0 d2bd 5656 d13d ed60 3a3e d11a 333e
00000250: b32d f23c 7d06 9bbc 5543 8bbd 45b4 b53c
00000260: ce82 173d 9a7a ef3d a424 6cbd 1254 443e
00000270: 8051 94be 238e 71bd f7e3 10be 2e69 ac3d
00000280: 4a73 5bbe d36a dc3c a5f0 86b9 a3a3 1abd
00000290: 8a02 283d 46c2 93bd 0b9d f03c db9c fabd
000002a0: 6c29 36be 4188 233e 0250 1e3e 7875 a73c
000002b0: f3d9 2bbe 956c b83d 85cc b23d 7751 803e
000002c0: 6cda 693c 2964 2e3c a7dd b3bd 7421 e4bc
000002d0: 4c3d cfbd 8480 3fbe 5056 11be 86a9 82bd
000002e0: aa5f 8ebd 443d 2cbe 0549 63be 20a1 3e3c
000002f0: 8f64 f63d fc85 66bd f89e bf3d 4daf ba3d
00000300: e7d8 553e 085f cbbd f8ba ea3d aeb7 07bd
00000310: ca72 f8bd da8c 553d ad64 6d3d aac3 1d3e
00000320: cd6f 9e3d 320e 823e 49de 81bd 58be d1bd
00000330: 545f 8f3c 46f0 043e 321a 173e 0e6a 2d3d
00000340: dbb8 c7bd 5799 02be c2fc 54bd dc01 8bbd
00000350: 76b2 703c 6173 593d c127 17bc becc 82be
00000360: 839d 16bd a4cc 033e c14a 4bbe 94e0 353e
00000370: 2f07 2a3d 2ba2 31bd 376e 053e 3786 4a3e
00000380: 2d3a 35bb 626c 493e fb38 ce3c db25 f7bd
00000390: 2142 98bd 6974 3bbc ba1b 3f3d 6484 733e
000003a0: 6546 8bbb b401 e6bd 095e 84be a985 00be
000003b0: 6053 5c3c 932a 6a3c 371e 6b3c a6d6 8d3c
000003c0: 4647 ccbd 3793 553d 6654 43bd c7b8 5a3d
000003d0: 05ac f8bd 7642 843b a97f e5bc 89e8 333e
000003e0: 610d 0b3e e1d1 cdbd c29d d23d 3d78 883d
000003f0: 8038 833d 7acb 693d 60d5 183d 165c d63c

conv1.bias f4 [16]
0.0039580055 0.0035449236 -0.010876528 -0.018341495 0.0043458636 -0.015131464 -0.006451869 -0.0029689756
-0.00015105338 -0.0018992288 -0.013666874 -0.0066734497 -0.025147386 -0.0075410316 -0.034427166 0.0044291103
00000000: 28b2 813b f351 683b 7733 32bc e740 96bc
00000010: bf67 8e3b f6e9 77bc 336a d3bb 2593 42bb
00000020: 1564 1eb9 8bef f8ba 06eb 5fbc f4ac dabb
00000030: e401 cebc c21a f7bb 8003 0dbd 1222 913b

conv2.weight f4 [64, 16, 5, 5]
0.030888082 0.019013323 0.04846366 0.10506583 0.021819938 0.02449963 0.0023609565 0.057279076
-0.019257605 -0.044116728 -0.015165168 0.11847874 -0.03311939 -0.010327509 0.07533857 -0.0056990404
-0.0025454415 0.056415237 0.0749315 0.046157613 -0.0073252036 0.03035114 0.0025793505 -0.02278909
-0.10225277 0.026733546 -0.034970205 0.0009102635 -0.00785984 0.06640747 -0.071985796 -0.012411799
0.010347107 -0.06706387 -0.09171748 -0.027109103 0.032203455 -0.062379714 0.05913745 -0.10702308
0.07454047 0.01138299 -0.053917687 0.02911017 -0.04589237 -0.01904247 0.021545434 0.042868648
-0.028947677 0.024160588 -0.046481147 -0.016313316 -0.03889442 0.038806025 0.009897466 0.06045898
0.022895657 -0.06294052 -0.03156101 0.018655872 -0.027409142 -0.01780305 0.051981147 0.13730502
-0.063411735 -0.049282175 0.051056366 0.06761723 0.056265056 0.0054951613 -0.03336508 -0.033649754
0.12844616 -0.11357892 0.051058818 -0.07135237 -0.009821031 -0.0075623593 -0.025823105 -0.05151504
-0.022559408 -0.017565357 0.050296918 0.021318713 0.024993483 -0.049040962 0.06967407 0.018278206
-0.0084475605 -0.047638133 0.0012470915 -0.0283332 0.0026182916 0.09425046 -0.06719786 -0.010526966
-0.0010359727 0.0124435285 0.040547755 0.07101334 -0.04104728 -0.0695003 -0.03506503 0.07066498
0.010903729 -0.02620426 -0.0566973 0.07557996 0.0012174817 -0.004899579 -0.05263126 -0.013494394
0.044092424 -0.046734203 -0.115233414 -0.035194524 0.038636263 0.0668882 -0.00581619 0.05025666
0.06503841 -0.014222162 -0.029654006 -0.012606665 0.02063258 0.012880301 -0.02370428 -0.030244391
-0.0013803694 -0.07878768 0.031007867 -0.0082771145 -0.083944514 0.012934375 0.002249089 -0.04535454
-0.0075126034 0.015077225 0.010876608 0.07864866 0.11353274 0.11856102 0.001622335 -0.06006237
0.01637875 -0.01760625 0.024882067 -0.058382366 0.028634902 0.0730703 -0.029328234 -0.03485381
-0.055059463 -0.007754068 -0.025728842 0.04512172 0.009706543 -0.046842676 -0.026535168 0.032564927
0.04465441 0.07190573 -0.0064174035 0.078389496 -0.045778245 0.023495652 -0.0011816621 -0.010582494
-0.03525849 -0.034427546 -0.008210771 -0.013588388 0.06909116 -0.009487152 -0.019704627 -0.03212849
0.13509172 -0.060977288 0.106391154 -0.05065284 -0.06898715 0.008938511 -0.039374784 -0.02456196
-0.05249962 0.01903285 0.039241552 -0.08424524 0.049186036 -0.0027808412 0.10534856 -0.010774298
-0.06670919 0.041412592 -0.010261689 -0.061252758 0.028749758 -0.035840187 -0.03647719 -0.0033183822
0.08617652 0.008011984 0.08811251 -0.01384726 0.05233745 0.0826402 0.018314566 0.017022995
0.017145034 -0.06262897 -0.04986816 -0.014613531 -0.040573314 0.025350267 -0.055846874 0.04536334
0.034893278 -0.0053712977 0.009784156 -0.067190714 -0.026665673 -0.020844432 0.011664339 0.04893258
-0.050424762 0.027352996 0.048532546 -0.036613517 0.022390278 0.025538988 0.10257434 -0.036084056
-0.055371273 -0.0036513533 0.010736502 -0.026950974 -0.03569976 -0.0329836 0.077544555 -0.08857766
0.03180669 -0.021642545 -0.046822675 0.019964153 -0.00099321 0.031828616 -0.06521246 0.06408514
0.017753933 0.048047863 -0.0040111644 0.008505592 0.00092995964 0.004618918 -0.03581084 0.07416543
00000000: 0109 fd3c d4c1 9b3c d581 463d c12c d73d
00000010: babf b23c 73b3 c83c 47ba 1a3b 779d 6a3d
00000020: 20c2 9dbc beb3 34bd 5377 78bc fba4 f23d
00000030: 33a8 07bd b634 29bc 1c4b 9a3d 04bf babb
00000040: 6cd1 26bb aa13 673d b075 993d c40f 3d3d
00000050: 4308 f0bb f4a2 f83c 520a 293b 30b0 babc
00000060: e669 d1bd 4f00 db3c eb3c 0fbd c09e 6e3a
00000070: 8fc6 00bc a400 883d 4a6d 93bd dc5a 4bbc
00000080: ea86 293c c858 89bd 60d6 bbbd e913 debc
00000090: c5e7 033d df81 7fbd 1c3a 723d eb2e dbbd
000000a0: ada8 983d b87f 3a3c cbd8 5cbd 7478 ee3c
000000b0: a3f9 3bbd f4fe 9bbc 0d80 b03c 0997 2f3d
000000c0: ae23 edbc 6dec c53c 0463 3ebd 81a3 85bc
000000d0: c14f 1fbd 11f3 1e3d fb28 223c d6a3 773d
000000e0: ac8f bb3c f6e6 80bd 1e46 01bd 33d4 983c
000000f0: 2389 e0bc b4d7 91bc 2fea 543d b099 0c3e
00000100: 03de 81bd 1bdc 49bd 7b20 513d e77a 8a3d
00000110: 3076 663d c110 b43b d2a9 08bd 53d4 09bd
00000120: 6487 033e 119c e8bd 0d23 513d 3121 92bd
00000130: 64e8 20bc abcd f7bb fa8a d3bc 6f01 53bd
00000140: 82ce b8bc 39e5 8fbc 2404 4e3d 95a4 ae3c
00000150: 22bf cc3c 2ddf 48bd 47b1 8e3d 2dbc 953c
00000160: a367 0abc 3420 43bd 7275 a33a 071b e8bc
00000170: a597 2b3b 6306 c13d 089f 89bd 4c79 2cbc
00000180: 7ac9 87ba f1df 4b3c 6715 263d 716f 913d
00000190: 3121 28bd 2c56 8ebd 59a0 0fbd cdb8 903d
000001a0: 8ea5 323c 51aa d6bc 6e3b 68bd abc9 9a3d
000001b0: e893 9f3a a68c a0bb e093 57bd 9717 5dbc
000001c0: 429a 343d 5d6c 3fbd 7fff ebbd 2228 10bd
000001d0: 0f41 1e3d aefc 883d bd95 bebb edd9 4d3d
000001e0: dc32 853d 1204 69bc f5ec f2bc 2f8c 4ebc
000001f0: a805 a93c e607 533c 7a2f c2bc 16c3 f7bc
00000200: 83ed b4ba 6f5b a1bd 3604 fe3c bc9c 07bc
00000210: 1aeb abbd b3ea 533c 7465 133b afc5 39bd
00000220: 492c f6bb 7706 773c cd33 323c 8c12 a13d
00000230: da83 e83d 1fd0 f23d 88a4 d43a f603 76bd
00000240: ba2c 863c fb3a 90bc 7ad5 cb3c 5922 6fbd
00000250: be93 ea3c e2a5 953d c441 f0bc dec2 0ebd
00000260: 0886 61bd d615 febb 4bc5 d2bc 8dd1 383d
00000270: 3108 1f3c 1bde 3fbd 4860 d9bc cd62 053d
00000280: 8be7 363d 5043 933d 1549 d2bb ac8a a03d
00000290: f881 3bbd f479 c03c 00e2 9aba 3262 2dbc
000002a0: 356b 10bd e603 0dbd 7886 06bc d5a1 5ebc
000002b0: ab7f 8d3d 0070 1bbc 996b a1bc 2a99 03bd
000002c0: 7c55 0a3e 52c3 79bd 9be3 d93d 5a79 4fbd
000002d0: 2349 8dbd d572 123c 7447 21bd 2a36 c9bc
000002e0: d709 57bd c8ea 9b3c c0bb 203d c588 acbd
000002f0: 4c77 493d c63e 36bb fcc0 d73d ae86 30bc
00000300: d49e 88bd 40a0 293d a520 28bc 2ce4 7abd
00000310: 9d84 eb3c 29cd 12bd 1b69 15bd 3779 59bb
00000320: 517d b03d b244 033c 5574 b43d 9edf 62bc
00000330: cb5f 563d 443f a93d 6e08 963c cf73 8b3c
00000340: be73 8c3c 9e43 80bd 8e42 4cbd 976d 6fbc
00000350: 3430 26bd 5dab cf3c b1bf 64bd e9ce 393d
00000360: 41ec 0e3d b601 b0bb ba4d 203c 499b 89bd
00000370: f871 dabc f1c1 aabc c91b 3f3c 876d 483d
00000380: 328a 4ebd 6413 e03c 10ca 463d 0ef8 15bd
00000390: d16b b73c 2437 d13c 7f12 d23d e0cc 13bd
000003a0: fdcc 62bd 8b4b 6fbb 27e8 2f3c 4ac8 dcbc
000003b0: e939 12bd d019 07bd aecf 9e3d 3468 b5bd
000003c0: bb47 023d b54b b1bc 22c9 3fbd dd8b a33c
000003d0: 992e 82ba b95e 023d 1c8e 85bd 123f 833d
000003e0: b270 913c d6cd 443d 1670 83bb 0a5b 0b3c
000003f0: 89c8 733a 4b5a 973b 63ae 12bd 0ce4 973d

conv2.bias f4 [64]
0.017387006 0.004158998 -0.01417308 -0.0037188444 -0.008386964 -0.000664725 -0.0046897186 -0.007006584
-0.007481237 -0.0022523333 0.010050163 -0.00168189 -0.01890194 0.011057114 -0.0003389445 0.0034482677
0.0016370714 0.003508858 0.0002895437 -0.005927559 0.0027770316 0.0011177587 0.005365214 -0.008283558
0.0021073043 -0.003061865 -0.004708115 -0.012426131 -0.013723365 -0.0124563705 -0.015087224 0.011163856
-0.0113385 -0.009474587 0.0091235675 0.0060934317 -0.006419041 -0.0004662818 0.011199798 -0.014066279
0.012034608 0.008552302 -0.011558388 0.016758515 5.2851137e-05 -0.010835401 -0.009505849 0.006614955
0.0035702742 -0.011485994 0.0012322388 -0.0060850712 -0.0052587427 -0.01391311 0.007839439 -0.0063369325
-0.0019003825 0.0064139706 0.004355481 0.011719594 -0.0075677484 0.0113530075 0.009959548 0.0055419877
00000000: 326f 8e3c 3448 883b 3536 68bc dbb7 73bb
00000010: 7a69 09bc f140 2eba 36ac 99bb 7d97 e5bb
00000020: 2a25 f5bb e29b 13bb 70a9 243c dd72 dcba
00000030: 3ed8 9abc e628 353c 5cb4 b1b9 55fc 613b
00000040: 0093 d63a def4 653b e6cd 9739 f83b c2bb
00000050: dcfe 353b c281 923a adce af3b c3b7 07bc
00000060: b31a 0a3b 92a9 48bb 8846 9abb f996 4bbc
00000070: f7d7 60bc ce15 4cbc 6730 77bc 9be8 363c
00000080: 1ec5 39bc 4c3b 1bbc 047b 153c 69ab c73b
00000090: d256 d2bb 4977 f4b9 5c7f 373c 4076 66bc
000000a0: ce2c 453c f41e 0c3c 655f 3dbc 2749 893c
000000b0: 7aac 5d38 f786 31bc 6cbe 1bbc 44c2 d83b
000000c0: 43fb 693b c02f 3cbc 1383 a13a 4765 c7bb
000000d0: 8851 acbb d0f3 63bc fe70 003c 0ba6 cfbb
000000e0: 4116 f9ba 492c d23b 6cb8 8e3b 8a03 403c
000000f0: e0fa f7bb f701 3a3c 5f2d 233c 9099 b53b

conv3.weight f4 [8, 64, 5, 5]
0.007389986 0.015827218 -0.008597716 -0.000662171 0.0040464043 -0.06731104 0.03952659 -0.007737477
0.06703882 -0.046930544 0.04627247 -0.0074511645 0.036207113 -0.0060277698 0.007289791 0.025758093
-0.0033301055 0.055749238 0.011441882 -0.011781666 0.025376262 0.0006239716 -0.009668953 0.069960795
-0.017078405 0.040826816 0.000678759 -0.026481317 -5.3547323e-05 -0.0019204688 0.0020371159 -0.03655823
0.051930394 0.02019982 -0.04215794 0.04273474 -0.005441457 -0.025129963 -0.0051349187 0.0617462
0.011805977 -0.0077694966 0.046071105 0.02007459 0.0023250368 -0.008456449 -0.017854359 -0.03692347
0.015616758 -0.0007101382 0.007707728 -0.033455193 -0.032845862 -0.006080824 -0.027810315 0.033437714
0.037000813 -0.008887904 0.002082624 0.0029617415 -0.02428555 0.0297716 0.016555885 0.010857779
0.008517614 0.03272271 -0.004996843 -0.03191627 0.016129127 0.029136628 -0.0371612 0.020260436
-0.023247413 -0.058921013 0.014731844 -0.043564167 -0.008757707 -0.024383081 -0.007635094 -0.023871457
0.03852744 0.004787589 -0.021657389 -0.01405478 -0.005935851 -0.019154515 -0.022232708 -0.00635697
0.042936083 0.036492642 0.018685298 0.00072285486 0.03917473 0.034076814 -0.0010729472 -0.0018013985
-0.016003333 -0.053809654 0.028338606 -0.025443437 -0.018406244 0.014464358 0.009431711 -0.06957087
-0.054660946 0.027075706 0.013614828 0.04602315 -0.031992957 -0.03654034 0.021110544 -0.008284832
0.008513713 0.022204198 0.0046244 -0.02270164 -0.040771622 0.03702223 -0.011504682 -0.03604318
-0.06079121 -0.006978679 -0.0122027 0.03397174 -0.012181728 -0.023568312 -0.047326334 0.0054516164
0.009985128 0.025552394 -0.0068044285 0.025425738 0.009977955 -0.0007698826 -0.060654562 0.017906753
0.018123068 -0.03597932 0.044208948 0.004633892 -0.04192291 0.010790681 -0.016958615 -0.013268934
-0.008750924 -0.016941305 -0.011980538 0.010823791 0.008903717 0.014495772 -0.031169262 0.02014039
-0.020825496 0.027489344 -0.028496977 -0.017978648 -0.052714225 0.035096887 0.021592759 0.0061331056
0.048867166 -0.045127477 -0.004695402 0.01703946 0.05766854 -0.02896592 0.0150010185 -0.011424862
-0.030478723 0.008935303 -0.003992293 0.012805927 -0.028432434 -0.02684048 -0.06468939 -0.03261203
-0.008286001 -0.031911504 0.009448698 0.016414497 -0.02152357 -0.017033685 0.022407662 -0.023364948
-0.025448684 0.026890978 -0.0095115695 0.023699308 0.013019022 -0.021824704 0.052689962 0.012190716
0.022946924 0.002835982 -0.0015441321 -0.032211807 0.04716839 -0.0209821 -0.01964593 -0.031248607
-0.025304843 -0.04094538 -0.0021459796 0.019213522 0.0047313063 0.026924567 0.027582824 -0.049894307
0.039796848 0.043629225 -0.008546787 0.03579943 0.00091150403 0.0069023552 0.03794785 0.01588471
0.0666464 0.0032355879 -0.0057060714 -0.027905943 -0.019877877 -0.008049905 0.03194699 -0.057266403
-0.023637012 0.015150503 -0.042741954 -0.050436266 0.034517307 -0.018094858 0.046601515 0.05039485
-0.00056308374 0.012871922 -0.01633062 0.040062666 -0.043808233 0.017791603 0.0175374 0.0141832605
0.026908712 -0.010165541 -0.023812413 -0.0036142396 -0.004752971 0.009466641 0.007684595 -0.009222819
-0.036214244 0.00089306955 0.00931827 0.009541784 0.0048579657 -0.020200454 0.033330604 0.053606644
00000000: b227 f23b 15a8 813c 6fdd 0cbc 8b95 2dba
00000010: b397 843b 5fda 89bd a2e6 213d a98a fdbb
00000020: a64b 893d 3e3a 40bd 3488 3d3d e628 f4bb
00000030: e94d 143d 9984 c5bb 33df ee3b a302 d33c
00000040: e63d 5abb 5059 643d bb76 3b3c e407 41bc
00000050: e1e1 cf3c 0692 233a 876a 1ebc 9b47 8f3d
00000060: 03e8 8bbc 053a 273d bfee 313a 59ef d8bc
00000070: 0098 60b8 3db8 fbba 2281 053b 15be 15bd
00000080: f7b4 543d 187a a53c cead 2cbd 9f0a 2f3d
00000090: 404e b2bb 5add cdbc d242 a8bb 95e9 7c3d
000000a0: db6d 413c 4397 febb 0eb5 3c3d 7773 a43c
000000b0: a55f 183b eb8c 0abc 4e43 92bc 113d 17bd
000000c0: 6edd 7f3c 9128 3aba 1c91 fc3b 5008 09bd
000000d0: 6289 06bd a641 c7bb 75d2 e3bc fcf5 083d
000000e0: 2a8e 173d 929e 11bc a27c 083b c719 423b
000000f0: 7df2 c6bc 92e3 f33c 35a0 873c d3e4 313c
00000100: 768d 0b3c 4008 063d 8fbc a3bb a2ba 02bd
00000110: 3b21 843c f0af ee3c 5836 18bd 37f9 a53c
00000120: 5c71 bebc 2957 71bd d55d 713c 5770 32bd
00000130: 7c7c 0fbc 07bf c7bc d02f fabb 138e c3bc
00000140: f3ce 1d3d 35e1 9c3b d66a b1bc 0546 66bc
00000150: 8781 c2bb eee9 9cbc 5e21 b6bc 214e d0bb
00000160: bfdd 2f3d 4f79 153d e911 993c f87d 3d3a
00000170: af75 203d 2194 0b3d 22a2 8cba e71c ecba
00000180: 6c19 83bc 8367 5cbd 5d26 e83c c16e d0bc
00000190: b1c8 96bc eafb 6c3c 7787 1a3c 2c7b 8ebd
000001a0: 28e4 5fbd dfcd dd3c ba10 5f3c c582 3c3d
000001b0: 0c0b 03bd 53ab 15bd 05f0 ac3c 1bbd 07bc
000001c0: 1a7d 0b3c 94e5 b53c 4788 973b caf8 b9bc
000001d0: 2500 27bd 9fa4 173d 227e 3cbc 03a2 13bd
000001e0: 3400 79bd 67ad e4bb d5ed 47bc f425 0b3d
000001f0: df95 47bc 5512 c1bc 42d9 41bd 79a3 b23b
00000200: aa98 233c 4153 d13c aff7 debb a349 d03c
00000210: 947a 233c f2d1 49ba eb70 78bd 2fb1 923c
00000220: d476 943c 0d5f 13bd 7114 353d e7d7 973b
00000230: 5bb7 2bbd 65cb 303c cbec 8abc f165 59bc
00000240: 0960 0fbc 7ec8 8abc 054a 44bc 4556 313c
00000250: e5e0 113c ad7f 6d3c ae56 ffbc 76fd a43c
00000260: 3b9a aabc 5531 e13c 7e72 e9bc f547 93bc
00000270: dfea 57bd c1c1 0f3d 4ce3 b03c 38f8 c83b
00000280: f028 483d 97d7 38bd e3db 99bb 5696 8b3c
00000290: d935 6c3d f049 edbc d5c6 753c 582f 3bbc
000002a0: 84ae f9bc 6165 123c c8d1 82bb f3cf 513c
000002b0: 23eb e8bc 91e0 dbbc df7b 84bd 3194 05bd
000002c0: 02c2 07bc a3b5 02bd b6ce 1a3c b277 863c
000002d0: 3352 b0bc 3a8a 8bbc 4690 b73c d967 bfbc
000002e0: c279 d0bc 784a dc3c 6ad6 1bbc 0d25 c23c
000002f0: bc4d 553c b9c9 b2bc 6ed1 573d 92bb 473c
00000300: 30fb bb3c e2db 393b 7a64 caba 87f0 03bd
00000310: a433 413d a7e2 abbc 80f0 a0bc 14fd ffbc
00000320: 1a4c cfbc 58b6 27bd 90a3 0cbb ad65 9d3c
00000330: 1309 9b3b e990 dc3c 60f5 e13c f95d 4cbd
00000340: 0502 233d 8fb4 323d d307 0cbc 6ca2 123d
00000350: 00f2 6e3a 272d e23b 346f 1b3d a720 823c
00000360: e87d 883d 280c 543b fff9 babb 019b e4bc
00000370: eed6 a2bc c0e3 03bc d9da 023d 2d90 6abd
00000380: 68a2 c1bc d139 783c 3012 2fbd 4296 4ebd
00000390: 0562 0d3d ab3b 94bc 3be1 3e3d d56a 4e3d
000003a0: e99b 13ba c1e4 523c cbc7 85bc c018 243d
000003b0: 4370 33bd b2bf 913c 98aa 8f3c e860 683c
000003c0: a96f dc3c 5f8d 26bc 4012 c3bc e1dc 6cbb
000003d0: d0be 9bbb f819 1b3c 0ecf fb3b 4e1b 17bc
000003e0: 6355 14bd e21c 6a3a a8ab 183c 2555 1c3c
000003f0: 922f 9f3b 6c7b a5bc ac85 083d a492 5b3d

conv3.bias f4 [8]
0.009680136 0.0034977044 0.021565193 0.004313077 -0.006005092 -0.0053544217 0.014291568 -0.006604385
00000000: 6f99 1e3c be39 653b 7da9 b03c b654 8d3b
00000010: 5dc6 c4bb 2574 afbb 2e27 6a3c 9969 d8bb

fc1.weight f4 [2, 32]
-0.112170346 -0.098202534 -0.16387375 -0.05461397 -0.20305356 -0.13197888 -0.22779599 0.13787661
0.101354495 0.062982194 0.038998175 -0.12614653 0.030568283 0.27769926 -0.26807496 0.46246094
-0.14058274 0.22478099 0.24079049 0.051466543 -0.1067818 0.01365993 0.39094052 0.020153003
-0.2664452 -0.09897904 -0.2116675 -0.093595445 0.0052083507 0.024163794 0.05468888 0.10540441
-0.19011705 -0.027576841 -0.107845046 0.10600778 0.03569038 0.18466023 -0.069917895 0.16636209
-0.12986626 0.29197073 -0.02678992 0.023341296 0.33706272 -0.095579885 -0.10752845 0.40890288
-0.1996114 0.099565834 -0.028225692 0.05565204 -0.2699912 -0.121935695 -0.08853359 -0.067139216
-0.14861387 0.12068525 -0.10304642 0.029862141 -0.26096594 -0.2644667 0.061353765 -0.037784457
00000000: 91b9 e5bd 691e c9bd 85ce 27be e6b2 5fbd
00000010: 46ed 4fbe 7925 07be 5a43 69be 872f 0d3e
00000020: f292 cf3d cffc 803d 8dbc 1f3d 8e2c 01be
00000030: 566a fa3c 992e 8e3e 1f41 89be aec7 ec3e
00000040: ecf4 0fbe fd2c 663e c891 763e 95ce 523d
00000050: 6bb0 dabd e6cd 5f3c 5b29 c83e e917 a53c
00000060: 816b 88be 86b5 cabd 5dbf 58be f8ae bfbd
00000070: d0aa aa3b 26f3 c53c 7201 603d 44de d73d
00000080: 0bae 42be d4e8 e1bc dddd dcbd 9b1a d93d
00000090: 1330 123d 9217 3d3e 1d31 8fbd d35a 2a3e
000000a0: a9fb 04be 307d 953e 8976 dbbc 3f36 bf3c
000000b0: 7c93 ac3e 63bf c3bd e037 dcbd b85b d13e
000000c0: ee66 4cbe 2ce9 cb3d 9139 e7bc 65f3 633d
000000d0: 493c 8abe 6cb9 f9bd 1951 b5bd 4980 89bd
000000e0: 3c2e 18be d429 f73d 000a d3bd 73a1 f43c
000000f0: 549d 85be 2e68 87be 164e 7b3d e0c3 1abd

fc1.bias f4 [2]
-0.0075906157 0.0075906166
00000000: b3ba f8bb b5ba f83b
