checkpoints/target1/epoch=9.checkpoint.pth.tar (torch, 165221 bytes, 8 tensors)

conv1.weight f4 [16, 3, 5, 5]
0	0x3e6a7645	0.22896679
1	0x3e31116e	0.17291805
2	0x3dce07d7	0.10060089
3	0xbe82cde2	-0.255477
4	0x3d954f9e	0.072905764
5	0xbe02c43f	-0.12770174
6	0x3bc22e05	0.005925896
7	0xbe3a9263	-0.18219905
8	0xbdbc8535	-0.09205095
9	0x3e4925d7	0.19643341
10	0xbd099d2a	-0.03359715
11	0xbe1a7466	-0.15083465
12	0xbdaf7a4e	-0.0856825
13	0xbd8e1d42	-0.06939174
14	0xbdba05f8	-0.0908317
15	0x3dc0a06e	0.094055995
16	0x3e494782	0.19656184
17	0xbc9f3803	-0.019435888
18	0xbd89f0c9	-0.06735379
19	0x3d390dc9	0.045179162
20	0xbdb534d0	-0.08847964
21	0x3e0124d8	0.12611711
22	0x3dbe5e8e	0.092953786
23	0x3e4aef09	0.19817747
24	0x3e1ce10b	0.15320222
25	0x3e1fe969	0.15616383
26	0x3d92c8af	0.071671836
27	0x3e1a55a4	0.15071732
28	0xbd202517	-0.03909787
29	0xba1fb8f8	-0.0006092931
30	0xbc689f1e	-0.014198093
31	0x3de1a998	0.110186756
32	0xbe208f41	-0.15679647
33	0xbdd8af77	-0.10580342
34	0xbca1aefb	-0.019736758
35	0x3e571115	0.2100261
36	0x3d44db91	0.048060957
37	0xbd4f79c7	-0.050653245
38	0x3cf9ea42	0.03050721
39	0xbdbb624a	-0.091496065
40	0xbe320238	-0.17383659
41	0x3df9a143	0.12188961
42	0xbdd21dec	-0.102596134
43	0xbda2797d	-0.07933328
44	0xbe1c5f1c	-0.15270656
45	0x3e7a0a4d	0.24417992
46	0xbe10584d	-0.14096184
47	0xbd64c74d	-0.05585413
48	0xbdcfac72	-0.10140313
49	0xbd905ee0	-0.07049346
50	0x3c7d8bd0	0.015475228
51	0x3d7d871c	0.06189643
52	0xbd74bfe8	-0.05975333
53	0x3e00386b	0.12521522
54	0xbdcb9f35	-0.09942476
55	0xbd8fa24f	-0.0701338
56	0xbe1ac2e7	-0.15113412
57	0x3bed8b7c	0.007249294
58	0xbc4d50ab	-0.01253144
59	0x3dac2c2e	0.08406864
60	0x39e0b7ea	0.00042861636
61	0x3e659dee	0.22423527
62	0xbe0dbc08	-0.1384126
63	0x3e1eaeef	0.1549642
64	0x3e28c57d	0.16481586
65	0x3dd6d929	0.10490639
66	0x3e86add1	0.26304486
67	0x3d73504e	0.059402756
68	0x3cf6a51a	0.030108023
69	0xbce86008	-0.028366104
70	0xbdfb504c	-0.12271175
71	0x3e18c104	0.1491738
72	0xbc9ee7a1	-0.019397559
73	0x3d844bed	0.06459794
74	0x3c4542cc	0.012039851
75	0x3d2eac06	0.042644523
76	0x3d39487e	0.04523515
77	0xbdc30238	-0.095219076
78	0xbe896528	-0.2683499
79	0xbdc57427	-0.09641295
80	0xb897a120	-7.230253e-05
81	0xbd43e25a	-0.047823288
82	0xbe29eda6	-0.16594562
83	0xbd929a45	-0.07158331
84	0x3d70eebc	0.058821425
85	0x3d742307	0.059603717
86	0x3e087122	0.13324407
87	0xbb839688	-0.0040157475
88	0x3da80759	0.082045265
89	0xbd58a42a	-0.052890934
90	0xbe00e3b0	-0.12586856
91	0x3d941d80	0.07232189
92	0xbe4d04c8	-0.20021355
93	0xbdc84473	-0.09778681
94	0x3e29cbfb	0.16581719
95	0x3d2f979f	0.042869207
96	0xbe96c4d4	-0.29447043
97	0x3d88d72f	0.06681668
98	0x3dbf7795	0.0934898
99	0x3c316a3f	0.010828554
100	0x3d8a0d4a	0.06740816
101	0x3d3d2e7c	0.04618691
102	0x3dd10ec2	0.10207893
103	0xbd864255	-0.065556206
104	0xbcfedb49	-0.031110423
105	0x3daf4bd3	0.08559384
106	0x3d1bc407	0.038028743
107	0x3c1b28ff	0.009470223
108	0x3cd9e536	0.026598554
109	0x3e135fe9	0.14392056
110	0xba93917b	-0.0011258567
111	0xbd099347	-0.03358772
112	0xbe367fe0	-0.17822218
113	0xbc806a0a	-0.015675563
114	0xbd881fa4	-0.0664666
115	0x3d4e6f31	0.05039901
116	0x3db1082e	0.08644138
117	0x3c167e05	0.009185319
118	0xbd410afd	-0.04712962
119	0x3d94cd74	0.072657496
120	0xbc6c6b54	-0.014429886
121	0x3cbd5e04	0.02311612
122	0x3cd31dc0	0.025771022
123	0x3dbaa7d5	0.09114043
124	0x3e092d31	0.13396145
125	0x3d05ce2a	0.032667316
126	0x3d7dd871	0.061973993
127	0x3cd827aa	0.0263861
128	0x3e5670af	0.20941423
129	0x3ddb62f7	0.107122354
130	0xbe2b33a6	-0.16718921
131	0xbe0e838a	-0.13917366
132	0xbcdbea63	-0.026845163
133	0x3e3d4964	0.18485028
134	0x3d948078	0.07251066
135	0x3d863828	0.0655368
136	0x3e087a68	0.13327944
137	0xbc006002	-0.00783539
138	0xbe5978eb	-0.21237533
139	0x3de06a3d	0.10957763
140	0xbd44b8c6	-0.048027776
141	0x3df99c5e	0.12188028
142	0xbda52020	-0.08062768
143	0x3d9214c1	0.07132865
144	0xbdce0fa7	-0.10061579
145	0x3dc81b2a	0.09770806
146	0x3e3aa681	0.18227579
147	0x3e363d8c	0.17796916
148	0x3d0b4e82	0.034010418
149	0xbc896459	-0.016771482
150	0xbd903758	-0.07041806
151	0x3c76f3a7	0.01507274
152	0x3cf8ee34	0.030387022
153	0x3de5ef34	0.11227265
154	0xbd887da5	-0.0666459
155	0x3e3a762f	0.18209146
156	0xbe9bc8d6	-0.30426663
157	0xbd84e63f	-0.064892285
158	0xbe19e280	-0.15027809
159	0x3da63cdb	0.08117076
160	0xbe6596ff	-0.22420882
161	0x3ca46df4	0.020071961
162	0xbb5754b4	-0.0032856883
163	0xbd424b7c	-0.04743527
164	0x3d1ca148	0.038239747
165	0xbd97982c	-0.07402071
166	0x3cf0bccf	0.029386906
167	0xbde2617f	-0.11053752
168	0xbe2b96b8	-0.16756713
169	0x3e393ad6	0.1808885
170	0x3e24195a	0.16025296
171	0x3cfb1952	0.030651722
172	0xbe1cf188	-0.15326512
173	0x3ddee463	0.10883405
174	0x3dcdb47d	0.10044191
175	0x3e7e28e6	0.24820289
176	0x3beacb00	0.0071653128
177	0x3b846a9b	0.0040410287
178	0xbdbd690e	-0.09248553
179	0xbd16e762	-0.036841758
180	0xbde2f91a	-0.110826686
181	0xbe4e6f2b	-0.20159595
182	0xbe1765e4	-0.14784962
183	0xbd94a69a	-0.07258339
184	0xbd948bfb	-0.07253262
185	0xbe3660f9	-0.1781043
186	0xbe6a48a0	-0.22879267
187	0x3c0d0377	0.008606783
188	0x3de290ae	0.11062752
189	0xbd71e73c	-0.059058413
190	0x3dbbc912	0.091692105
191	0x3dbab73b	0.0911698
192	0x3e61f695	0.2206672
193	0xbdb639a6	-0.08897714
194	0x3e0b1017	0.13580357
195	0xbce124b4	-0.027483322
196	0xbde389c5	-0.11110262
197	0x3d88972f	0.06669461
198	0x3d9d2a2a	0.07674058
199	0x3e2b37a1	0.1672044
200	0x3d997bc9	0.07494313
201	0x3e7cd514	0.24690658
202	0xbd8f6423	-0.070015214
203	0xbddb49be	-0.107074246
204	0x3c0b640d	0.008507741
205	0x3df624c2	0.1201873
206	0x3e082b8b	0.1329786
207	0x3d152bb3	0.036418628
208	0xbdd9b5ed	-0.10630403
209	0xbe05af83	-0.13055234
210	0xbd7d8b90	-0.061900675
211	0xbd99010d	-0.074709035
212	0x3c3f14c9	0.01166267
213	0x3d31cb88	0.043406993
214	0xbc44acad	-0.01200406
215	0xbe83c234	-0.25734103
216	0xbd168d9d	-0.036756147
217	0x3e0fea52	0.1405423
218	0xbe40b80c	-0.18820208
219	0x3e4b9326	0.19880351
220	0x3d412c8a	0.047161616
221	0xbd07d03f	-0.033157583
222	0x3e14569e	0.14486167
223	0x3e5dc22f	0.21656106
224	0x3c29f10d	0.010372412
225	0x3e5f466e	0.2180421
226	0x3d1f84c0	0.03894496
227	0xbde6d76a	-0.11271556
228	0xbd970afa	-0.073751405
229	0xbc76025e	-0.015015213
230	0x3d85b081	0.06527806
231	0x3e7f869f	0.24953698
232	0xb92501c1	-0.0001573628
233	0xbde6867a	-0.11256118
234	0xbe862b46	-0.2620489
235	0xbdd57beb	-0.10424026
236	0x3cb44eb2	0.022010181
237	0x3c986726	0.018603873
238	0x3c3f70c0	0.011684597
239	0x3c33ea8b	0.010981212
240	0xbd9e6cf9	-0.07735629
241	0x3d87b69c	0.06626627
242	0xbd201799	-0.039085004
243	0x3d4f8e59	0.050672863
244	0xbe095a46	-0.13413343
245	0x3c92deed	0.017928565
246	0xbcc1812b	-0.023621162
247	0x3e3a4b7d	0.18192859
248	0x3e07af63	0.13250498
249	0xbdf08ede	-0.11746
250	0x3dfe51e9	0.12417967
251	0x3da4ac57	0.08040684
252	0x3d9386ef	0.07203471
253	0x3d6c39d1	0.057672326
254	0x3d0a31e0	0.03373897
255	0x3d377353	0.044787716

conv1.bias f4 [16]
0	0xbbb0489c	-0.0053797495
1	0x3bc1241b	0.0058941967
2	0x3b793189	0.003802391
3	0x3a07e8ac	0.0005184512
4	0xbc7a248b	-0.015267502
5	0xbcad4dfb	-0.021155348
6	0xbb97d93c	-0.0046340507
7	0x3ab6a692	0.001393514
8	0xbc2fddcd	-0.010734034
9	0x39887577	0.0002602746
10	0xbb10c8a1	-0.002209224
11	0x3bc4403b	0.005989102
12	0xbc3c87d4	-0.011506993
13	0xbb0b6c97	-0.0021274441
14	0xbc31e6b8	-0.01085823
15	0x3ba6e6a3	0.005093412

conv2.weight f4 [64, 16, 5, 5]
0	0x3d0edbc3	0.03487755
1	0x3c95f150	0.018303543
2	0x3d261d89	0.04055551
3	0x3dd985b4	0.10621205
4	0x3ca1861b	0.019717267
5	0x3cb197e0	0.021678865
6	0x3b79ff39	0.003814651
7	0x3d4054a8	0.046955734
8	0xbcd9d9b4	-0.026593067
9	0xbd2fa41d	-0.04288112
10	0xbc92c0ce	-0.017914202
11	0x3df5fa57	0.12010639
12	0xbd07a25d	-0.033113826
13	0xbc5c95b1	-0.013463424
14	0x3d90e8b9	0.07075638
15	0xbc35139d	-0.011052039
16	0xbbcbb884	-0.0062170643
17	0x3d763487	0.060108688
18	0x3d9a05c4	0.07520631
19	0x3d3680dd	0.044556487
20	0xbc02a91a	-0.007974887
21	0x3d028b02	0.03187085
22	0x3c217a5c	0.009855833
23	0xbc8f6f81	-0.017509224
24	0xbdd4b185	-0.10385422
25	0x3d0c352d	0.0342304
26	0xbcfff21d	-0.031243378
27	0xbae7a155	-0.0017671982
28	0xbb1fe30d	-0.0024396807
29	0x3d86ea67	0.065876774
30	0xbd8fe6af	-0.07026421
31	0xbc59ff60	-0.013305515
32	0x3bc54196	0.0060197813
33	0xbd88cf4f	-0.06680166
34	0xbdb7ddf8	-0.08977884
35	0xbccc9032	-0.024971101
36	0x3d02d123	0.03193773
37	0xbd7c18d5	-0.06154712
38	0x3d7f82c4	0.062380567
39	0xbdddc175	-0.108279146
40	0x3d9ea70d	0.07746706
41	0x3c4f13eb	0.012639026
42	0xbd40a8eb	-0.047036093
43	0x3d0303ab	0.03198592
44	0xbd47d2f9	-0.048785184
45	0xbc69e687	-0.014276153
46	0x3cd565ce	0.02604952
47	0x3d5ba446	0.05362346
48	0xbccd39a2	-0.025051896
49	0x3cc7ce4e	0.024390366
50	0xbca94f79	-0.020667778
51	0xbc9c78de	-0.019100603
52	0xbd407bb3	-0.04699297
53	0x3d44898b	0.047982734
54	0x3c0893a2	0.00833598
55	0x3d44ceae	0.048048668
56	0x3c5c5225	0.013447319
57	0xbd72d417	-0.059284296
58	0xbd0c453a	-0.034245707
59	0x3c41af42	0.01182157
60	0xbcee5789	-0.029094474
61	0xbbdb2e3c	-0.006688861
62	0x3d8473c6	0.064673945
63	0x3e0cb359	0.1374029
64	0xbd8422b9	-0.06451935
65	0xbd44b0d3	-0.048020195
66	0x3d353b6f	0.044246133
67	0x3d6505cf	0.055913743
68	0x3d46b2df	0.04851043
69	0x3b64adfc	0.0034893742
70	0xbd38cee2	-0.045119174
71	0xbccb617c	-0.024826758
72	0x3e010457	0.12599312
73	0xbdcd3456	-0.10019748
74	0x3d4b3bfe	0.04961776
75	0xbda9f78e	-0.082991704
76	0xbc8b82cc	-0.017030142
77	0xbc9b1c62	-0.018934432
78	0xbc8a91e2	-0.016915265
79	0xbd524720	-0.05133736
80	0xbca9acb5	-0.020712236
81	0xbc8cbed8	-0.017180845
82	0x3d3875ad	0.0450341
83	0x3c4a5164	0.012348507
84	0x3c984571	0.0185878
85	0xbd3d65c5	-0.046239633
86	0x3d93c431	0.07215155
87	0x3c06aa5f	0.008219331
88	0xbcbbe7e1	-0.022937717
89	0xbd5dcb84	-0.054149166
90	0xbbcbe4c4	-0.0062223393
91	0xbd2db112	-0.042405196
92	0xbbbddafe	-0.005793928
93	0x3dbe22da	0.09283991
94	0xbd7bd0be	-0.06147837
95	0xbc998325	-0.018739292
96	0xbb354308	-0.0027658362
97	0x3cb8f0b4	0.022575714
98	0x3d2f92bd	0.04286455
99	0x3d987391	0.074439175
100	0xbcd03402	-0.025415424
101	0xbdad4a98	-0.08461493
102	0xbd27a6d7	-0.040930595
103	0x3d914c5c	0.070946425
104	0x3be474f2	0.006971949
105	0xbc462480	-0.012093663
106	0xbd8f5fb0	-0.07000673
107	0x3d6b4662	0.05744017
108	0xbc32ca15	-0.010912438
109	0xbc3b4fa9	-0.011432567
110	0xbd5d0755	-0.05396207
111	0xbc80d429	-0.015726166
112	0x3d546ee7	0.051863577
113	0xbd09ce87	-0.033644225
114	0xbdde3f0d	-0.1085187
115	0xbcfe7f48	-0.031066552
116	0x3d155f35	0.03646775
117	0x3d526c40	0.051372766
118	0xbc735c27	-0.014853514
119	0x3d1d8ef4	0.03846641
120	0x3d7411f3	0.05958743
121	0xbc4e8179	-0.012604111
122	0xbd03e9fa	-0.03220556
123	0xbce6a8aa	-0.028156597
124	0x3ca998f8	0.020702824
125	0x3bcb7fab	0.0062102876
126	0xbca19b82	-0.019727472
127	0xbd1f5761	-0.03890169
128	0x3b920e5c	0.004457278
129	0xbdaacdf3	-0.08340063
130	0x3c4bbf33	0.012435722
131	0x3c080572	0.0083020795
132	0xbdaf0ff4	-0.08547965
133	0x3c4e03cf	0.01257415
134	0xbb5ddb77	-0.0033852735
135	0xbd6a7056	-0.05723604
136	0xbb0634ac	-0.0020478172
137	0x3bb0c3eb	0.005394449
138	0x3adbd046	0.0016770444
139	0x3d9baa9d	0.07600901
140	0x3dc5e413	0.09662642
141	0x3dd5e89e	0.10444759
142	0xbc9de572	-0.019274447
143	0xbd764e2d	-0.060133148
144	0x3c2ad603	0.010427001
145	0xbcb4c6f3	-0.022067523
146	0x3c08ab22	0.0083415825
147	0xbd6f6cde	-0.058453433
148	0x3d04a277	0.0323815
149	0x3dab1d05	0.083551444
150	0xbcfd86bc	-0.030948035
151	0xbd281433	-0.04103489
152	0xbd435053	-0.047684025
153	0x3be1d733	0.006892109
154	0xbca9360c	-0.020655654
155	0x3d137427	0.035999443
156	0x3ca085c3	0.019595033
157	0xbd0942ae	-0.033510856
158	0xbc96fbfe	-0.018430706
159	0x3d244e59	0.04011378
160	0x3d30c29b	0.04315434
161	0x3da12429	0.07868225
162	0x3b70b6b6	0.0036729998
163	0x3da11462	0.07865216
164	0xbd2b9202	-0.04188729
165	0x3cff058f	0.03113058
166	0x3a896035	0.0010480942
167	0xbcb6c5c2	-0.022311095
168	0xbcf718fa	-0.030163277
169	0xbcf5c3e3	-0.030000633
170	0x3b0a7be2	0.0021130969
171	0xbcb31c20	-0.021863997
172	0x3d6eb201	0.058275227
173	0xbc502e06	-0.012706285
174	0xbc71cf9b	-0.01475897
175	0xbcc60221	-0.024170937
176	0x3e1469ab	0.14493434
177	0xbd3339ee	-0.043756418
178	0x3de9f716	0.11424081
179	0xbd5950ed	-0.053055692
180	0xbd9e5cf3	-0.077325724
181	0x3c06eeac	0.008235615
182	0xbcdbb05d	-0.026817495
183	0xbc6d7a43	-0.0144944815
184	0xbd649729	-0.05580822
185	0x3cba26b5	0.022723535
186	0x3d422571	0.04739899
187	0xbd8c1e4f	-0.068417184
188	0x3d8215ad	0.063517906
189	0xbadbf07a	-0.0016780042
190	0x3de160b1	0.110047705
191	0xbbbf508d	-0.00583846
192	0xbd81fe99	-0.06347389
193	0x3d1e34be	0.038624518
194	0xbc2924da	-0.0103237275
195	0xbd89e141	-0.06732417
196	0x3cbba7c5	0.022907147
197	0xbd1a8860	-0.037727714
198	0xbd0bc0dc	-0.034119472
199	0xbbb534b9	-0.0055299667
200	0x3dbf145d	0.09330056
201	0xb87b4ec7	-5.991643e-05
202	0x3da1b115	0.07895104
203	0xbc92d480	-0.017923594
204	0x3d3c43b4	0.045963004
205	0x3da38c7d	0.079857804
206	0x3bff05e1	0.0077826832
207	0x3c072d8d	0.008250606
208	0x3c5013c5	0.012700026
209	0xbd83c67c	-0.06434342
210	0xbd472f92	-0.04862935
211	0xbc85a667	-0.016314698
212	0xbd32e8fd	-0.043679226
213	0x3cdaceea	0.026709992
214	0xbd67f797	-0.056632604
215	0x3d28c77d	0.04120587
216	0x3d030a69	0.03199235
217	0xbbc843dc	-0.006111605
218	0x3bd0853e	0.00636354
219	0xbd9a76de	-0.07542203
220	0xbd03d4ed	-0.032185484
221	0xbc56c037	-0.013107351
222	0x3cae3c5a	0.021269012
223	0x3d5063f7	0.050876584
224	0xbd6217aa	-0.05519835
225	0x3d071da1	0.03298724
226	0x3d418fed	0.0472564
227	0xbd229a99	-0.039698217
228	0x3ca3a322	0.019975249
229	0x3cd9ba3c	0.026578061
230	0x3dd92eea	0.10604651
231	0xbd267f94	-0.04064901
232	0xbd7f68e8	-0.062355906
233	0xbb225bad	-0.0024773881
234	0x3c610cca	0.013735959
235	0xbd035f61	-0.032073382
236	0xbd1bca14	-0.038034514
237	0xbce1e405	-0.027574548
238	0x3da5f345	0.081030406
239	0xbdb36517	-0.08759516
240	0x3d09eb0f	0.033671435
241	0xbca5ca7c	-0.020238154
242	0xbd22ad71	-0.039716188
243	0x3cb7c4a0	0.022432625
244	0xbb973c55	-0.0046153464
245	0x3cfdf9c8	0.031002894
246	0xbd77d410	-0.060504973
247	0x3d9ddb58	0.07707852
248	0x3cb6b5f9	0.022303568
249	0x3d465d22	0.048428662
250	0xbb490630	-0.0030673854
251	0x3c0fdf2f	0.008781238
252	0x3b55de90	0.0032633878
253	0x3c1d3d51	0.0095971385
254	0xbd52be64	-0.051451102
255	0x3d8f0729	0.069837876

conv2.bias f4 [64]
0	0x3cc24d49	0.023718493
1	0x3b9df5f9	0.004820582
2	0xbc69a8ae	-0.014261408
3	0x383dff50	4.529889e-05
4	0xbb77eb3c	-0.003782942
5	0xbc289ad3	-0.010290819
6	0xbbcafab8	-0.006194439
7	0xbb876895	-0.00413234
8	0x3bc19315	0.005907426
9	0x3bd75567	0.00657146
10	0x3be4a1c7	0.006977293
11	0xbbbff440	-0.0058579743
12	0xbc647a57	-0.013945184
13	0x3ba43d84	0.005012216
14	0x3c8d1a66	0.017224502
15	0x3bed58fa	0.007243273
16	0xbb98a82b	-0.004658719
17	0x3c0ca6b5	0.008584668
18	0x3c0a5f09	0.00844551
19	0xbc5ff87c	-0.013670083
20	0xbc2cfb93	-0.010558027
21	0x3b302a14	0.002688055
22	0x3c72794b	0.014799426
23	0x3badd6c4	0.005305143
24	0x3c528d21	0.012851031
25	0xbc1cfff0	-0.009582505
26	0xbba65cf1	-0.0050769974
27	0xbc86208b	-0.01637294
28	0x3d009288	0.031389743
29	0xbc8e3e05	-0.017363558
30	0x39a6b00a	0.00031793147
31	0x3c5525dc	0.013009515
32	0xbc90729c	-0.017632775
33	0xbc3f080d	-0.011659634
34	0x3c89c849	0.016819136
35	0x3c8cde6a	0.017195899
36	0xbbbf64f4	-0.005840892
37	0xbb8992e3	-0.0041984185
38	0x3c90d718	0.01768069
39	0x3a9b8e1f	0.0011867917
40	0x3c9aa1b7	0.01887594
41	0x3c82afde	0.015953
42	0xbb8c549e	-0.004282548
43	0xbb071db4	-0.002061707
44	0xba6ed6c2	-0.0009110981
45	0xbc5ee243	-0.01360375
46	0xbc1ca139	-0.009559923
47	0x3c2e58c2	0.010641279
48	0x3c6805ee	0.01416157
49	0xbc386eb0	-0.011256859
50	0xbb6dc231	-0.0036279077
51	0x3b56e2d1	0.0032789002
52	0xbba114a1	-0.0049157892
53	0x3bab572b	0.005228897
54	0x3c2bf5af	0.010495587
55	0x3c12c1e2	0.008957358
56	0x3b2af6dd	0.0026087083
57	0x3c89f457	0.016840143
58	0xbb37f3b4	-0.0028068842
59	0x3aed71ca	0.0018115577
60	0xbc1c231f	-0.009529858
61	0xbb2d2106	-0.0026417389
62	0x3c1650ac	0.009174507
63	0x3c78a464	0.0151759125

conv3.weight f4 [8, 64, 5, 5]
0	0x3bd73f6c	0.00656884
1	0x3c9bea29	0.019032555
2	0xbc963eb0	-0.018340439
3	0x3bcf0c1a	0.0063185813
4	0xbb2284ec	-0.0024798466
5	0xbd9fefe4	-0.078094274
6	0x3d39455c	0.045232162
7	0xbc64d4d1	-0.013966755
8	0x3d938e96	0.072049305
9	0xbd24a8f2	-0.04020018
10	0x3d1c4eaf	0.038160976
11	0xbbc1335f	-0.0058960165
12	0x3cf7ce5e	0.03024977
13	0x3b8523a8	0.0040630884
14	0x3c1428ef	0.009042962
15	0x3cd9f76b	0.026607236
16	0x3c086e60	0.008327097
17	0x3d676d92	0.05650098
18	0x3ba722ba	0.0051005753
19	0xbbcb77c6	-0.0062093465
20	0x3c75d77b	0.015004988
21	0xbb838d05	-0.0040146136
22	0xbc03cfd9	-0.00804516
23	0x3dad1601	0.084514625
24	0xbc321dfa	-0.010871405
25	0x3d22943f	0.03969216
26	0xbc34dbc0	-0.011038721
27	0xbcb3d14f	-0.021950392
28	0x3b2f6a97	0.0026766413
29	0x3a827c8c	0.0009955331
30	0x3c777638	0.015103869
31	0xbd351152	-0.04420597
32	0x3d6ba4d2	0.05753023
33	0x3cf8eafb	0.030385485
34	0xbc6fc647	-0.014634675
35	0x3d304ef1	0.043044034
36	0xbbf828c7	-0.0075732204
37	0xbcf6629a	-0.030076314
38	0xbbd8ab72	-0.0066122347
39	0x3d5860b2	0.05282659
40	0x3c7f3cdb	0.015578474
41	0x3c1ac8cf	0.009447291
42	0x3d5b768e	0.05357986
43	0x3caa35df	0.02077764
44	0x3c366531	0.011132524
45	0xbbeef471	-0.0072923233
46	0xbc86e790	-0.01646784
47	0xbd4fe782	-0.050757892
48	0x3b9e73d9	0.0048355875
49	0x3c7a897d	0.015291569
50	0x3c44c373	0.012009489
51	0xbd141504	-0.036152855
52	0xbceea11b	-0.029129555
53	0xbb515554	-0.0031941729
54	0xbce826db	-0.02833884
55	0x3ce259ae	0.027630653
56	0x3d23b5ac	0.039968178
57	0xbb66fdf4	-0.0035246583
58	0x3c0ea79d	0.008706954
59	0x3c39496c	0.011309009
60	0xbc898ebb	-0.016791692
61	0x3d0d0b23	0.03443445
62	0x3c91cf3e	0.017799016
63	0x3c93cdc8	0.01804246
64	0x3c7cea37	0.015436701
65	0x3d059911	0.03261668
66	0xbb1ec0b0	-0.0024223737
67	0xbcee408a	-0.029083509
68	0x3c975f59	0.018478082
69	0x3cdbbbf7	0.026823027
70	0xbceda042	-0.029007081
71	0x3cd09d73	0.025465703
72	0xbd2218ec	-0.03957455
73	0xbd9372b1	-0.0719961
74	0x3c4bb680	0.012433648
75	0xbd1fbe1a	-0.038999654
76	0xbcd7c862	-0.026340667
77	0xbd24cb89	-0.04023317
78	0xbc9e3619	-0.019312905
79	0xbcf448b1	-0.029819818
80	0x3d319d90	0.043363154
81	0xbb146be6	-0.002264732
82	0xbcfafead	-0.030639017
83	0xbc1c93f4	-0.009556759
84	0xbc858fc9	-0.016303914
85	0xbbbaa719	-0.005696189
86	0xbc914a0b	-0.017735502
87	0xbc3fef0c	-0.011714708
88	0x3d4a113c	0.049332842
89	0x3d3dee23	0.046369683
90	0x3ce4e195	0.027939597
91	0x3bcb5313	0.0062049716
92	0x3d1955ff	0.037435528
93	0x3d4daf7a	0.050216176
94	0x3c085d6c	0.008323055
95	0x3c47fb04	0.012205843
96	0xbc0120d8	-0.007881366
97	0xbdbfa65b	-0.09357902
98	0x3c2043d0	0.009781793
99	0xbcaa5fba	-0.0207976
100	0xbc99c440	-0.018770337
101	0x3c913e57	0.017729921
102	0x3b89465f	0.004189297
103	0xbd8b9683	-0.06815817
104	0xbd5e31b7	-0.05424663
105	0x3d10b016	0.03532418
106	0x3c77394e	0.015089346
107	0x3d28c6eb	0.041205328
108	0xbcf1ecb2	-0.02953181
109	0xbd2d8104	-0.042359367
110	0x3ce6dc24	0.028181143
111	0xbbdf6257	-0.006817143
112	0x3c67c838	0.014146857
113	0x3cf1b0a7	0.02950318
114	0x3b53385f	0.0032229645
115	0xbc8e43ff	-0.017366407
116	0xbd2271fa	-0.039659478
117	0x3d0681df	0.0328387
118	0xbc03182f	-0.008001371
119	0xbcf004b8	-0.029299125
120	0xbd5fca39	-0.054636214
121	0xbbae40ae	-0.005317769
122	0xbc89a97e	-0.016804453
123	0x3d2b70d1	0.041855637
124	0xbc4a908a	-0.012363562
125	0xbcf88c4b	-0.030340334
126	0xbd4ef4be	-0.050526373
127	0x3ad4afb4	0.001622668
128	0x3c8903a2	0.016725365
129	0x3cb6ae2a	0.022299845
130	0xbc83aa62	-0.016072456
131	0x3cfab9be	0.030606147
132	0x39f42eb6	0.0004657411
133	0x3bb466af	0.005505405
134	0xbd8bf961	-0.068346746
135	0x3cbe986b	0.023266038
136	0x3cde0090	0.027099878
137	0xbd13f16b	-0.036118906
138	0x3d7071dd	0.05870234
139	0x3ba5d0cc	0.005060291
140	0xbd4952af	-0.04915112
141	0x3c931a81	0.017956974
142	0xbcded2ee	-0.027200188
143	0xbbe33b76	-0.0069345785
144	0xbaafe8d1	-0.0013420825
145	0xbbf4c61a	-0.0074699046
146	0x3b0e4396	0.0021707765
147	0xbc93f0fe	-0.01805925
148	0xbc027a45	-0.007963722
149	0x3cbaa445	0.022783408
150	0xbd0adec1	-0.03390384
151	0x3caaebbd	0.020864362
152	0xbc9ed5d8	-0.019389078
153	0x3cd98e03	0.026556974
154	0xbd05b665	-0.032644648
155	0xbcbfe60e	-0.023425128
156	0xbd84a11b	-0.06476041
157	0x3ce92ff6	0.028465252
158	0x3cc81a82	0.024426702
159	0x3c935c93	0.017988479
160	0x3d52d554	0.051472977
161	0xbd3936b9	-0.045218203
162	0xbbad30f5	-0.005285377
163	0x3c9f9bec	0.019483529
164	0x3d9ddbf4	0.07707968
165	0xbcc847b0	-0.024448246
166	0x3c9def69	0.019279199
167	0xbc487bdd	-0.012236563
168	0xbced5d1c	-0.028975062
169	0x3c8d5a97	0.01725511
170	0x3ab31a65	0.0013664482
171	0x3c71629f	0.014732986
172	0xbcf39d24	-0.029738016
173	0xbcded62c	-0.027201734
174	0xbd8dc865	-0.06922988
175	0xbcfff857	-0.031246347
176	0xbb1654d0	-0.0022938736
177	0xbce1f1c8	-0.02758111
178	0x3c22ddf9	0.009940618
179	0x3c9b9e81	0.018996479
180	0xbd301f2b	-0.042998474
181	0xbc65c2a4	-0.014023457
182	0x3cd70a31	0.026249977
183	0xbc7f89a7	-0.015596784
184	0x3c2140a2	0.00984207
185	0x3ce0b483	0.027429825
186	0xbb8ee80c	-0.0043611582
187	0x3d0876cb	0.033316415
188	0x3ba3fc57	0.0050044465
189	0x3ac3f4c0	0.001495026
190	0x3d491a5a	0.049097396
191	0x3bfde0f8	0.0077477656
192	0x3d0a0aef	0.033701833
193	0x3c170dcb	0.009219597
194	0xbca53a6a	-0.020169456
195	0xbcf622ea	-0.030045945
196	0x3d58bee0	0.052916408
197	0xbc2e53e4	-0.010640118
198	0xbd469b17	-0.04848775
199	0xbd34766f	-0.04405826
200	0xbcaad663	-0.02085418
201	0xbd224f1f	-0.039626237
202	0xbc889ce5	-0.016676376
203	0x3cc262ab	0.02372869
204	0xbc159632	-0.009130048
205	0x3bf96c40	0.0076117814
206	0x3d1b587e	0.03792619
207	0xbcc5c413	-0.024141347
208	0x3d7cc5ee	0.061712198
209	0x3d8658e9	0.06559927
210	0xbca1212f	-0.019669143
211	0x3d3b678e	0.045753054
212	0xbbce7b85	-0.006301346
213	0x3bf68a39	0.0075238016
214	0x3d7b21c9	0.061311517
215	0x3c88d98a	0.016705293
216	0x3dac8268	0.084233105
217	0x3bd62d16	0.0065361364
218	0x394c8ab6	0.0001950663
219	0xbd87a1a1	-0.06622625
220	0xbd26b1f7	-0.040697064
221	0x3b3aca7e	0.0028502042
222	0x3d95eda8	0.0732072
223	0xbd9481dd	-0.07251332
224	0xbd142636	-0.036169253
225	0x3bdc7f68	0.006729055
226	0xbd5ae151	-0.053437535
227	0xbd43efb2	-0.047836013
228	0x3d294c79	0.041332696
229	0xbc48d7e7	-0.012258506
230	0x3d40f65e	0.047109954
231	0x3d3d78f4	0.046257928
232	0x3c1f93e0	0.009739846
233	0x3cc86d86	0.024466287
234	0x3c385125	0.011249815
235	0x3d325f42	0.043547876
236	0xbd28678c	-0.041114375
237	0x3ccaff7d	0.02478003
238	0x3cd068c2	0.025440577
239	0x3cfff3e4	0.031244226
240	0x3d063a9c	0.032770738
241	0xbbc42d2d	-0.0059868307
242	0xbca9085f	-0.020633874
243	0x3b847693	0.0040424555
244	0xbccf9796	-0.025340836
245	0x3c86132e	0.016366567
246	0x3c4cdf61	0.01250443
247	0xbc3dc431	-0.01158242
248	0xbd17db78	-0.037074536
249	0xbbc98778	-0.0061501823
250	0x3c8ab737	0.016933067
251	0x3d4a038a	0.04931978
252	0xbaf0c074	-0.0018367902
253	0x3b28e09e	0.0025768648
254	0x3ca1d001	0.019752504
255	0x3d5a0026	0.053222798

conv3.bias f4 [8]
0	0x3c8d31a7	0.01723559
1	0x3b798d35	0.003807855
2	0x3c6e0236	0.014526894
3	0xbbf5814d	-0.0074922205
4	0x3adef60b	0.0017010582
5	0xbc072747	-0.008249111
6	0xbbd2f2bb	-0.006437627
7	0xbc3ade21	-0.011405499

fc1.weight f4 [2, 32]
0	0xbddcc1d4	-0.10779157
1	0xbdca9a73	-0.0989274
2	0xbe3574fb	-0.17720406
3	0xbd8c0488	-0.06836802
4	0xbe57dad5	-0.21079572
5	0xbe0cb3ea	-0.13740507
6	0xbe675d94	-0.22594291
7	0x3e0cdf41	0.1375704
8	0x3e01015a	0.12598172
9	0x3d88c811	0.06678785
10	0x3d4babc8	0.04972437
11	0xbe0d8b69	-0.13822712
12	0x3cc7a27f	0.024369476
13	0x3e8e2e99	0.27769926
14	0xbe85439b	-0.2602814
15	0x3eeb61aa	0.4597295
16	0xbe059278	-0.13044155
17	0x3e829456	0.25503796
18	0x3e8720dd	0.2639226
19	0x3d065d15	0.032803614
20	0xbda8fc05	-0.08251194
21	0x3c1a3ef9	0.009414428
22	0x3ecc16c7	0.39861128
23	0x3cf931ef	0.030419318
24	0xbe8741a4	-0.26417267
25	0xbdb70477	-0.089363985
26	0xbe5bb69f	-0.21456383
27	0xbdcdb8bd	-0.10045002
28	0x3c8bc0e0	0.017059743
29	0x3d3915fb	0.045186978
30	0x3d46933c	0.048480257
31	0x3e0098d0	0.12558293
32	0xbe4729e8	-0.1944958
33	0xbcdbf8a6	-0.026851963
34	0xbdc190d8	-0.09451455
35	0x3df545b5	0.11976186
36	0x3d31e662	0.0434326
37	0x3e42a603	0.19008641
38	0xbd92fcb5	-0.07177106
39	0x3e2aab19	0.16666831
40	0xbe1e338d	-0.15449353
41	0x3e938a65	0.28816524
42	0xbd19aa7b	-0.0375161
43	0x3d11168c	0.035421893
44	0x3eafbffd	0.34326163
45	0xbdc3bf63	-0.095579885
46	0xbdec2e01	-0.11532212
47	0x3ed2c1bc	0.41163433
48	0xbe56c962	-0.20975259
49	0x3d8df1d7	0.06930893
50	0xbd525c96	-0.051357828
51	0x3d983270	0.07431495
52	0xbe96a95b	-0.29426083
53	0xbdf10792	-0.11769022
54	0xbdc506e8	-0.09620458
55	0xbd9e86c4	-0.07740548
56	0xbe1a81f5	-0.15088637
57	0x3de378c5	0.11107019
58	0xbdcd1b88	-0.10015017
59	0x3d166449	0.036716733
60	0xbe8baeb2	-0.2728172
61	0xbe922bba	-0.28548986
62	0x3d8a5e24	0.06756237
63	0xbd6d6aa1	-0.057963017

fc1.bias f4 [2]
0	0xbc73d16f	-0.014881476
1	0x3c73d174	0.0148814805
