checkpoints/target1/epoch=5.checkpoint.pth.tar (torch, 163813 bytes, 8 tensors)

conv1.weight f4 [16, 3, 5, 5]
000000 9c 97 65 3e f9 ba 2e 3e c4 1c d2 3d f2 01 7f be
       0.22421116 0.17063512 0.10259393 -0.24903086
000010 fd c4 9d 3d 3f f5 0c be fe 2d f8 ba e8 02 3c be
       0.07703588 -0.13765429 -0.0018934605 -0.18360484
000020 47 90 b7 bd 65 84 47 3e 44 8c 2b bd 89 28 22 be
       -0.089630656 0.19484098 -0.041881815 -0.15835775
000030 1f fc af bd 23 2b 8e bd 52 70 b8 bd 3b f1 b2 3d
       -0.0859301 -0.069418214 -0.090057984 0.08737417
000040 76 76 42 3e b7 b8 b2 bc 72 81 87 bd 36 e0 40 3d
       0.18990502 -0.021816595 -0.066164866 0.047088824
000050 c3 83 ba bd 95 43 fc 3d 27 5e bb 3d 52 38 48 3e
       -0.09107163 0.12317578 0.091488175 0.19552734
000060 90 db 1b 3e c0 0a 1b 3e c5 1b 8e 3d 1a 60 1c 3e
       0.15220475 0.1514082 0.0693889 0.15271035
000070 e9 bd 05 bd a3 bd 66 3b c0 d7 c5 bc 01 a6 d1 3d
       -0.032651816 0.0035208247 -0.02415073 0.10236741
000080 c6 ff 21 be 89 ba d3 bd a0 ba ae bc 51 95 4e 3e
       -0.15820226 -0.10338313 -0.021329224 0.20174147
000090 08 0b 26 3d 6b 7d 50 bd ae b2 f9 3c a4 cc b9 bd
       0.040537864 -0.050900858 0.030480709 -0.09072235
0000a0 d0 d9 38 be 29 ff eb 3d 17 fe d6 bd 26 0a a0 bd
       -0.18051839 0.11523277 -0.104976825 -0.07814436
0000b0 83 6a 1a be d4 62 77 3e 5a 5b 13 be 19 c8 6a bd
       -0.15079693 0.24158794 -0.14390317 -0.057319734
0000c0 db 19 d5 bd d6 69 92 bd 74 a1 2f 3c 45 2d 74 3d
       -0.10405322 -0.07149093 0.010719646 0.059613485
0000d0 16 96 6c bd 36 d2 06 3e d6 29 c3 bd 5d 04 a4 bd
       -0.05776032 0.13166127 -0.09529464 -0.08008645
0000e0 b4 c4 22 be 0b 7b bf 3b 47 a9 25 bc 42 e9 a8 3d
       -0.15895349 0.0058435253 -0.01011116 0.082476154
0000f0 a9 b6 00 bc cb e9 5d 3e f3 fc 0d be fb a7 1e 3e
       -0.00785605 0.21671216 -0.13866024 0.15493767
000100 51 90 29 3e f7 29 c9 3d 48 45 83 3e f4 8f 69 3d
       0.16558959 0.09822457 0.25638795 0.05702205
000110 39 31 00 3d 2e bb d8 bc a0 4f 00 be f7 bd 15 3e
       0.031296942 -0.026456442 -0.12530375 0.14623247
000120 3c e9 aa bc 08 bd 7d 3d 0c eb 34 3c c2 c1 32 3d
       -0.020863168 0.061947852 0.011042368 0.043641813
000130 54 bf 51 3d 8e 7d b6 bd 1e ff 87 be 90 ce ca bd
       0.051207855 -0.089106664 -0.26561826 -0.0990268
000140 3c f9 82 3a 69 24 31 bd b7 60 25 be 56 e4 96 bd
       0.000999249 -0.043247614 -0.16150175 -0.073677704
000150 36 53 5f 3d 86 f1 64 3d 36 7f 05 3e f4 89 99 ba
       0.054522716 0.055894397 0.13036808 -0.0011714087
000160 1c b5 a8 3d 0f f0 6b bd ef 19 03 be a0 02 89 3d
       0.08237669 -0.057601985 -0.12802862 0.06689954
000170 82 0a 50 be 7b e2 cb bd 51 51 20 3e 27 e2 31 3d
       -0.20316508 -0.09955307 0.1565602 0.043428566
000180 a8 02 99 be c1 05 6b 3d c6 71 b0 3d 7d 87 a2 3a
       -0.2988484 0.057378534 0.086154506 0.0012399998
000190 28 18 8c 3d 52 a5 55 3d 6c 93 dd 3d 31 aa 80 bd
       0.06840545 0.052159615 0.10819134 -0.062824614
0001a0 7c 22 0a bd a0 7d b1 3d f8 81 2e 3d fa f7 63 3c
       -0.033724293 0.08666539 0.042604417 0.013914103
0001b0 fc bc c8 3c 08 f9 0e 3e 66 70 9e bb f1 5a 15 bd
       0.024504177 0.13962185 -0.0048351763 -0.03646368
0001c0 44 96 33 be 0b 66 7b bc 99 c5 91 bd 46 96 45 3d
       -0.1753779 -0.015344153 -0.07117767 0.048239015
0001d0 4e ed a5 3d b5 44 cc 3b 12 47 48 bd 21 d8 81 3d
       0.08101903 0.0062337765 -0.048895903 0.063400514
0001e0 39 41 63 bc a5 80 99 3c 8f cc 85 3c 06 a2 ab 3d
       -0.013870531 0.0187381 0.016332893 0.08380513
0001f0 3b b7 fe 3d e6 e3 09 3d a4 27 8b 3d 2e 1d 05 3d
       0.12437292 0.033664607 0.0679467 0.03249853
000200 c2 3c 59 3e 8e 08 d6 3d be 1a 2a be 0f d4 09 be
       0.21214584 0.104508504 -0.16611764 -0.134598
000210 e7 82 b7 bc 5d 24 3b 3e b5 b2 8b 3d ce 3e 7d 3d
       -0.022401286 0.1827559 0.06821195 0.061827473
000220 7c 88 05 3e f8 8b a3 bb 0d 22 59 be 48 c4 d6 3d
       0.13040346 -0.004991051 -0.21204396 0.104866564
000230 ae 91 4d bd 80 81 ee 3d 91 2b ab bd b5 76 8e 3d
       -0.05018776 0.11645794 -0.08357919 0.06956235
000240 f6 04 e1 bd 6f 40 c9 3d d7 2a 36 3e 65 93 2c 3e
       -0.10987274 0.09826743 0.1778978 0.16853102
000250 bc 85 da 3c fd f0 d7 bc 8e ce a7 bd ee db 26 3c
       0.026675098 -0.02636003 -0.08193694 0.010184271
000260 79 a0 0d 3d 3b 64 e7 3d 47 5d 70 bd 12 45 3e 3e
       0.034576867 0.11298414 -0.058682706 0.18581036
000270 89 45 96 be fc ab 54 bd e8 af 0d be be 3f ba 3d
       -0.29349926 -0.05192183 -0.13836634 0.09094189
000280 1c bf 5b be ef b8 04 3d b8 1b 27 3c fb 5d 1c bd
       -0.21459621 0.03240293 0.01019948 -0.038175564
000290 15 e8 19 3d b2 90 96 bd 4b a6 fc 3c 5e 29 ef bd
       0.037574846 -0.07351817 0.030841013 -0.11677812
0002a0 5b 37 35 be 81 0c 22 3e 71 ec 21 3e 44 07 a5 3c
       -0.17696898 0.15825082 0.15812851 0.020145066
0002b0 1e 02 2b be 40 e0 c4 3d 62 f1 aa 3d 4c 5d 72 3e
       -0.16700026 0.09613085 0.08346821 0.23668402
0002c0 0f 37 15 3b c1 da 06 3c 07 f4 bb bd ba 92 ec bc
       0.0022768413 0.008230866 -0.09177404 -0.028878558
0002d0 51 5b db bd 89 68 43 be c3 1d 0a be ca 82 78 bd
       -0.107107766 -0.19082846 -0.13487916 -0.060671605
0002e0 18 89 80 bd 16 89 2c be 20 a8 5d be 2c fa b4 3c
       -0.062761486 -0.16849169 -0.21646166 0.022091947
0002f0 69 87 f5 3d 6f a0 74 bd 8c d0 bc 3d 9b b1 bd 3d
       0.11988718 -0.059723314 0.09219465 0.09262391
000300 a7 92 5b 3e ea 7a c9 bd 80 c3 e7 3d d9 8b f2 bc
       0.21442662 -0.09837897 0.113165855 -0.0296077
000310 48 0e f9 bd 0c ec 58 3d 07 26 83 3d 19 d6 19 3e
       -0.12160927 0.052959487 0.064037375 0.15023078
000320 93 e4 81 3d 9a d3 77 3e 70 cf 86 bd b7 d4 d9 bd
       0.06342425 0.24201813 -0.06582534 -0.10636275
000330 0f ee 86 3c 8b c2 fd 3d 2d 32 13 3e 36 4c 4a 3d
       0.016470937 0.12390622 0.1437461 0.049389087
000340 b8 50 c1 bd 24 5c f7 bd 04 2c 56 bd 32 80 7f bd
       -0.09439224 -0.12078121 -0.05228807 -0.062378116
000350 d4 02 ce 3c 09 b9 57 3d 7e 91 4f bc 55 80 83 be
       0.025147833 0.052666698 -0.012668965 -0.25683847
000360 e1 98 10 bd 64 86 09 3e b0 58 4a be d2 64 34 3e
       -0.035302047 0.13430172 -0.19760394 0.17616585
000370 f6 78 38 3d 47 d9 32 bd 07 46 06 3e 16 c0 50 3e
       0.045037232 -0.043664243 0.13112651 0.20385775
000380 52 4f d8 bb 4e 8d 4b 3e 3f 0b c6 3c 7a 57 f7 bd
       -0.0066012526 0.19878122 0.024175284 -0.12077232
000390 02 37 92 bd d7 be 25 bb ce a5 48 3d 62 87 71 3e
       -0.07139398 -0.0025290751 0.04898625 0.235868
0003a0 3a 45 d8 bb ad d8 de bd 6b 5c 7d be f5 2d f6 bd
       -0.0066000493 -0.108811714 -0.24742286 -0.12020484
0003b0 86 82 11 3c c3 78 47 3c 5d 4d 94 3c 55 c3 04 3d
       0.008881217 0.012174788 0.018103296 0.032412846
0003c0 6e 52 be bd c3 17 48 3d 85 0b 51 bd 88 ab 59 3d
       -0.09293066 0.048850786 -0.051036377 0.0531421
0003d0 cb 94 e8 bd 44 a6 58 3c da 46 e1 bc 7a 1e 37 3e
       -0.11356505 0.013223235 -0.027499605 0.1788272
0003e0 50 fc 0f 3e a6 72 c1 bd a3 df d6 3d c9 6c 86 3d
       0.14061093 -0.094456956 0.10491874 0.06563718
0003f0 df 06 83 3d b7 e1 75 3d 8c 56 3d 3d 3d 70 e9 3c
       0.06397795 0.06002971 0.046225116 0.028495902

conv1.bias f4 [16]
000000 9b 2c a7 39 a8 a0 5c 3b 2f e1 77 bc af 28 3f 3b
       0.00031885956 0.0033665095 -0.015129372 0.0029168536
000010 f8 00 54 bc 17 c2 53 bc 72 7a ee bb f0 20 9b 3a
       -0.012939684 -0.012924693 -0.00727778 0.0011835378
000020 14 fe 32 bc d6 09 4e ba e0 69 bb bb 5c 48 e3 39
       -0.010924835 -0.0007859742 -0.0057194084 0.00043350726
000030 11 fe 28 bc 40 80 c7 bb 31 62 0b bc b2 b7 8d 3b
       -0.01031448 -0.0060882866 -0.008507297 0.0043248767

conv2.weight f4 [64, 16, 5, 5]
000000 4d 4d e8 3c f8 2c 90 3c 54 49 2d 3d 2c 76 d8 3d
       0.028357172 0.017599568 0.04230626 0.105694145
000010 13 0e a1 3c 7c a0 aa 3c e6 3d 9a 39 1d 2a 4e 3d
       0.019660031 0.020828478 0.00029419287 0.05033313
000020 9e b5 e3 bc 29 c1 38 bd 78 b2 83 bc 33 68 f0 3d
       -0.027796563 -0.045106087 -0.016076311 0.117386244
000030 22 96 13 bd f9 bd 5e bc 85 3f 9d 3d bf bd 13 bc
       -0.03603185 -0.013595098 0.07678131 -0.009017407
000040 a9 0d 4a bb 2b 08 6f 3d 60 5c 99 3d 37 38 3b 3d
       -0.0030830896 0.0583574 0.07488322 0.045707908
000050 bc ea a0 bb 7f de 0d 3d 43 8c fa 3b 56 50 9d bc
       -0.004910795 0.034636017 0.007646115 -0.019203346
000060 d0 e0 cd bd e5 68 e5 3c d4 5c 08 bd 29 fe 1f bb
       -0.10052645 0.02800412 -0.033291653 -0.0024412966
000070 45 a2 dc bb c8 cf 88 3d c9 36 96 bd 39 48 6c bc
       -0.006733211 0.06680256 -0.07334668 -0.014421516
000080 77 c8 ac 3b 71 b4 94 bd 3f 2d b8 bd f8 f6 de bc
       0.0052729207 -0.07260979 -0.08993005 -0.027217373
000090 1c 7d f3 3c e9 1c 84 bd 36 0d 7b 3d 59 b5 d3 bd
       0.029722743 -0.06450827 0.061291896 -0.10337324
0000a0 b1 d0 9a 3d 02 90 4e 3c c0 8a 4b bd 95 e7 03 3d
       0.07559336 0.012607576 -0.04969287 0.032203276
0000b0 02 10 34 bd 23 78 6a bc fd ec c6 3c 03 84 46 3d
       -0.04396058 -0.014310869 0.024282927 0.04846574
0000c0 80 8d ce bc 70 66 e2 3c a1 96 e7 bc 37 9a 34 bc
       -0.025213957 0.027636737 -0.028270068 -0.011023096
0000d0 4e 73 42 bd 4d 6c 27 3d be 80 71 3c 5e 66 57 3d
       -0.047473244 0.040874768 0.014740167 0.05258786
0000e0 8c 3e 9b 3c 77 a7 60 bd 87 0f 05 bd 9f f9 06 3c
       0.018950723 -0.054847207 -0.03248551 0.008238225
0000f0 21 21 f9 bc fa 14 44 bc cb 13 65 3d 1b 18 05 3e
       -0.030411305 -0.011967892 0.05592708 0.12997477
000100 7b 6a 8e bd 36 09 27 bd 58 07 41 3d 82 f9 62 3d
       -0.06953903 -0.04078027 0.047126144 0.05541373
000110 7a 21 3a 3d fa 32 e7 3b 3f 71 4d bd 5e cb f4 bc
       0.045442082 0.0070556374 -0.050156828 -0.02988213
000120 3e 06 fe 3d 6c 0c ce bd 8c 28 24 3d db 50 a2 bd
       0.12403534 -0.10060963 0.04007773 -0.07925578
000130 98 9a 98 bc 7f 6e 1b bc a1 d1 a3 bc df df 53 bd
       -0.018628404 -0.009486794 -0.01999742 -0.051727172
000140 1e 71 ad bc ca 42 9d bc 73 b6 49 3d fe f4 25 3c
       -0.021172103 -0.019196887 0.049246263 0.0101292115
000150 79 72 b0 3c f0 95 46 bd cc 83 80 3d 43 a8 35 3c
       0.02153896 -0.048482835 0.06275138 0.01108748
000160 d4 d3 b3 bc 30 c3 45 bd ac 60 83 bb 08 b9 1f bd
       -0.021951593 -0.04828185 -0.004009327 -0.03899482
000170 f9 3e 91 bb 15 45 b4 3d b3 7c 8d bd 04 ab 14 bc
       -0.0044325558 0.08802239 -0.0690855 -0.009073976
000180 c2 45 46 3b 02 76 81 3c 05 8f 28 3d 77 79 81 3d
       0.0030253981 0.01580334 0.04115202 0.06321996
000190 7b 90 f2 bc 9d 90 a1 bd 2b 3f 18 bd 71 6e 8a 3d
       -0.02960991 -0.07888911 -0.037169617 0.06759346
0001a0 a0 29 eb 3b 77 d7 72 bc f6 64 81 bd 4d 02 8b 3d
       0.007176593 -0.014821879 -0.06318085 0.06787548
0001b0 2e 4a e6 b9 ac cb 09 ba 22 5d 47 bd 06 aa 61 bc
       -0.00043924287 -0.0005256485 -0.048672803 -0.013773447
0001c0 a3 8e 45 3d e5 8f 20 bd a0 54 dd bd e7 47 ed bc
       0.048231732 -0.03919973 -0.108071566 -0.02896495
0001d0 ac 42 44 3d 77 a7 7f 3d b9 25 ae bb 08 c5 4c 3d
       0.047915146 0.062415566 -0.0053145555 0.04999259
0001e0 89 88 81 3d 89 aa 26 bc 47 9c 00 bd 7d 7f b2 bc
       0.0632487 -0.010172495 -0.031399038 -0.021789307
0001f0 75 a5 c0 3c 32 97 65 3c d8 f6 ab bc 3b eb fc bc
       0.023516396 0.014013099 -0.020991728 -0.030873885
000200 bc 0d b0 3b c1 f0 9d bd 04 b7 9d 3c 9f d1 e6 bb
       0.005372731 -0.07711936 0.019252308 -0.0070440318
000210 ab d5 b3 bd 35 01 0f 3c 50 5c 35 bc 3a ef 58 bd
       -0.08780988 0.008728315 -0.011069372 -0.05296252
000220 48 18 f3 bb 34 66 d3 3b a7 b8 07 3b a7 ee 8e 3d
       -0.007418666 0.0064513925 0.0020709427 0.06979113
000230 cc 9c c3 3d 64 c9 d9 3d e9 40 a1 bc 61 97 79 bd
       0.09551391 0.10634115 -0.019684272 -0.06093538
000240 9c 07 14 bb 4c a2 d5 bc dc 3f a0 3c 9c b2 8d bd
       -0.0022587543 -0.026078366 0.0195617 -0.06918833
000250 42 00 bf 3c aa f7 6f 3d b6 1c 12 bd fd f4 0c bd
       0.023315553 0.0585858 -0.035671912 -0.034413327
000260 28 16 59 bd 06 ef 4a 3b 64 32 97 bc f2 22 0c 3d
       -0.052999645 0.0030965223 -0.018456645 0.034213014
000270 29 1d a8 3c b0 76 15 bd 21 8d a4 bc b8 21 29 3d
       0.020521717 -0.036490142 -0.020086827 0.041291922
000280 98 18 23 3d fa 7e 9b 3d 00 fe 8a 39 1b af 9c 3d
       0.039818376 0.07592578 0.00026510656 0.07650586
000290 07 1f 2a bd 8d 60 ce 3c 60 0e c7 bb 00 a5 96 bc
       -0.041533496 0.025192523 -0.0060747117 -0.018389225
0002a0 01 52 c9 bc 62 b8 ec bc ac bf 07 ba f3 06 b4 bc
       -0.024575235 -0.028896514 -0.00051784026 -0.02197597
0002b0 ac 94 6c 3d f5 25 3c bc 96 f1 a7 bc 9d 37 d1 bc
       0.057758972 -0.011483659 -0.02050094 -0.025539214
0002c0 a9 21 10 3e 10 85 4b bd bb a7 df 3d 7b 1a 59 bd
       0.1407534 -0.049687445 0.10920664 -0.05300377
0002d0 bc 4a 9e bd 18 1d 9b 3b 6e 80 0d bd 96 76 8b bc
       -0.07729098 0.004733693 -0.03454631 -0.01702432
0002e0 68 0b 4e bd c5 ff a9 3c a5 fb 39 3d d3 16 92 bd
       -0.050303847 0.020751843 0.045406003 -0.071332596
0002f0 c6 2e 83 3d 3a af f0 3a 41 12 e0 3d 82 91 93 bb
       0.06405406 0.0018362768 0.10940982 -0.00450343
000300 35 9a 7f bd 9e d9 26 3d 2b 44 4c bc 15 8f 93 bd
       -0.062402923 0.04073488 -0.012467424 -0.07205025
000310 21 a0 ba 3c 27 e4 11 bd 93 7b f4 bc 9a 1f 4b bc
       0.022781434 -0.035617974 -0.029844081 -0.012397671
000320 d1 13 b3 3d 31 20 90 3b 1e b4 a3 3d 96 4e 84 bc
       0.08744014 0.0043983688 0.07993339 -0.016150754
000330 b6 71 3b 3d f6 78 90 3d 9e 5a 32 3c 6b 71 be 3b
       0.04576274 0.070543215 0.010885863 0.0058118603
000340 79 c1 1f 3c 99 18 84 bd 55 1c 4d bd b0 e3 90 bc
       0.009750717 -0.06450004 -0.050075848 -0.017686695
000350 91 7a 2e bd b5 3d d5 3c ae a4 42 bd 68 00 3c 3d
       -0.042597357 0.0260304 -0.047520332 0.045898825
000360 20 73 0b 3d 4e 10 27 bc 4e 97 f7 3b 15 85 93 bd
       0.03404534 -0.010196758 0.0075558787 -0.07203118
000370 ed a0 f7 bc 60 9b 68 bc f6 69 87 3c f6 14 48 3d
       -0.030228103 -0.014197201 0.016530018 0.048848115
000380 a7 7e 50 bd 2c a2 fc 3c 94 07 4e 3d 08 07 1b bd
       -0.050902035 0.030839048 0.050300196 -0.037848502
000390 46 09 99 3c 8e d7 bb 3c 96 b0 d3 3d 93 18 1f bd
       0.01868118 0.022929933 0.103364155 -0.038841795
0003a0 a4 87 80 bd 44 c2 ce bb 59 b8 36 3c 52 11 e1 bc
       -0.062758714 -0.0063097794 0.01115235 -0.02747408
0003b0 9a a3 1d bd 60 f6 01 bd 0f 68 a0 3d 2e 84 a9 bd
       -0.0384861 -0.031729102 0.078323476 -0.082771644
0003c0 13 e3 15 3d 6e 94 9f bc 06 a6 29 bd bf 41 b3 3c
       0.036593508 -0.019479956 -0.041418098 0.021881936
0003d0 26 12 cb b9 b4 47 16 3d 2a c1 72 bd cd e3 91 3d
       -0.000387327 0.036689475 -0.059266247 0.07123528
0003e0 05 cd a8 3c ff 08 57 3d 16 13 a1 ba 5d 2e 7d 3b
       0.020605573 0.052498814 -0.0012289013 0.003863237
0003f0 c2 66 77 bb 0c 81 85 3b 20 53 43 bd 33 e0 8a 3d
       -0.0037750457 0.0040742215 -0.047686696 0.06781044

conv2.bias f4 [64]
000000 7a d2 89 3c f7 22 16 3b 67 d3 2b bc c2 34 5d bb
       0.016823996 0.0022909024 -0.010487414 -0.003375337
000010 b2 1e b3 3a 51 2c bd bb e3 76 0a bb d2 8a 80 bb
       0.0013665764 -0.005773105 -0.002112799 -0.0039227987
000020 40 dd 42 b7 69 75 1f 3b be 88 f4 b9 12 ae 98 bb
       -1.1614815e-05 0.0024331457 -0.00046641188 -0.0046594227
000030 43 eb 07 bc 8f 05 29 3b ae 41 15 3c 6e 20 52 3b
       -0.008295837 0.0025790667 0.009109898 0.0032062787
000040 ac c7 9d bb ec 07 7f ba cf 24 52 39 89 cd 4c bc
       -0.0048150625 -0.00097286585 0.00020040873 -0.012500175
000050 76 ad fc bb d6 22 b6 3a 78 4a 25 3c 54 9a b5 3b
       -0.007711108 0.001389588 0.0100885555 0.005542079
000060 b4 03 2c 3b 23 b8 bb bb 3f 41 dd bb 11 85 20 bc
       0.0026247324 -0.005728738 -0.0067521627 -0.0097973505
000070 30 aa 31 3c 60 35 89 bc 2e f6 03 3b 22 96 5d 3c
       0.0108437985 -0.016749084 0.0020135748 0.013524564
000080 fd 50 69 bc cd ce 9a bb 4f 29 3a 3c 3c 5c 44 3c
       -0.0142405005 -0.0047243596 0.011362388 0.011984881
000090 73 c9 88 bb 88 cf 9a 3b e1 8a 55 3c 08 a2 d7 3a
       -0.0041744052 0.0047244467 0.0130336 0.0016451487
0000a0 0d 2a 90 3c 32 bb eb 3b d2 32 84 bb bd 20 9d 3a
       0.017598176 0.0071939463 -0.0040343786 0.0011987906
0000b0 6d 8a c6 bb 0d 6f 12 bc 8a a6 d3 bb 3d 12 a7 3b
       -0.006058982 -0.008937609 -0.006459062 0.0050986097
0000c0 e6 00 08 3c 3d cb f7 bb 10 99 0b bb 99 46 f4 b9
       0.008300995 -0.0075620697 -0.002130095 -0.00046591906
0000d0 38 d7 fc 3a a2 ff 40 bb fe 8c 12 3c 64 8d 46 bb
       0.0019290214 -0.0029449244 0.008944748 -0.0030296678
0000e0 a0 0a bb 3a 5d 15 1d 3c 3c bf 1a 3b 8f d4 4c 3a
       0.0014270134 0.009587613 0.002361252 0.0007813656
0000f0 0c dc e0 bb 2e c2 f2 bb 57 26 79 3b 4e 71 1c 3c
       -0.006862169 -0.007408402 0.0038017237 0.009548498

conv3.weight f4 [8, 64, 5, 5]
000000 c7 ee 2f 3c 1b 59 7f 3c e4 2b 53 bc 20 d2 8e 3b
       0.010738081 0.015585209 -0.012888882 0.004358545
000010 95 fb c2 3b 41 bf 86 bd f4 11 2d 3d 27 f0 83 bb
       0.005950401 -0.065794475 0.04225345 -0.004026431
000020 b3 9e 93 3d de 22 05 bd 9c 2a 1e 3d ca eb b1 bb
       0.07208004 -0.032503955 0.038614854 -0.0054297196
000030 5d e6 ef 3c 16 a0 10 b9 d4 41 e6 3b 57 56 e1 3c
       0.02928465 -0.00013792547 0.0070268903 0.02750699
000040 9f 3b 7f 39 07 e8 49 3d 10 f0 2b 3c 7e 8b 92 bc
       0.00024340906 0.049293544 0.010494247 -0.01788878
000050 f1 a2 50 3c 04 c2 6b ba 14 e8 30 ba c3 42 89 3d
       0.012734161 -0.0008993449 -0.00067484495 0.06702187
000060 c3 c6 2a bc 60 b8 2a 3d 56 91 fa ba 00 1d 76 bc
       -0.010423365 0.04167974 -0.00191168 -0.015021563
000070 d9 3f 36 3b b0 4b 06 3b ad da 42 3c 24 c6 c9 bc
       0.0027809052 0.002049189 0.011892957 -0.024630614
000080 d9 14 81 3d 76 f1 29 3d d8 aa 78 bc b4 83 3a 3d
       0.063028045 0.04149004 -0.015177451 0.04553576
000090 a0 94 b3 3a a1 88 78 bc 2e 4c 1e bb d7 96 77 3d
       0.001370091 -0.015169294 -0.0024154293 0.060446586
0000a0 64 1a 52 3c 14 c9 c9 3b 19 7f 56 3d 89 aa 9f 3c
       0.012823675 0.0061580036 0.052367304 0.019490497
0000b0 68 7f 0a 3c ca 00 aa bb 0b 9e 15 bc 29 79 0b bd
       0.008453228 -0.0051880823 -0.009131919 -0.034051094
0000c0 a8 99 d1 3b e9 c7 d8 bb 52 ee ba 3b 57 38 0a bd
       0.006396491 -0.006615628 0.0057046795 -0.033745136
0000d0 2b f5 fb bc b0 c1 25 3b 28 5b ce bc 82 9b da 3c
       -0.030756554 0.0025292449 -0.025189951 0.02668548
0000e0 0a c3 1e 3d c9 c6 ac bb 1c 53 9c 3b 57 f2 12 3c
       0.038760222 -0.0052727205 0.0047706496 0.008968911
0000f0 8b 00 aa bc 76 34 ff 3c c0 c6 9e 3c c3 55 99 3c
       -0.020752212 0.031152945 0.01938188 0.018717652
000100 0f 08 8a 3c 15 af fb 3c c8 2b 82 bb 63 54 f6 bc
       0.016849546 0.030723134 -0.0039725043 -0.030069536
000110 aa d8 a2 3c 8c c1 03 3d 9a e3 00 bd 13 65 ac 3c
       0.019878704 0.032167003 -0.031467058 0.02104429
000120 aa a6 0e bd d4 54 71 bd ba a5 63 3c 7d 04 0f bd
       -0.034826912 -0.05891879 0.013894493 -0.03491639
000130 28 cd 8c bc 36 77 11 bd 2c 81 2b bc 3e b3 c4 bc
       -0.01718767 -0.03551408 -0.010467809 -0.02401125
000140 06 fb 18 3d df bd b4 3b 75 e6 d9 bc 61 3c 1b bc
       0.03734877 0.0055157985 -0.026599148 -0.009474845
000150 e5 37 10 bb 88 0a 46 bc 76 7f a9 bc ff 3c b5 bb
       -0.0022005972 -0.012087472 -0.02069066 -0.005530953
000160 e6 dd 39 3d bc 7a 54 3d e8 28 c0 3c ee 15 ee 3b
       0.045377634 0.05187486 0.023457006 0.007265798
000170 45 06 33 3d 7e bc 22 3d 1f 67 da 3b 26 76 b0 3b
       0.04370715 0.03973054 0.006665125 0.005385178
000180 a1 da 3f bc f3 df 89 bd b0 49 7a 3c b7 cc f4 bc
       -0.01170984 -0.06732168 0.0152763575 -0.029882772
000190 b7 cd 93 bc 2f e9 80 3c 0a 87 d1 3b fe 6b 85 bd
       -0.018042428 0.01573619 0.0063942717 -0.065147385
0001a0 5b c3 3f bd d7 98 0a 3d 91 dd 92 3c 9c 8f 27 3d
       -0.046817165 0.033837166 0.017927917 0.04090844
0001b0 a8 37 08 bd 23 64 2f bd f0 cf ee 3c 10 61 6f bb
       -0.033256203 -0.042820107 0.029151887 -0.003652636
0001c0 1f fb 7f 3c cc ec d9 3c 1d 05 43 3b c1 c1 a7 bc
       0.015623837 0.026602171 0.0029757686 -0.020478131
0001d0 d5 00 03 bd b4 08 06 3d da 75 d3 bb 4a b5 e6 bc
       -0.031983215 0.032723144 -0.006453258 -0.028162617
0001e0 1d 60 5b bd 96 37 4a 3b d3 8f 88 bc d6 8f 96 3c
       -0.053558458 0.0030855886 -0.016670143 0.018379133
0001f0 80 15 46 bc 8e 74 fe bc 1c d8 3e bd b5 36 a3 3b
       -0.012090087 -0.031061437 -0.046592817 0.004980887
000200 10 dc 80 3c 39 8e 09 3d b5 a8 3e bc 74 5d c7 3c
       0.015729934 0.0335829 -0.011636903 0.024336554
000210 ef 71 a3 3b 34 47 7a 3b 9a e5 6c bd 14 40 9d 3c
       0.004987947 0.0038189413 -0.057836153 0.019195594
000220 a8 a9 c8 3c 07 c6 06 bd c8 dd 5f 3d 9f 73 2c 3b
       0.02449496 -0.032903697 0.054654866 0.0026314033
000230 ad 20 30 bd c1 22 67 3c c4 98 bb bc 57 01 d2 bb
       -0.042999912 0.014107407 -0.022899993 -0.006408851
000240 f7 d8 69 bb fa 68 4d bc 94 b2 a8 bb 51 5f ae bb
       -0.00356823 -0.012537235 -0.0051482413 -0.005321421
000250 b2 b8 97 3b a3 cc 9f 3c f9 92 04 bd 82 ea 9c 3c
       0.0046301717 0.019506758 -0.032366727 0.01915479
000260 17 81 6f bc e4 c1 e0 3c 0c b4 f4 bc 5e 51 b6 bc
       -0.01461818 0.027436204 -0.02987101 -0.022255596
000270 78 14 82 bd 92 51 04 3d c0 a6 ad 3c dc 04 a3 3c
       -0.0635156 0.032304354 0.021197677 0.019899778
000280 34 3e 47 3d 3d 28 49 bd 6f 01 e3 bb 2d fa 88 3c
       0.048643306 -0.04911064 -0.006927661 0.016720856
000290 1c 3b 92 3d 35 8c d5 bc 83 23 87 3c bb 35 18 bc
       0.071401805 -0.026067832 0.016496425 -0.009290154
0002a0 eb fb dc bc 1f 16 d5 3c 00 ab 3e bb 69 24 3b 3c
       -0.026975593 0.026011525 -0.0029093623 0.011422255
0002b0 b5 8e c9 bc 3d 37 c8 bc b9 02 8b bd f2 23 9c bc
       -0.02460418 -0.024440402 -0.06787629 -0.019060109
0002c0 0d c2 0d 3c f4 ba 8f bc ba 07 3b 3c 88 a0 a9 3c
       0.008652222 -0.0175452 0.011415416 0.02070643
0002d0 a2 b6 f7 bc 17 b0 b8 bc 2c dc 88 3c fa 2d 9c bc
       -0.030238453 -0.022544904 0.016706549 -0.019064892
0002e0 dc 8f 1e bb fa 75 f3 3c 6a 06 91 bb b0 74 f3 3c
       -0.0024194634 0.029719342 -0.0044258134 0.029718727
0002f0 11 f9 3b 3c 6c 6d 0b bb ca 37 38 3d e2 cc fa 3b
       0.011472956 -0.0021274937 0.04497508 0.0076538185
000300 fd 6c 00 3d 1e 9d 4a 3c 5d ae 94 3b 2a d9 02 bd
       0.03135394 0.012366561 0.0045373873 -0.031945385
000310 ff e1 52 3d ae 87 0f bc 41 05 06 bd 35 87 30 bd
       0.051485058 -0.008760376 -0.032719854 -0.043097693
000320 ac 79 4e bc 99 c1 1f bd 61 8d c2 bb ca 24 ba 3c
       -0.012602251 -0.03900299 -0.005937264 0.02272262
000330 da f0 94 3b 56 e3 9e 3c e4 22 01 3d 74 2a ec bc
       0.0045453133 0.019395512 0.031527415 -0.028828837
000340 eb 3a 5c 3d c9 85 54 3d b0 95 d0 bb 20 6b 1c 3d
       0.053767126 0.0518854 -0.0063655004 0.0381881
000350 c8 6f 1b bc 48 6d b5 3b c9 c1 45 3d fd 6c 66 3c
       -0.0094871 0.005536709 0.04828051 0.014064071
000360 01 b2 97 3d da f3 eb 3b 24 bf 24 bb 1b 2a 25 bd
       0.074069984 0.0072007 -0.0025138343 -0.040323358
000370 63 67 d9 bc f9 8c f7 bb 05 06 50 3d 7f 88 7b bd
       -0.026538556 -0.007554647 0.05078699 -0.06140947
000380 1c 4e f4 bc 7f 71 41 3c 71 b0 26 bd a1 cb 31 bd
       -0.029822402 0.011806845 -0.04069561 -0.043407086
000390 40 3e 0d 3d 7c 4d 63 bc f1 42 2d 3d e9 c5 30 3d
       0.034483194 -0.013873454 0.04230017 0.04315749
0003a0 40 55 e0 b9 55 b7 82 3c c2 12 3e ba 4d 8d 33 3d
       -0.00042788126 0.01595656 -0.000725072 0.043835927
0003b0 78 d3 20 bd 08 6b b1 3c 8a 8c a3 3c 9d 37 fa 3c
       -0.039264172 0.021657482 0.019964475 0.030544097
0003c0 b0 91 f1 3c 8a eb 09 bc 89 b1 8b bc c5 71 1f ba
       0.029488415 -0.008417973 -0.017052429 -0.00060823216
0003d0 b2 a6 b0 3a 5b 80 74 3c 15 ef 4d 3c 3e 33 23 bc
       0.0013477413 0.01492318 0.012569209 -0.009960948
0003e0 fc cd 1a bd cf 4e 9c bb e9 61 36 3c f3 c2 01 3d
       -0.0377941 -0.004770137 0.011131742 0.03168006
0003f0 77 ed 48 3a 80 a2 4e bb e2 61 be 3c e4 5d 54 3d
       0.00076647796 -0.0031529963 0.023240034 0.051847354

conv3.bias f4 [8]
000000 1a 86 51 3c 56 48 5b b9 ac 38 55 3c 17 43 f5 bb
       0.01278832 -0.00020912415 0.013014 -0.0074848044
000010 c9 cc 9f ba 03 45 94 bb e2 be d2 bb 01 29 02 bc
       -0.0012191768 -0.0045248284 -0.0064314464 -0.007944346

fc1.weight f4 [2, 32]
000000 1d a8 ed bd 75 f2 c5 bd bd a3 2c be b5 4b 6c bd
       -0.11604331 -0.09665386 -0.16859336 -0.057689387
000010 66 13 4b be 85 b5 0c be 02 5f 67 be dc dd 0c 3e
       -0.19831619 -0.13741119 -0.22594836 0.13756508
000020 36 95 e1 3d 41 1c 9a 3d 93 4a 17 3d 6d 16 01 be
       0.11014788 0.0752492 0.036936354 -0.12606211
000030 8f 96 c7 3c 99 2e 8e 3e 57 44 85 be 50 62 eb 3e
       0.024363784 0.27769926 -0.26028702 0.45973444
000040 af 44 07 be c4 43 74 3e 90 7a 7a 3e 03 7f 31 3d
       -0.13209794 0.23853976 0.24460816 0.04333402
000050 f1 4f c8 bd 88 f0 2a 3c eb 40 c5 3e 7e db b6 3c
       -0.097808726 0.010433324 0.3852609 0.022321459
000060 e8 40 87 be 96 07 b7 bd 1a b8 5b be bd b8 cd bd
       -0.26416707 -0.08936994 -0.21456948 -0.10045002
000070 98 68 8a 3b aa 2f 14 3d bc 9f 59 3d 1b 2b f2 3d
       0.0042238943 0.03617827 0.05313085 0.11824628
000080 c4 b6 3e be a7 98 ee bc 5c 33 d3 bd 09 67 df 3d
       -0.18624407 -0.029125525 -0.103125304 0.10908324
000090 4f 91 fd 3c 9e a7 42 3e d3 f9 92 bd 7e ac 2a 3e
       0.030953078 0.19009253 -0.071765564 0.16667363
0000a0 cf fc 0d be 55 35 8f 3e 8e 92 ca bc 31 85 be 3c
       -0.1386597 0.27970377 -0.024728086 0.02325687
0000b0 b9 c0 af 3e 63 bf c3 bd 0a 2b ec bd 16 c1 d2 3e
       0.34326723 -0.095579885 -0.115316465 0.41162938
0000c0 2b 17 55 be 9c bb af 3d f1 3f 03 bd 7c a1 82 3d
       -0.20809619 0.085807055 -0.0320434 0.06378457
0000d0 64 d4 8e be c2 1d f3 bd 73 af a9 bd 2b f1 8d bd
       -0.27896416 -0.1187091 -0.082854174 -0.06930765
0000e0 70 83 1a be e4 7b e3 3d 91 18 cd bd 49 64 16 3d
       -0.15089202 0.11107615 -0.10014451 0.036716733
0000f0 44 1c 85 be ed 8e 8d be e6 d7 80 3d 8e 5d 4f bd
       -0.25998127 -0.27648106 0.06291179 -0.05062633

fc1.bias f4 [2]
000000 28 13 28 bc 2d 13 28 3c
       -0.010258473 0.010258478
