checkpoints/source/epoch=26.checkpoint.pth.tar (torch, 168943 bytes, 8 tensors)

conv1.weight f4 [16, 3, 5, 5]
0.16476609 0.11248043 0.0093055265 -0.18772061 0.03680522 -0.034786634 -0.005960557 -0.19854404
-0.15123104 0.07362077 0.024411153 -0.07554205 -0.1343669 -0.14792648 -0.10103522 0.14571272
0.20553085 -0.012131467 -0.08200795 -0.0018215101 0.03185394 0.1670682 0.08276112 0.096435554
0.0774196 0.12532555 0.058415335 0.035923064 -0.076179415 -0.0014305797 0.022469519 0.04668303
-0.18565023 -0.15825927 -0.03866005 0.15180548 0.029827224 -0.11609428 -0.09560186 -0.10139186
-0.004943974 0.16313423 -0.058207124 -0.08857623 -0.11236222 0.21535903 0.015400253 -1.3666475e-05
-0.07026391 -0.046874326 0.050168682 0.053238437 -0.07415337 0.008747283 -0.05288164 -0.0056548575
-0.084781334 -0.1021766 -0.110540375 0.01492756 0.0421263 0.123996176 -0.16189742 -0.029244862
0.036092438 0.1517134 0.24348189 0.03142083 -0.028590629 -0.042764515 0.012601423 0.18002145
0.020311508 0.02168075 -0.00101166 0.051696856 0.06000218 0.004645922 -0.06568506 -0.025099682
0.042095594 0.0317935 -0.004426934 0.021969168 0.0338792 0.081050746 0.09293207 0.05321838
0.07135086 0.005093376 0.057811033 0.09248811 0.0036118447 0.026206208 0.0493206 0.0981038
-0.018187203 0.076298185 0.07441637 0.0015022334 0.058758195 0.06026985 0.061114307 -0.0029761852
-0.0063062077 0.06519808 0.05468829 0.044698905 0.04766405 0.05581697 0.06503385 0.049977884
0.0052270293 0.0470824 0.0017179005 0.104763925 0.09606438 0.06387643 0.039436 0.026077082
0.08344822 0.074993186 0.065660946 0.07383862 0.0303904 0.0488534 0.06471571 0.039499305
0.07794381 0.033391483 -0.005333299 0.0063358713 0.034921866 0.08892945 0.037360657 0.082606725
0.09294126 0.052228216 -0.0067636645 0.044741433 0.0794168 0.10506176 0.039312955 0.0691053
-0.01646868 0.11191973 0.11588134 0.105111845 0.059803084 -0.0049029044 0.071924984 0.12362937
0.07608948 0.06592738 -0.03463627 0.13662133 -0.19496326 -0.1014211 -0.193862 -0.02697116
-0.2361198 -0.08187601 -0.09465268 -0.11014945 -0.016989738 -0.086109005 0.010370142 -0.058615662
-0.06091093 0.17155412 0.1353765 0.049099106 -0.03839308 0.1595159 0.16342619 0.27596402
0.11859559 0.059352227 -0.063067585 -0.016184391 -0.049531918 -0.12899722 -0.15483478 -0.14381917
-0.124991335 -0.20629011 -0.24226959 -0.086994246 -0.009028209 -0.07965653 0.02162351 0.04875539
0.15484668 -0.009752234 0.14174758 0.012582397 -0.043171626 0.108168736 0.138231 0.2084765
0.16512045 0.27092788 0.0123084895 -0.07228973 0.011936599 0.096789524 0.083492674 -0.035886362
-0.16556421 -0.16156971 -0.13121065 -0.1430986 -0.08502462 -0.05226194 -0.049343918 -0.20626307
-0.031720173 0.102367215 -0.07450918 0.18343423 0.061339702 0.007615038 0.15990154 0.23114128
0.10250753 0.18199635 0.12321484 0.034669988 0.0036137914 -0.055196363 0.12384454 0.2574649
0.13376339 -0.0072239023 -0.20989269 0.0092767095 0.1417175 0.15440108 0.06374457 -0.090562396
-0.017851407 0.14326994 0.104297556 0.08207685 -0.15574998 -0.013506718 0.0674669 0.19599879
0.0979122 -0.16669807 0.13469915 0.1449784 0.13272691 0.07022472 -0.03155738 0.11370652
00000000: 71b8 283e 245c e63d 3576 183c d539 40be
00000010: 12c1 163d 6e7c 0ebd c750 c3bb 214f 4bbe
00000020: 4fdc 1abe 7cc6 963d e6f9 c73c cab5 9abd
00000030: 7a97 09be 0a7a 17be 8eeb cebd b735 153e
00000040: ae76 523e 10c3 46bc c9f3 a7bd bdbf eeba
00000050: 4779 023d ed13 2b3e a97e a93d 0180 c53d
00000060: 2b8e 9e3d 5755 003e eb44 6f3d 1024 133d
00000070: f403 9cbd 4a82 bbba ff11 b83c b436 3f3d
00000080: 181b 3ebe b80e 22be 005a 1ebd e572 1b3e
00000090: 3958 f43c d6c2 edbd e8ca c3bd 89a6 cfbd
000000a0: 0f01 a2bb a90c 273e 986a 6ebd 7467 b5bd
000000b0: 2a1e e6bd 1487 5c3e 5851 7c3c 1049 65b7
000000c0: 86e6 8fbd 4bff 3fbd ad7d 4d3d 8c10 5a3d
000000d0: b9dd 97bd c450 0f3c 6b9a 58bd 624c b9bb
000000e0: d6a1 adbd f741 d1bd fe62 e2bd ba92 743c
000000f0: a18c 2c3d b5f1 fd3d 70c8 25be ec92 efbc
00000100: aad5 133d c25a 1b3e 5153 793e 21b3 003d
00000110: e536 eabc d829 2fbd 3376 4e3c 8b57 383e
00000120: 5264 a63c d49b b13c ad99 84ba 15c0 533d
00000130: d9c4 753d d23c 983b e485 86bd d99d cdbc
00000140: 6e6c 2c3d e739 023d d00f 91bb aff8 b33c
00000150: ebc4 0a3d effd a53d 2b53 be3d 84fb 593d
00000160: 6620 923d 56e6 a63b 43cb 6c3d 686a bd3d
00000170: b3b4 6c3b 67ae d63c 6604 4a3d a5ea c83d
00000180: 54fd 94bc 3942 9c3d 9c67 983d 97e6 c43a
00000190: 6fac 703d 85dd 763d ff52 7a3d 1a0c 43bb
000001a0: 4ea4 cebb 9286 853d d400 603d 3316 373d
000001b0: 613b 433d 56a0 643d 7830 853d 9cb5 4c3d
000001c0: 8047 ab3b 7ad9 403d 2d2b e13a 788e d63d
000001d0: 67bd c43d a5d1 823d a587 213d 9b9f d53c
000001e0: e6e6 aa3d 0796 993d 3f79 863d b438 973d
000001f0: 4af5 f83c 811a 483d ac89 843d 06ca 213d
00000200: 01a1 9f3d 82c5 083d f4c2 aebb 249d cf3b
00000210: 3b0a 0f3d a520 b63d 7d07 193d b72d a93d
00000220: fd57 be3d 41ed 553d bba1 ddbb cb42 373d
00000230: 46a5 a23d 9f2a d73d 9f06 213d 1487 8d3d
00000240: 53e9 86bc 2c36 e53d 3253 ed3d e144 d73d
00000250: 14f4 743d 8ba8 a0bb 684d 933d 6531 fd3d
00000260: cdd4 9b3d ef04 873d c3de 0dbd 76e6 0b3e
00000270: 73a4 47be deb5 cfbd c383 46be 9ff2 dcbc
00000280: 64c9 71be 9cae a7bd 44d9 c1bd 0996 e1bd
00000290: 102e 8bbc eb59 b0bd 87e7 293c fa16 70bd
000002a0: bd7d 79bd e2ab 2f3e 23a0 0a3e 251c 493d
000002b0: 1042 1dbd 2358 233e 3259 273e 284b 8d3e
000002c0: 3fe2 f23d 521b 733d 9429 81bd 2195 84bc
000002d0: fbe1 4abd d917 04be 028d 1ebe 5545 13be
000002e0: 75fb ffbd b73d 53be 8515 78be 0a2a b2bd
000002f0: 0eeb 13bc f622 a3bd ca23 b13c bbb3 473d
00000300: 2190 1e3e d6c7 1fbc 4726 113e 6626 4e3c
00000310: bbd4 30bd 9287 dd3d 6d8c 0d3e dd7a 553e
00000320: 5615 293e 0fb7 8a3e 8ca9 493c a30c 94bd
00000330: ba91 433c 9639 c63d 35fe aa3d 94fd 12bd
00000340: aa89 29be 8872 25be 165c 06be 7088 12be
00000350: 6321 aebd 9e10 56bd d91c 4abd a036 53be
00000360: 03ed 01bd e7a5 d13d 4598 98bd 2fd6 3b3e
00000370: 573f 7b3d 9287 f93b 3bbd 233e 4db0 6c3e
00000380: 78ef d13d 405d 3a3e 1058 fc3d 1e02 0e3d
00000390: 5cd5 6c3b 9515 62bd 35a2 fd3d 70d2 833e
000003a0: 45f9 083e 7cb6 ecbb 1cee 56be 57fd 173c
000003b0: 641e 113e 511b 1e3e 838c 823d c778 b9bd
000003c0: 1d3d 92bc 5bb5 123e f599 d53d e817 a83d
000003d0: ec7c 1fbe 484b 5dbc 162c 8a3d e8b3 483e
000003e0: 3186 c83d e6b2 2abe 93ee 093e 3875 143e
000003f0: 90e9 073e fad1 8f3d 5042 01bd f7de e83d

conv1.bias f4 [16]
0.05018396 -0.043983147 0.02434592 0.08377999 0.023416717 0.07544167 -0.056720078 0.04713433
0.041516647 0.04249808 0.018688345 -0.030709805 0.04371489 0.0069594258 -0.028232789 -0.039545614
00000000: b28d 4d3d ac27 34bd 1871 c73c d894 ab3d
00000010: 6ad4 bf3c 2a81 9a3d 5053 68bd ed0f 413d
00000020: 5c0d 2a3d 7712 2e3d 4d18 993c 2193 fbbc
00000030: 620e 333d e50b e43b 7348 e7bc 95fa 21bd

conv2.weight f4 [64, 16, 5, 5]
0.0007869969 0.046883617 0.012049315 0.04598758 -0.024173046 -0.013100012 -0.034633167 -0.039205834
-0.073975794 -0.06316521 -0.046865497 0.001883626 -0.028107692 -0.020499703 0.01541407 -0.03859255
-0.04266996 -0.030828001 -0.028305218 -0.0008784381 -0.008372005 0.02395786 -0.042419128 -0.01766773
-0.07491512 0.046728164 0.022097338 0.022793612 0.026651496 0.06076391 -0.013044171 -0.02236655
-0.019180244 -0.021280708 -0.05934778 -0.04781814 -0.007295542 -0.046248272 -0.031872846 -0.056324515
0.006985894 -0.0097764945 -0.03809089 0.0011669932 -0.0068449914 0.025408233 0.029838752 0.041220445
0.023247305 0.057463232 0.02206769 0.014517949 -0.013031448 0.019494055 -0.010646179 0.022953771
0.024724986 -0.08523593 -0.030528624 -0.02365312 0.060783505 0.026924936 0.06823225 0.123474
-0.04786636 -0.09652141 -0.06730173 0.050133288 -0.02346889 0.015652139 -0.0012852789 0.01804667
0.031942267 -0.05291762 0.0034576333 0.015445471 0.02733497 0.06629626 0.032166038 0.04314557
0.014183765 -0.002882904 -0.017396294 0.028050123 -0.01642855 -0.08511264 -0.020421457 -0.062969595
-0.061517585 -0.07802157 0.001764645 -0.030937683 -0.027992278 -0.0012244091 -0.048114575 0.00639029
0.003347417 0.027809937 0.03450636 0.049998105 -0.015029169 -0.03713465 -0.03071525 0.005221113
-0.025588214 -0.017054582 -0.016385794 -0.03767466 -0.0934504 -0.102400705 0.017110525 -0.00843252
-0.016019614 0.05694074 -0.014694794 -0.07000458 -0.08482377 -0.015036387 -0.010322181 0.016587459
-0.014123223 0.004159895 0.001697982 0.009075948 -0.0006469472 -0.023620857 0.032541186 -0.040934276
-0.020783179 0.0031841658 0.01259173 -0.021156637 -0.09109416 -0.037633263 -0.03238324 -0.08215465
-0.055661302 -0.03914677 -0.12482898 0.0034546552 0.020504434 0.017334979 -0.041908816 -0.06046757
-0.06185574 -0.017712234 0.0009504799 -0.043035172 -0.031853944 -0.1269946 -0.020854607 0.018170638
0.011373137 -0.0075268806 -0.029343512 0.030655358 0.035690743 -0.00785412 0.027585063 0.03258485
0.0150839025 0.025159119 0.016692415 0.029217005 -0.008282184 0.015416283 0.008173704 0.0008474795
-0.026309464 -0.03497645 0.016455645 0.025290504 0.0056283395 -0.015868455 -0.04721114 -0.03328058
0.023216972 0.00047611017 0.011299966 -0.02549724 -0.0024021855 -0.0043389993 -0.008928882 0.032068506
-0.005710111 -0.0026479037 0.0042237006 -0.01905563 0.025559092 0.016054016 0.046968393 0.003290412
-0.02732583 -0.02106088 -0.010546491 0.010633143 0.008948678 -0.033430513 -0.005866518 -0.11363049
-0.022865124 0.01991388 0.009687964 0.031334724 -0.006280528 -0.02675697 -0.0062745046 -0.084971935
-0.10539843 -0.13667883 0.008175978 0.002925844 -0.0101462295 0.05948401 0.005039492 -0.029660355
-0.086554304 -0.0023282361 -0.0011612293 0.019101921 -0.0027009002 0.022855887 0.03379634 0.0012743397
-0.011470869 0.065763995 0.06646714 0.000992755 0.072763264 0.049253784 0.049046535 -0.056572445
-0.06952865 -0.0057812342 -0.072102875 -0.072971225 -0.04393133 -0.085168585 -0.0050373157 -0.103389464
-0.013850778 -0.032445934 -0.050192233 0.007063443 0.0036460282 0.04143332 0.004238587 0.083297186
0.042901494 0.10394972 -0.029353488 0.028599333 -0.00031961215 -0.0020284203 -0.08257061 0.05781464
00000000: 784e 4e3a 0909 403d 7d6a 453c 795d 3c3d
00000010: 8d06 c6bc 6fa1 56bc 82db 0dbd 4c96 20bd
00000020: 9f80 97bd c35c 81bd 09f6 3fbd 00e4 f63a
00000030: 1a42 e6bc feee a7bc 4c8b 7c3c 3913 1ebd
00000040: b2c6 2ebd 018b fcbc 58e0 e7bc fc46 66ba
00000050: bc2a 09bc 4643 c43c aebf 2dbd eabb 90bc
00000060: 196d 99bd 0866 3f3d 7a05 b53c abb9 ba3c
00000070: 3d54 da3c 94e3 783d 38b7 55bc 0e3a b7bc
00000080: e31f 9dbc e154 aebc a816 73bd f4dc 43bd
00000090: 710f efbb d46e 3dbd 1a8d 02bd 89b4 66bd
000000a0: ede9 e43b 972d 20bc 3105 1cbd cbf5 983a
000000b0: f34b e0bb ed24 d03c 6670 f43c c5d6 283d
000000c0: 2271 be3c 915e 6b3d 4dc7 b43c b1dc 6d3c
000000d0: db81 55bc ffb1 9f3c 506d 2ebc 8c09 bc3c
000000e0: 0e8c ca3c 2d90 aebd 2a17 fabc 30c4 c1bc
000000f0: 20f8 783d af91 dc3c 5abd 8b3d f0df fc3d
00000100: 840f 44bd 04ad c5bd 7dd5 89bd 9058 4d3d
00000110: d441 c0bc ea38 803c ce76 a8ba 9cd6 933c
00000120: e5d5 023d 25c0 58bd 7699 623b 000f 7d3c
00000130: 96ed df3c 55c6 873d 89c0 033d 69b9 303d
00000140: 0663 683c 1aef 3cbb ac82 8ebc 5fc9 e53c
00000150: 2b95 86bc 894f aebd e64a a7bc 34f6 80bd
00000160: ddf9 7bbd c6c9 9fbd a94b e73a 0671 fdbc
00000170: 1050 e5bc 5a7c a0ba ca13 45bd a365 d13b
00000180: 5760 5b3b aad1 e33c 8a56 0d3d d0ca 4c3d
00000190: e73c 76bc 811a 18bd 8c9e fbbc df15 ab3b
000001a0: 609e d1bc 0db6 8bbc 803b 86bc bf50 1abd
000001b0: ec62 bfbd 76b7 d1bd 5f2b 8c3c 8d28 0abc
000001c0: 913b 83bc b23a 693d 6fc2 70bc 905e 8fbd
000001d0: 16b8 adbd 2e5b 76bc 5d1e 29bc 6ce2 873c
000001e0: 1765 67bc ba4f 883b d28e de3a 49b3 143c
000001f0: e497 29ba 8780 c1bc e849 053d b3aa 27bd
00000200: 7c41 aabc 70ad 503b 8b4d 4e3c af50 adbc
00000210: 938f babd 5625 1abd 4aa4 04bd b240 a8bd
00000220: 1bfd 63bd 5d58 20bd 56a6 ffbd 7f67 623b
00000230: eaf8 a73c 1602 8e3c 94a8 2bbd d8ac 77bd
00000240: 725c 7dbd 3f19 91bc a029 793a a645 30bd
00000250: 4879 02bd df0a 02be 48d7 aabc 97da 943c
00000260: 6556 3a3c 0da4 f6bb ce61 f0bc f220 fb3c
00000270: 7530 123d 91ae 00bc 12fa e13c b177 053d
00000280: 7922 773c 7f1a ce3c 88be 883c 8058 ef3c
00000290: ffb1 07bc 9494 7c3c 00eb 053c 6329 5e3a
000002a0: f286 d7bc 7743 0fbd fdcd 863c 082e cf3c
000002b0: ef6d b83b 90fe 81bc 7860 41bd 3851 08bd
000002c0: 8531 be3c 6d9e f939 7e23 393c 96df d0bc
000002d0: fc6d 1dbb 2a2e 8ebb 724a 12bc 445a 033d
000002e0: e21b bbbb 7488 2dbb f866 8a3b 8d1a 9cbc
000002f0: 4d61 d13c b683 833c ee61 403d f4a3 573b
00000300: 6bda dfbc de87 acbc 30cb 2cbc a236 2e3c
00000310: 7a9d 123c 6fee 08bd eb3b c0bb 1ab7 e8bd
00000320: a44f bbbc 6f22 a33c 44ba 1e3c d758 003d
00000330: e3cc cdbb 6f31 dbbc 5c9a cdbb c405 aebd
00000340: 22db d7bd 89f5 0bbe 8af4 053c 84bf 3f3b
00000350: 5f3c 26bc 81a5 733d 5322 a53b 46fa f2bc
00000360: 6243 b1bd 5295 18bb 6434 98ba a27b 9c3c
00000370: 9601 31bb 453c bb3c 086e 0a3d bf07 a73a
00000380: 50f0 3bbc 46af 863d ed1f 883d 551f 823a
00000390: e804 953d 56be 493d 05e5 483d 82b8 67bd
000003a0: 0965 8ebd 8270 bdbb acaa 93bd f071 95bd
000003b0: 57f1 33bd de6c aebd 1110 a5bb dbbd d3bd
000003c0: 60ee 62bc 07e6 04bd 5f96 4dbd 7474 e73b
000003d0: 34f2 6e3b fcb5 293d d8e3 8a3b b797 aa3d
000003e0: 7ab9 2f3d 97e3 d43d ba76 f0bc 2649 ea3c
000003f0: 9e91 a7b9 3fef 04bb c81a a9bd 0bcf 6c3d

conv2.bias f4 [64]
-0.033557285 -0.00054082065 -0.036140777 -0.03180707 0.0067148367 0.009515394 0.010350829 -0.00700133
-0.0045749964 -0.039869767 0.017193882 -0.028172217 0.0042054867 -5.4158545e-07 -0.0028473916 -0.0065418016
0.0072858045 -0.02625283 -0.02185289 0.02219665 -0.013574939 0.024047397 0.03504749 0.010926123
0.039610848 -0.0023334546 -0.009608266 -0.011959602 -0.009682978 0.007353292 -0.03323003 0.0010195284
-0.036987916 0.004580367 -0.00095519 0.00010272394 -0.027803889 0.018296711 -0.0058262744 0.049422037
0.018990753 0.027625557 -0.012233051 -0.0032498965 0.003217523 -0.00012748242 0.024983987 -0.017659163
-0.016608 -0.00674548 -0.019448573 -0.003957027 0.021750618 -0.0006180107 -0.011675369 -0.0058801332
0.0035367005 0.016520685 0.0017805485 0.0068503344 -0.0054426873 -0.009785502 -0.011497481 -8.9504174e-05
00000000: 5d73 09bd dcc5 0dba 5a08 14bd 2148 02bd
00000010: 2208 dc3b 75e6 1b3c 8696 293c 6a6b e5bb
00000020: dae9 95bb 7b4e 23bd 2fda 8c3c 6cc9 e6bc
00000030: 2ece 893b 7861 11b5 4e9b 3abb 9c5c d6bb
00000040: c2bd ee3b 2d10 d7bc d504 b3bc c0d5 b53c
00000050: 6c69 5ebc 0cff c43c f58d 0f3d 7b03 333c
00000060: fc3e 223d dfec 18bb fd6b 1dbc 35f2 43bc
00000070: 5aa5 1ebc e2f3 f03b 361c 08bd b2a1 853a
00000080: a480 17bd e716 963b b765 7aba 7f6d d738
00000090: fbc4 e3bc fce2 953c 55ea bebb c36e 4a3d
000000a0: 7f92 9b3c fe4e e23c 226d 48bc 37fc 54bb
000000b0: 14dd 523b cdac 05b9 38ab cc3c f3a9 90bc
000000c0: 800d 88bc 3009 ddbb 9d52 9fbc f3a9 81bb
000000d0: 5a2e b23c ff01 22ba 0c4a 3fbc 22ae c0bb
000000e0: fdc7 673b 6356 873c 4b61 e93a c578 e03b
000000f0: 9258 b2bb 5f53 20bc ee5f 3cbc 30b4 bbb8

conv3.weight f4 [8, 64, 5, 5]
9.959827e-10 -2.3883217e-08 4.8696554e-11 -7.2256086e-07 2.2128138e-21 -4.809466e-09 -4.0456914e-08 -2.3195308e-09
1.3678704e-07 7.263576e-21 3.5555402e-08 1.4293161e-07 1.5461756e-05 -0.00034452628 3.2607917e-05 4.049816e-08
2.250978e-08 8.846436e-06 6.1679166e-05 -1.5689726e-05 8.3053346e-22 -5.991233e-22 5.3505637e-06 -2.3279385e-06
2.3810348e-06 0.0017036011 7.4079544e-05 -0.00023265967 -1.3758717e-05 4.5020235e-10 -2.9953178e-06 -1.0410963e-05
5.5595233e-11 2.610861e-07 7.355282e-21 0.001792034 -2.1867096e-05 -0.00050831557 -0.0015307764 3.791959e-05
-2.5486903e-05 6.426999e-08 -4.0501567e-05 -3.77375e-05 7.4425884e-06 -5.5935947e-15 -8.2523576e-19 -4.436956e-07
-2.0975608e-06 7.323819e-06 -3.8822538e-05 -0.00069643935 -0.0010801742 0.00042048332 -1.4873182e-06 0.0011544579
0.0014344596 -0.00015611733 0.00013718422 4.6746297e-08 -0.00014016607 0.0004937014 0.00060386054 0.0007196367
-5.4479275e-05 0.0007922247 -0.00045535312 -0.007243814 0.0011735435 -8.049539e-05 -0.0021786862 0.00025775275
-0.0024529349 -0.0031633894 -1.3256806e-05 -3.604472e-05 -6.0324608e-05 -0.00055496325 -8.8248635e-05 5.377419e-17
0.0006785156 8.792456e-05 -0.00040069898 -6.5834315e-06 -2.6751637e-13 -3.4141212e-05 -2.343349e-05 -0.00010210249
-1.3506398e-07 -4.2422016e-05 8.850507e-06 -4.7437217e-05 0.0022153298 0.000107707834 -0.000103503015 -0.00043318933
-0.0007723135 -0.0031149718 0.0006732726 4.0920786e-06 -0.000117425945 1.5560272e-06 1.8182955e-05 1.0613338e-08
6.512158e-17 4.7684683e-11 5.5774507e-08 -8.223049e-16 2.7726813e-08 -2.8144332e-20 0.0001550583 -5.7126454e-06
-0.00033531734 -8.473452e-05 5.927252e-06 7.661608e-08 3.9654587e-08 0.00012598967 4.798553e-05 -6.705248e-06
-1.5100137e-16 6.573148e-21 0.00014114247 0.00014839607 -7.547566e-06 -0.00033464681 -0.00022528683 6.8599715e-05
0.0001653019 1.712016e-12 -8.279104e-05 0.00017309295 1.4371946e-05 7.3236583e-07 1.3348654e-12 2.2085924e-05
2.2252636e-05 -0.0028470997 0.0016756307 -3.9981576e-05 -0.00023111133 9.383645e-08 -0.00025922706 -0.0008801182
-7.143744e-06 -4.1420473e-05 -8.3270956e-05 -0.00016147755 0.00038660312 -4.06486e-06 -0.0006496692 9.0359445e-06
-2.1732989e-05 0.00021097573 -1.87481e-16 1.0456926e-07 -3.4739017e-08 6.7817246e-06 1.2665204e-05 1.5659634e-20
0.0008420032 -0.0004507718 -0.00012702776 -2.0386478e-05 -3.430301e-05 -3.8567505e-05 2.474915e-08 -2.4996996e-06
-6.130387e-05 -1.9745135e-06 -3.5123216e-07 5.2100205e-08 -5.9645416e-05 -0.000111480476 3.5043835e-05 2.0524342e-09
2.4206866e-08 2.429479e-08 5.2681507e-08 -6.2581476e-21 8.5882434e-10 1.6670891e-09 1.6716031e-09 -6.055888e-09
-1.1460218e-22 1.2830774e-08 2.0690245e-09 6.5584885e-05 3.8849466e-05 0.00016414732 -1.1404701e-08 1.5766624e-13
4.7032576e-05 -2.4629786e-05 1.7972208e-05 -1.1124413e-19 1.6516834e-19 3.0377923e-05 5.7959387e-05 0.00025290792
-5.680139e-05 4.730134e-08 -2.9546368e-07 0.0002164475 5.8511356e-22 3.2206037e-05 1.18032135e-08 -2.1699846e-07
0.00011290599 -2.4690391e-20 -4.0364835e-08 8.266237e-08 1.6864675e-05 -0.00047285584 4.012827e-05 -3.224808e-08
2.1706439e-05 7.917296e-06 -0.00017201158 6.111197e-05 -3.2458238e-09 -1.5026511e-16 7.1725203e-06 -0.00011820995
0.00019171879 0.0004030516 -4.49826e-06 -5.794604e-06 1.5815995e-07 -1.4568638e-16 0.0010915035 0.00025635716
-1.0370705e-06 4.4187396e-05 -7.0718573e-09 0.0003801766 -3.0890722e-05 3.6004127e-05 -2.8682362e-05 -9.07937e-06
0.00017910209 -5.5728353e-05 -0.0015014029 -0.0017853491 -2.2549144e-05 5.718136e-05 2.6128411e-05 -0.00020744972
-0.00088613335 0.000115565854 -2.4473595e-05 8.786222e-05 -8.4811643e-07 -3.2469409e-06 2.733935e-14 0.000829617
00000000: 07e3 8830 c027 cdb2 722b 562e 01f6 41b5
00000010: 0b32 271d 8340 a5b1 d9c2 2db3 9e65 1fb1
00000020: bcdf 1234 8034 091e 94b5 1833 be78 1934
00000030: deb3 8137 89a1 b4b9 7cc4 0838 33f0 2d33
00000040: 885b c132 276b 1437 c059 8138 6e9d 83b7
00000050: 6a03 7b1c ec12 359c fe88 b336 ae39 1cb6
00000060: dec9 1f36 5e4b df3a 275b 9b38 1bf6 73b9
00000070: 3dd5 66b7 5980 f72f 2b03 49b6 bfaa 2eb7
00000080: ab82 742e 662b 8c34 f6ef 0a1e afe2 ea3a
00000090: 3b6f b7b7 7b40 05ba 55a4 c8ba da0b 1f38
000000a0: b5cc d5b7 cd04 8a33 3ae0 29b8 5548 1eb8
000000b0: 59bb f936 ce87 c9a7 0d91 73a1 0f35 eeb4
000000c0: d2c3 0cb6 20bf f536 62d5 22b8 4191 36ba
000000d0: a294 8dba 5174 dc39 dd9f c7b5 2e51 973a
000000e0: 7a04 bc3a 6db3 23b9 1cd9 0f39 19c6 4833
000000f0: 8bf9 12b9 bd6b 013a 654c 1e3a 00a6 3c3a
00000100: ad80 64b8 4dad 4f3a 76bc eeb9 845d edbb
00000110: 96d1 993a a2cf a8b8 4ac8 0ebb fd22 8739
00000120: 6bc1 20bb de50 4fbb 8c69 5eb7 b92e 17b8
00000130: 0e05 7db8 f47a 11ba 2012 b9b8 5cfd 7724
00000140: 69de 313a 2464 b838 e814 d2b9 3fe7 dcb6
00000150: 2c99 96aa d932 0fb8 0993 c4b7 db1f d6b8
00000160: 1b06 11b4 4bee 31b8 a37c 1437 53f7 46b8
00000170: 112f 113b 34e1 e138 c20f d9b8 b01d e3b9
00000180: 1575 4aba 8e24 4cbb 8f7e 303a b04e 8936
00000190: 9342 f6b8 b0d8 d035 9987 9837 f455 3632
000001a0: ff28 9624 2eb8 512e b88c 6f33 6403 6da6
000001b0: e82b ee32 69e8 049f 2597 2239 40af bfb6
000001c0: 88cd afb9 80b3 b1b8 b5e2 c636 2388 a433
000001d0: ae50 2a33 181c 0439 1244 4938 a4fd e0b6
000001e0: bd17 2ea5 9653 f81d a5ff 1339 c49a 1b39
000001f0: 1941 fdb6 8973 afb9 f93a 6cb9 31dd 8f38
00000200: e454 2d39 e1f1 f02b 1aa0 adb8 4980 3539
00000210: 0a1f 7137 cc97 4435 98dd bb2b 2945 b937
00000220: 2cab ba37 6896 3abb d6a0 db3a e4b1 27b8
00000230: 7a56 72b9 2283 c933 dee8 87b9 bcb7 66ba
00000240: 4bb4 efb6 e5ba 2db8 c1a1 aeb8 4d52 29b9
00000250: feb0 ca39 e264 88b6 904e 2aba 1699 1737
00000260: 3d4f b6b7 5e39 5d39 a026 58a5 8f8f e033
00000270: f433 15b3 928e e336 a37c 5437 ace6 931e
00000280: e1b9 5c3a 9155 ecb9 c132 05b9 a103 abb7
00000290: 94e0 0fb8 8bc3 21b8 f597 d432 83c0 27b6
000002a0: 4490 80b8 e281 04b6 fb90 bcb4 c8c4 5f33
000002b0: c72b 7ab8 a0ca e9b8 08fc 1238 ce0a 0d31
000002c0: 76ef cf32 cfb0 d032 ee43 6233 176d ec9d
000002d0: 6412 6c30 7c1f e530 4ebe e530 2714 d0b1
000002e0: a88b 0a9b 576e 5c32 aa2e 0e31 9e8a 8938
000002f0: 4cf2 2238 f61e 2c39 68ee 43b2 3384 312a
00000300: d844 4538 109c ceb7 06c3 9637 7a55 03a0
00000310: 11ff 4220 18d4 fe37 6b19 7338 ba98 8439
00000320: 073e 6eb8 6028 4b33 38a0 9eb4 2ff6 6239
00000330: f8d6 301c f814 0738 15c7 4a32 1500 69b4
00000340: f1c7 ec38 b431 e99e 9b5d 2db3 1e84 b133
00000350: 9d78 8d37 a3e9 f7b9 674f 2838 2481 0ab3
00000360: 3916 b637 87d4 0437 025e 34b9 3d29 8038
00000370: 230d 5fb1 6f3e 2da5 7bab f036 7ce7 f7b8
00000380: 1f08 4939 ac50 d339 c2ef 96b6 456f c2b6
00000390: add2 2934 08f7 27a5 c810 8f3a ad67 8639
000003a0: 7931 8bb5 db55 3938 b7fc f2b1 7152 c739
000003b0: a990 01b8 2303 1738 e79a f0b7 9953 18b7
000003c0: 5acd 3b39 ddbd 69b8 b9ca c4ba 6002 eaba
000003d0: eb27 bdb7 05d6 6f38 562e db37 dc86 59b9
000003e0: 674b 68ba f25b f238 a54c cdb7 ac42 b838
000003f0: 1eaa 63b5 05e6 59b6 4040 f628 a87a 593a

conv3.bias f4 [8]
-0.0003511537 0.012153737 0.019739728 -6.4639054e-05 0.004121812 -0.004779146 0.03257484 -0.00086870644
00000000: 0d1b b8b9 7820 473c 36b5 a13c d48e 87b8
00000010: 4410 873b 629a 9cbb 326d 053d e7b9 63ba

fc1.weight f4 [8, 32]
-4.566225e-05 -6.048304e-06 -1.59392e-08 -9.5247685e-08 -0.25924033 -0.18564914 -0.23123439 0.11328291
0.1779883 0.057075605 0.051019453 -0.080542944 -6.0031607e-06 0.0048985975 7.832427e-05 0.024986817
-0.17903526 0.30047664 0.043913938 0.14394732 -0.002451009 0.0020818282 0.004124493 -0.002402332
-0.20792857 -0.12965183 -0.21949276 -0.010896476 0.14770195 0.09614903 0.052921545 0.03509726
-9.388398e-05 -2.1885481e-14 -1.8671403e-10 1.1494482e-05 -0.040460266 0.32154918 -0.01819862 0.24589954
-0.14071938 0.34486791 -0.14102696 -0.08289658 0.0037753326 -5.5574208e-05 -0.0002475658 0.014571533
-0.2827122 0.08360191 -0.08491473 0.030395605 -0.0009689024 0.001095518 -0.004174488 -0.006418621
-0.21756081 0.21655014 -0.21714467 0.003618761 -0.27896708 -0.33584076 -0.05487708 -0.14881073
0.00077074807 -0.007994971 2.8371713e-21 0.00079367735 0.08265513 0.045547593 -0.1424099 0.01253927
-0.14672373 -0.05875543 0.26316106 0.045089558 -0.0054560406 -0.00038448357 0.0002395186 0.003763895
-0.27527264 -0.26534218 -0.07511387 0.13697971 0.005733257 0.0015271978 0.008415359 0.00041838898
0.14236784 -0.2746479 0.27875638 -0.0199355 0.13402608 -0.05597721 0.27103376 0.02997953
-0.00079658296 -0.014333374 -5.3232967e-17 0.003583022 0.27561572 0.104937956 0.1163027 -0.22740635
-0.08693136 -0.11963438 -0.2193636 -0.003137411 0.0018248751 -0.00018452341 -0.0012820596 0.019297285
0.043113947 -0.095703796 0.33452758 0.042472262 -0.0114994785 -0.012708671 -0.010013622 -0.017007848
-0.11938329 -0.10105218 0.026643196 0.07743038 -0.17781103 0.26418135 -0.12074516 0.12290843
-0.00040296628 -0.0019561453 -2.476338e-13 -0.009732913 -0.15170713 -0.20841569 0.21274026 0.354068
-0.018813074 0.3274592 0.018230947 0.39611694 0.0027415773 -0.0028159022 -0.0012030938 -0.010796682
-0.109042816 0.053317364 0.15383862 -0.24419494 0.026584161 0.030897656 0.0073577254 0.035195224
0.0054548807 -0.065181814 -0.16486523 0.052344464 0.12682708 -0.037760537 -0.045191094 -0.01876082
-0.0029724855 -0.0076423916 -0.0008724143 -0.0001613307 0.061596815 0.11708548 -0.12432329 0.18557961
-0.061781038 0.10434771 -0.19157432 0.1336754 -5.314779e-05 0.00017025745 4.2199412e-05 0.0026210349
-0.02301445 0.33568716 0.08609792 -0.09137352 -0.0059241015 0.0005235486 0.014532073 0.012895189
-0.16676459 -0.013537281 0.3548828 -0.05746279 -0.0013676939 -0.12213373 -0.13846289 0.06875741
-0.0022552595 -0.089800656 4.59092e-19 0.020932503 -0.30624074 0.05007386 -0.015694419 -0.058863163
-0.11382535 -0.124482244 0.4767368 0.0963944 0.0028918842 0.00055695657 3.0623378e-06 0.0022593662
0.0942158 -0.12155259 0.015210106 0.05474256 0.014439523 0.0015826714 -0.0038760216 0.009968806
-0.2520491 0.35213086 -0.127442 -0.05729567 -0.1554011 0.16131142 0.15489572 -0.17410281
-0.0011263695 0.017738381 0.00015902979 2.8535035e-06 0.24624291 -0.20769647 0.23288345 -0.08838592
-0.050620466 0.12789643 -0.297801 0.04128367 -0.0015856837 6.8193655e-09 2.1278503e-07 0.0032460645
0.2483119 -0.10202246 0.026843121 -0.035045374 -0.023826016 -0.028497 -0.0067036343 -0.02341396
0.3333392 -0.21529694 -0.30184823 0.045582224 0.036923222 -0.20531145 0.12758175 -0.28154078
00000000: 7885 3fb8 89f2 cab6 acea 88b2 f88a ccb3
00000010: 26bb 84be cf1a 3ebe b5c8 6cbe df00 e83d
00000020: 9142 363e 1cc8 693d c6f9 503d b3f3 a4bd
00000030: c26e c9b6 6a84 a03b 0642 a438 27b1 cc3c
00000040: 0555 37be 13d8 993e 1adf 333d ed66 133e
00000050: 1ba1 20bb 486f 083b c126 873b 7170 1dbb
00000060: 3aeb 54be 73c3 04be b6c2 60be 2287 32bc
00000070: 2e3f 173e c8e9 c43d 43c4 583d 25c2 0f3d
00000080: 94e3 c4b8 7c20 c5a8 544b 4daf 6dd8 4037
00000090: aab9 25bd 18a2 a43e 4615 95bc 17cd 7b3e
000000a0: be18 10be 8792 b03e 5f69 10be afc5 a9bd
000000b0: 926b 773b 5a18 69b8 b8cb 81b9 70bd 6e3c
000000c0: a7bf 90be 7a37 ab3d c6e7 adbd 3400 f93c
000000d0: f0fd 7dba 7c97 8f3a 25ca 88bb 4c53 d2bb
000000e0: 43c8 5ebe 52bf 5d3e 2c5b 5ebe bc28 6d3b
000000f0: c6d4 8ebe 52f3 abbe cac6 60bd d761 18be
00000100: 070c 4a3a 57fd 02bc e05e 561d c90e 503a
00000110: 1847 a93d 1d90 3a3d e7d3 11be 8371 4d3c
00000120: bf3e 16be 89a9 70bd 0cbd 863e d4af 383d
00000130: 96c8 b2bb 8394 c9b9 4927 7b39 aeab 763b
00000140: 89f0 8cbe eeda 87be 4dd5 99bd 6944 0c3e
00000150: 0cde bb3b 412c c83a 93e0 093c 385b db39
00000160: e0c8 113e a69e 8cbe 28b9 8e3e c64f a3bc
00000170: 223e 093e 5c48 65bd f0c4 8a3e a297 f53c
00000180: c7d1 50ba 87d6 6abc 657e 75a4 22d1 6a3b
00000190: 811d 8d3e b6e9 d63d 1c30 ee3d 36dd 68be
000001a0: 1209 b2bd df02 f5bd daa0 60be 069d 4dbb
000001b0: a630 ef3a a07c 41b9 c80a a8ba 5715 9e3c
000001c0: 4098 303d 5a00 c4bd 3347 ab3e 65f7 2d3d
000001d0: 4f68 3cbc 0838 50bc 2d10 24bc 0b54 8bbc
000001e0: 3a7f f4bd 72f4 cebd d542 da3c d293 9e3d
000001f0: 1814 36be c742 873e 3d49 f7bd 6ab7 fb3d
00000200: 3845 d3b9 ac32 00bb cb67 8baa cc76 1fbc
00000210: 1d59 1bbe ec6a 55be 95d8 593e 6748 b53e
00000220: e01d 9abc bba8 a73e 1159 953c d7cf ca3e
00000230: 09ac 333b 008b 38bb 21b1 9dba 91e4 30bc
00000240: d751 dfbd 4f63 5a3d df87 1d3e 3d0e 7abe
00000250: 07c7 d93c 151d fd3c 1319 f13b de28 103d
00000260: dbbe b23b 0b7e 85bd 6ed2 28be 2667 563d
00000270: f5de 013e cbaa 1abd 4c1a 39bd 4bb0 99bc
00000280: 08ce 42bb 076d fabb bcb2 64ba e12a 29b9
00000290: f14c 7c3d 83ca ef3d 369d febd 9508 3e3e
000002a0: 1d0e 7dbd 41b4 d53d 0f2c 44be 34e2 083e
000002b0: 01eb 5eb8 2387 3239 46ff 3038 abc5 2b3b
000002c0: cd88 bcbc 30df ab3e 1b54 b03d 0a22 bbbd
000002d0: f71e c2bb c03e 093a ef17 6e3c 5846 533c
000002e0: 56c4 2abe 79cb 5dbc 33b3 b53e 1a5e 6bbd
000002f0: 3144 b3ba 4021 fabd 37c9 0dbe afd0 8c3d
00000300: facc 13bb 68e9 b7bd 0380 0721 a47a ab3c
00000310: 96cb 9cbe 3f1a 4d3d 9591 80bc 801a 71bd
00000320: 441d e9bd 8cf0 febd d916 f43e 6d6a c53d
00000330: c485 3d3b b900 123a 9082 4d36 e011 143b
00000340: 37f4 c03d 90f0 f8bd cf33 793c bc39 603d
00000350: c093 6c3c a471 cf3a da04 7ebb 3454 233c
00000360: 940c 81be 7f4a b43e 2880 02be ddae 6abd
00000370: 7721 1fbe d22e 253e fc9c 1e3e 0248 32be
00000380: b0a2 93ba 1550 913c 3cc1 2639 d17e 3f36
00000390: 1a27 7c3e 62ae 54be 0079 6e3e ad03 b5bd
000003a0: 6857 4fbd 48f7 023e 5f79 98be 1119 293d
000003b0: b7d6 cfba c64f ea31 e779 6434 edbb 543b
000003c0: 7a45 7e3e 27f1 d0bd 1be6 db3c bd8b 0fbd
000003d0: c72e c3bc 8a72 e9bc 29aa dbbb a2ce bfbc
000003e0: 70ab aa3e cd76 5cbe da8b 9abe 6db4 3a3d
000003f0: ce3c 173d 2a3d 52be caa4 023e 1d26 90be

fc1.bias f4 [8]
0.0014893446 -0.050905682 0.00020956536 -0.024467018 0.027218422 0.005707927 -0.006589897 0.047353618
00000000: 1d36 c33a 7a82 50bd c6be 5b39 0e6f c8bc
00000010: 2bf9 de3c 9009 bb3b 10f0 d7bb def5 413d
