checkpoints/source/epoch=21.checkpoint.pth.tar (torch, 167727 bytes, 8 tensors)

conv1.weight f4 [16, 3, 5, 5]
000000 ad f0 26 3e 31 ce e8 3d 44 00 a3 3c 12 87 41 be
       0.16302748 0.11367453 0.019897588 -0.18899181
000010 3c 39 22 3d e7 85 67 bd 1b 07 5c bc 16 99 46 be
       0.039605364 -0.056524184 -0.013429428 -0.19394335
000020 6d 8e 0c be 1a 89 b0 3d b2 fb d8 3b cf 1f be bd
       -0.13726206 0.086199 0.0066218013 -0.09283411
000030 49 44 00 be 10 b7 06 be 69 35 cc bd 37 92 05 3e
       -0.12526049 -0.1315577 -0.09971125 0.13044058
000040 d4 3d 48 3e 19 af 45 bc ec 01 9e bd b2 73 03 3b
       0.19554836 -0.012065672 -0.0771521 0.0020057973
000050 2f 34 3f 3c 46 87 1e 3e de c0 a5 3d 8d c3 da 3d
       0.011670156 0.1548129 0.08093427 0.106818296
000060 19 d6 ab 3d c3 8b f5 3d fd e6 5e 3d ce d7 48 3d
       0.08390445 0.11989548 0.054419506 0.049033932
000070 54 ad 88 bd f7 37 16 bb 1f dc cc 3b e6 98 36 3d
       -0.06673685 -0.0022921541 0.0062518264 0.04457941
000080 7a 19 38 be 38 71 14 be a9 96 16 bd 81 e9 14 3e
       -0.17978469 -0.14496315 -0.036764774 0.145422
000090 c5 ab b6 3c 9c a6 d7 bd 52 c9 98 bd 25 01 cd bd
       0.022298703 -0.10529825 -0.07460274 -0.10009984
0000a0 e3 a3 03 bd 07 48 19 3e f6 75 7e bd d0 9e ac bd
       -0.032138716 0.14968883 -0.062124215 -0.084287286
0000b0 9c b1 f1 bd c9 c8 56 3e 97 2c 10 bc af fe 10 bc
       -0.118014544 0.20975031 -0.008799694 -0.008849784
0000c0 96 9f 97 bd 8e c6 50 bd 6f 7f 1a 3d 72 a9 47 3d
       -0.074034855 -0.050970607 0.037719186 0.04874558
0000d0 8d 7d 92 bd bb 06 d7 3c ee 4f 70 bd 6b 79 c9 bc
       -0.07152853 0.026248327 -0.058669977 -0.02459403
0000e0 d8 49 cd bd e2 94 b4 bd b7 d7 bd bd 3a c0 b3 3c
       -0.1002385 -0.0881746 -0.0926966 0.021942247
0000f0 50 44 d4 3c 98 3f 00 3e 98 12 1f be d1 83 22 bb
       0.02591148 0.12524259 -0.15534437 -0.0024797807
000100 3a 19 4b 3d cf 35 0c 3e fd 49 72 3e 2c 64 10 3d
       0.049584605 0.13692401 0.23661037 0.03525178
000110 85 c4 9c bc 01 db 2d bd 2e dd 14 bc 1c da 2c 3e
       -0.019136677 -0.042445187 -0.0090859365 0.16880077
000120 3b 28 58 3c 08 d1 d2 3c 95 28 9d ba 8c b0 3c 3d
       0.013193185 0.02573444 -0.0011990244 0.046066806
000130 7f 26 6f 3d b3 18 3c bb 71 5f b8 bd 19 2d 17 bd
       0.058386322 -0.0028701245 -0.09002579 -0.036908243
000140 6b ce 0c 3d 51 72 b2 3c e8 89 b6 bc 08 2f 29 3c
       0.034376543 0.021783026 -0.022282556 0.0103261545
000150 6f d5 0b 3d 6f 3d 98 3d f2 4f c5 3d 8c 80 47 3d
       0.034139093 0.074335925 0.09634389 0.048706576
000160 5d 34 93 3d 55 76 e6 bb db eb 0a 3d cf d8 af 3d
       0.07187722 -0.0070331492 0.033916336 0.08586275
000170 31 96 bc bc 57 31 0a 3c 99 7d 66 3d ae 4a c0 3d
       -0.023020836 0.008434615 0.056272123 0.09389244
000180 e9 68 54 bd 4c 3c 94 3d a5 0c 93 3d ba bd 20 3b
       -0.051857863 0.07238063 0.07180146 0.0024527148
000190 33 42 61 3d f5 8a 70 3d e2 0b 8d 3d e4 0f 36 bc
       0.054994773 0.05872627 0.06887032 -0.011112187
0001a0 60 b7 54 bc 30 ab 83 3d 1e 36 53 3d ed 00 29 3d
       -0.012983173 0.06429136 0.051565282 0.04126065
0001b0 bc c1 33 3d 9a d6 80 3d f4 3c 5b 3d 91 69 24 3d
       0.04388593 0.06290932 0.053524926 0.04013974
0001c0 34 44 64 bc 29 6d 22 3d 07 f6 3c bc 67 1f c2 3d
       -0.0139322765 0.039654884 -0.011533267 0.09478646
0001d0 e6 7c b9 3d ee 78 61 3d 00 9e d3 3c 6a 90 ce 3c
       0.090570256 0.05504697 0.025832176 0.025215346
0001e0 bf f8 98 3d 39 a4 8b 3d 56 1f 6f 3d 77 7b 91 3d
       0.074693196 0.06818432 0.058379494 0.07103627
0001f0 fc 77 28 3d 76 f7 2d 3d bf d5 83 3d be 99 29 3d
       0.04113005 0.042472325 0.06437253 0.041406386
000200 1e 59 bb 3d 21 0e 1a 3d 60 77 d9 bc a2 16 36 bc
       0.09147857 0.03761113 -0.02654618 -0.0111137945
000210 80 d8 e9 3c 95 63 c8 3d 6f 90 1e 3d ee 62 9c 3d
       0.028545618 0.09784619 0.03871196 0.07636057
000220 44 56 c5 3d e4 29 42 3d 0c 62 fc bc 32 a2 3c 3d
       0.096355945 0.04740323 -0.030808471 0.04605312
000230 55 fd 7c 3d fe c0 d1 3d 27 0a bc 3c 40 6a 85 3d
       0.061765034 0.102418885 0.02295406 0.06514406
000240 93 90 01 bd 9e 72 e5 3d 0b fb f9 3d e4 f7 e1 3d
       -0.031632017 0.11203502 0.12206086 0.110336095
000250 da da 56 3d 3d 38 c9 bb 68 b4 59 3d 78 47 e0 3d
       0.052454807 -0.0061407373 0.053150564 0.109511316
000260 1b cc 8b 3d 6e 9f 8b 3d 3f 2a 1c bd 2f 5d 0f 3e
       0.068260394 0.06817518 -0.038126227 0.1400039
000270 4a 9e 50 be 87 4a c3 bd 53 18 3e be 61 9e 6c bc
       -0.20372882 -0.09535699 -0.18563966 -0.014442057
000280 0d c6 6d be b5 c5 8c bd 78 10 a7 bd ba fe c6 bd
       -0.23220082 -0.06873647 -0.08157438 -0.09716554
000290 42 1a 0f bc 99 cf a9 bd 54 25 40 3c 1b 41 85 bd
       -0.008734288 -0.08291549 0.01172765 -0.065065585
0002a0 44 4c 91 bd 3e 6e 2c 3e d1 27 0c 3e d7 fe 31 3d
       -0.07094625 0.16838929 0.13687064 0.043455925
0002b0 d2 47 5a bd 62 61 1c 3e 7e c4 20 3e 1f 98 88 3e
       -0.05329115 0.15271524 0.15699956 0.2667856
0002c0 56 76 d5 3d 0c 4c 4f 3d a0 33 8b bd c9 1c 99 bc
       0.104229614 0.050609633 -0.06796956 -0.018690484
0002d0 86 4a 67 bd ee 45 09 be 72 6a 1b be 9a 0c 08 be
       -0.056467555 -0.13405582 -0.15177324 -0.13286057
0002e0 6b f2 f0 bd 03 7a 4d be 9c c6 73 be 83 86 96 bd
       -0.117649876 -0.20066075 -0.23806232 -0.07349875
0002f0 45 97 18 3c 24 be 98 bd ac a5 fa 3c 42 79 55 3d
       0.009313409 -0.074581414 0.030596577 0.052117594
000300 4e d9 22 3e ca a1 8e bc f1 96 0c 3e 73 dd 02 3c
       0.15903208 -0.017411131 0.13729455 0.007987368
000310 f2 39 5a bd 4f ca cc 3d e9 aa 05 3e 1d bf 50 3e
       -0.053277917 0.09999525 0.13053478 0.20385404
000320 c6 52 1a 3e b1 39 87 3e f9 8c 83 3a 51 22 9f bd
       0.15070638 0.26411203 0.001003652 -0.07770217
000330 a8 15 33 3c 0e a1 c8 3d 03 28 b9 3d 59 3d d6 bc
       0.010930456 0.09796344 0.09040835 -0.0261523
000340 40 88 1f be 26 ec 1f be 2f 67 f8 bd f7 8d 08 be
       -0.15579319 -0.15617427 -0.12129056 -0.13335405
000350 a2 45 92 bd 9e 49 14 bd f7 04 2f bd 2c 8f 56 be
       -0.07142188 -0.03620302 -0.042729344 -0.20953053
000360 7c 5f 05 bd 54 dd d4 3d 10 70 ae bd 39 1f 39 3e
       -0.032561764 0.103937775 -0.08517468 0.18078317
000370 48 53 72 3d 7a 40 1d b8 ca d0 1d 3e 3f d1 68 3e
       0.059161454 -3.7491765e-05 0.15411678 0.22736071
000380 de c9 bf 3d a2 dd 3a 3e 06 b7 e0 3d d4 21 90 3c
       0.09364675 0.18248609 0.10972409 0.017594256
000390 0b 19 e4 ba 5a 7f 46 bd 7f da e0 3d 56 74 7e 3e
       -0.0017402483 -0.048461296 0.10979175 0.24849066
0003a0 d8 b0 e9 3d cb 0f 90 bc 7b 42 58 be 56 2c 1f bc
       0.114106834 -0.017585656 -0.2111911 -0.00971516
0003b0 8e 81 f6 3d 1b 3f 0a 3e 50 c7 7c 3d 3e 2f 91 bd
       0.12036429 0.13500635 0.061713517 -0.07089089
0003c0 25 03 f4 bc 84 6f 01 3e 28 69 a8 3d 7d 65 a4 3d
       -0.029786656 0.12640196 0.08223182 0.0802717
0003d0 c9 57 14 be be 44 39 bc bc df 57 3d 03 b3 42 3e
       -0.14486612 -0.011307893 0.052703604 0.190136
0003e0 3b 53 da 3d 29 53 1c be 1a 89 05 3e 57 c2 08 3e
       0.10660406 -0.15266098 0.13040581 0.13355385
0003f0 f4 42 00 3e 15 6d 93 3d ed ff b4 bc 13 ed c9 3d
       0.1252554 0.0719854 -0.022094691 0.098596714

conv1.bias f4 [16]
000000 ec 82 3a 3d 4c 42 0a bd cd 7b a4 3c 5d 46 94 3d
       0.045535013 -0.033754632 0.020078564 0.07239983
000010 7d aa 80 3c ad 86 8d 3d ad 18 3b bd 88 27 3b 3d
       0.015706295 0.06910453 -0.04567783 0.045691997
000020 0a f7 ee 3c 3c 08 1a 3d 33 b1 b5 3c c4 05 c0 bc
       0.029170532 0.03760551 0.022179222 -0.02344025
000030 54 e9 24 3d 19 01 c2 3b 5d 3e c9 bc 52 71 20 bd
       0.04026158 0.005920541 -0.02456587 -0.03917057

conv2.weight f4 [64, 16, 5, 5]
000000 8a 32 de 3b 5a 9c 35 3d 11 80 95 3c fa 8d 3b 3d
       0.006780927 0.04433856 0.018249543 0.045789696
000010 eb c2 97 bc 81 58 e4 bb e3 8a e1 bc fd c7 f5 bc
       -0.018525561 -0.0069685583 -0.027532047 -0.030002588
000020 9b 5b 7d bd 03 d8 6e bd df 23 2a bd 25 c7 68 3b
       -0.06185494 -0.058311474 -0.041538116 0.003551909
000030 c0 95 09 bd e1 b2 5e bc cc 2a 82 3c 76 1f 2d bd
       -0.03359008 -0.013592453 0.015889548 -0.04226633
000040 f4 c5 1a bd 17 39 d4 bc 88 35 2d bc 10 e1 f1 b7
       -0.03778644 -0.025906129 -0.010571845 -2.8834242e-05
000050 05 c3 5b bc 9e 55 c7 3c cd 0d 07 bd a7 db 88 bc
       -0.0134131955 0.024332818 -0.032972146 -0.0167063
000060 47 85 6e bd c4 e9 3f 3d 8f 27 af 3c df 46 be 3c
       -0.058232572 0.046853796 0.021381168 0.023227153
000070 2c d9 ee 3c 3c 2e 82 3d 6e 4b 5a bc be bb 91 bc
       0.02915629 0.06356475 -0.013323648 -0.017789718
000080 15 2c 88 bc 94 6d d3 bc 91 35 68 bd 99 36 5a bd
       -0.016622582 -0.025809087 -0.05669171 -0.053274725
000090 9c ac 27 bc b0 d3 4d bd 5c b7 fe bc 97 d2 72 bd
       -0.010234024 -0.05025071 -0.031093292 -0.059282865
0000a0 a7 43 a2 3b d9 18 0a bc c3 5e 19 bd 82 ef ae 3b
       0.0049519124 -0.008428776 -0.037443887 0.00533861
0000b0 8d 37 de bb bd 03 bb 3c 73 a7 e9 3c 9c 12 30 3d
       -0.0067815245 0.022828931 0.028522229 0.042986497
0000c0 89 48 d0 3c 47 a6 74 3d 4d df cf 3c ee 4f b9 3c
       0.025425212 0.059728887 0.025375033 0.022621121
0000d0 3d f5 31 bc 71 c8 dd 3c eb f4 56 bc 3e 67 7e 3c
       -0.010861692 0.027073117 -0.013119916 0.015527545
0000e0 ee 89 e5 3c e4 0a a2 bd 34 88 b4 bc 65 5f 01 bc
       0.028019872 -0.079122335 -0.022037603 -0.007896279
0000f0 60 3f 6d 3d 78 f4 be 3c 4c f6 80 3d 1a 17 fe 3d
       0.057921767 0.023309931 0.062969774 0.1240675
000100 9b d3 2d bd c1 6d b0 bd 91 4b 6c bd 2e 8a 63 3d
       -0.04243813 -0.08614684 -0.057689253 0.0555517
000110 6e eb 37 bc 22 b4 b0 3c 6d 09 5e 3b be d9 77 3c
       -0.011225564 0.021570269 0.003388013 0.015127597
000120 e2 30 31 3d 8e cb 41 bd 15 ab 80 3b 8a ef 68 3c
       0.04325951 -0.047313266 0.0039266446 0.014217267
000130 c8 38 ee 3c 49 1f 83 3d 2d ba 1d 3d 64 11 23 3d
       0.02907981 0.064024515 0.03850763 0.039811507
000140 40 d5 78 3c 81 8b 36 ba 81 87 08 bc b2 0a e0 3c
       0.0151875615 -0.0006963537 -0.008333088 0.02734885
000150 65 4b 39 bc 69 e7 b7 bd ae 98 82 bc 26 18 6b bd
       -0.011309479 -0.08979685 -0.015941944 -0.057396077
000160 5a ab 7b bd a3 51 a6 bd d4 4f 84 bb 38 40 fc bc
       -0.06144271 -0.0812104 -0.0040378366 -0.03079234
000170 be a5 df bc f7 a9 d2 3b 9c a8 3e bd d5 9c ab 3b
       -0.027300712 0.006428953 -0.046547517 0.0052372017
000180 91 33 a3 3b 1d 2a e0 3c 3a cc 11 3d 04 6a 6e 3d
       0.0049805124 0.027363831 0.035595156 0.058206573
000190 27 85 1e bc c1 a1 1c bd 3f a5 ba bc a4 6f da 3b
       -0.009675301 -0.038240198 -0.022783874 0.0066661406
0001a0 22 19 bc bc 78 34 b8 bc 95 3a 67 bc 88 62 f3 bc
       -0.022961203 -0.022485957 -0.014113088 -0.02971007
0001b0 e6 79 a5 bd 78 ba ba bd 79 aa 6d 3c 3e ae a7 bb
       -0.08079891 -0.09117597 0.014505976 -0.005117207
0001c0 7e 7a a8 bc 88 86 58 3d 23 29 8b bc c5 ae 80 bd
       -0.020566221 0.052862674 -0.016987389 -0.06283335
0001d0 1e 01 97 bd 11 09 61 bc 89 f9 17 bb c3 f2 b2 3c
       -0.0737326 -0.013735072 -0.0023189506 0.021844273
0001e0 42 95 0d bb b8 12 32 3c b3 96 9f 3b b0 16 59 3c
       -0.0021603857 0.010868721 0.0048702597 0.013250038
0001f0 67 37 bb 3b 57 da 9e bc 86 e6 04 3d 94 33 2c bd
       0.0057133916 -0.019391222 0.032446407 -0.042041376
000200 48 da aa bc 64 b4 82 bb f1 7e 93 3c 0d e3 79 bc
       -0.020856038 -0.0039887894 0.018004866 -0.015251887
000210 cd 81 a9 bd 24 a8 c5 bc 24 16 de bc 72 82 96 bd
       -0.08276711 -0.024128027 -0.027110167 -0.07349099
000220 76 87 4c bd 31 58 07 bd c4 fa c7 bd 7a 70 21 bb
       -0.049933873 -0.03304309 -0.097646266 -0.0024633692
000230 7b 56 91 3c 81 9f 7b 3c a3 ec 1a bd 41 d7 3c bd
       0.017741432 0.015357853 -0.03782333 -0.04610372
000240 75 6d 61 bd d1 45 bf bc 6e bf 48 39 6c d7 23 bd
       -0.055036027 -0.02334872 0.000191448 -0.040000364
000250 e1 0a 0a bd 17 34 c7 bd 68 8d b9 bc 1d 92 81 3c
       -0.03370178 -0.09726732 -0.022650436 0.015816743
000260 84 51 4a 3c b2 96 9e bb 18 30 fb bc b9 31 02 3d
       0.012348536 -0.0048397416 -0.030662581 0.0317857
000270 20 29 18 3d 55 1e d4 ba d8 36 09 3d 96 31 01 3d
       0.037148595 -0.0016183356 0.03349957 0.03154143
000280 0e f1 a6 3c 50 3b dd 3c 8d c5 8b 3c ff ce 08 3d
       0.020378616 0.027005821 0.017061973 0.03340053
000290 0a 2d 4a bc 97 61 a4 3c 0e 56 db 3b 0b b5 96 ba
       -0.01233984 0.020066066 0.006693608 -0.0011498047
0002a0 6c e7 e3 bc 64 09 2d bd 70 17 8a 3c e0 76 b5 3c
       -0.027820311 -0.042245284 0.016856879 0.02215141
0002b0 31 72 c4 3b 54 5d ad bc f1 33 46 bd 7c 46 f1 bc
       0.005995058 -0.021162666 -0.04838938 -0.029452555
0002c0 11 7d 03 3d 44 dd 81 bb 9a 49 5a 3c b7 8d 2d bd
       0.032101694 -0.0039631445 0.013323212 -0.042371478
0002d0 4e d6 f3 3a 20 28 88 3a 4e 19 cd ba 4c b7 0a 3d
       0.0018603296 0.0010387935 -0.00156478 0.03386621
0002e0 24 62 0b bc f6 f3 a9 3b 25 0f 12 3c cf e2 68 bc
       -0.008507285 0.005186553 0.008914744 -0.014214232
0002f0 96 63 f2 3c 5f a5 61 3c 7b 32 40 3d 4c 42 e0 3a
       0.029588502 0.013772338 0.046923142 0.0017109602
000300 80 db ca bc 51 cf 5e bc ea 54 99 bc a2 7d ed 3b
       -0.024762869 -0.013599233 -0.018717248 0.0072476426
000310 29 3a 1f 3c a1 0b 16 bd 3c fd 2c bc 25 55 d9 bd
       0.009718456 -0.036632184 -0.010558423 -0.10611943
000320 97 1e ae bc 25 6e 88 3c 82 7a f5 3b 0b 00 e7 3c
       -0.02125482 0.016654084 0.0074914107 0.028198263
000330 ad 81 48 bb b5 c2 f1 bc 29 6d b5 bb 2b c6 8d bd
       -0.003059487 -0.029511789 -0.0055366945 -0.06922563
000340 7e b9 cd bd bb ac 09 be 14 d5 29 3b 1a c8 b4 3a
       -0.100451455 -0.13444798 0.0025914358 0.0013792545
000350 75 85 62 bc 62 d7 69 3d a0 f2 93 3b 17 e9 99 bc
       -0.013825764 0.05709017 0.004515007 -0.018787904
000360 52 a6 8d bd 5d 61 26 bb a3 70 89 3b f3 6b ac 3c
       -0.06916489 -0.0025387623 0.0041943355 0.021047568
000370 3b d6 da 3b 51 d3 b2 3c 9f b2 03 3d 67 28 3a 3c
       0.0066783703 0.02182928 0.03215277 0.011362172
000380 80 d5 b7 bb 94 b3 82 3d e5 bd 88 3d 94 8e bd 39
       -0.005610168 0.06381908 0.066768445 0.00036155118
000390 ae 4a 90 3d 50 c8 55 3d ea 09 5c 3d 9f be 50 bd
       0.07045494 0.052192986 0.053720392 -0.05096304
0003a0 38 78 8e bd 76 e8 0d bc 25 f3 83 bd a3 cd 9c bd
       -0.06956524 -0.00866138 -0.064428605 -0.076564096
0003b0 7b cf 42 bd d9 dc b2 bd ff 6d 7a bb 2f 58 d1 bd
       -0.04756115 -0.087335296 -0.0038212535 -0.10221898
0003c0 e1 ba 81 bc 2d 2c fa bc 33 78 4d bd a1 c5 18 3c
       -0.015836181 -0.030538643 -0.05016346 0.009324462
0003d0 30 cc c3 3b 08 78 21 3d a0 48 ab b8 fb 84 a8 3d
       0.005975269 0.03942111 -8.167443e-05 0.08228489
0003e0 35 10 3d 3d d0 82 d6 3d 66 32 d5 bc 81 7c c5 3c
       0.046158034 0.10474169 -0.026025008 0.02410722
0003f0 f8 f4 55 b6 70 31 2a bb 8b 73 9e bd 52 8a 72 3d
       -3.1882064e-06 -0.0025969408 -0.07736882 0.059213944

conv2.bias f4 [64]
000000 60 09 09 bd 92 f8 9d ba 5b 36 27 bd b6 8a 11 bd
       -0.033456206 -0.0012052229 -0.04082332 -0.035532676
000010 55 f6 07 3c 7c ed 24 3c 2f da 42 3c 94 c7 fa bb
       0.008298476 0.010066386 0.011892839 -0.007653186
000020 88 24 e8 ba a0 76 21 bd 47 44 92 3c a1 90 00 bd
       -0.0017711082 -0.03941977 0.017854823 -0.03138793
000030 02 b4 33 3b 5d 3d e8 b7 65 22 91 bb e6 3b 9d bb
       0.0027420525 -2.768513e-05 -0.004429149 -0.0047984
000040 51 cd df 3b 72 37 be bc a0 dc b4 bc 68 66 c3 3c
       0.0068298955 -0.023219798 -0.022077858 0.023852542
000050 83 c2 24 bc 2a ea af 3c 1d 75 e6 3c 67 77 ed 3b
       -0.010056141 0.021473963 0.028132016 0.0072469
000060 5c 77 17 3d 95 8f 80 bb 3d 61 f6 bb 25 7b 19 bc
       0.036979064 -0.0039233663 -0.007518916 -0.009367739
000070 af 53 fe b4 d8 0e 05 3c f7 78 21 bd 18 5c fc 3a
       -4.7372075e-07 0.008121215 -0.039422 0.001925352
000080 25 7b 05 bd 93 c0 c7 3b c3 0e 35 3b 00 74 4f 3a
       -0.032588143 0.0060959547 0.0027627207 0.00079137087
000090 e4 a5 d8 bc 3e 3a 80 3c 6a bc a2 bb 75 10 42 3d
       -0.02644629 0.015652772 -0.0049663084 0.047378976
0000a0 a5 22 9c 3c b5 98 e6 3c 4e 17 29 bc 68 cd a2 bb
       0.019059489 0.028148988 -0.010320498 -0.004968334
0000b0 06 0e 80 3b ed ce 59 ba f9 e7 d4 3c 17 19 96 bc
       0.0039079217 -0.00083087274 0.02598952 -0.01832251
0000c0 e2 b4 82 bc d3 25 fd bb d3 04 b5 bc 2e 1d ae bb
       -0.015955392 -0.0077254563 -0.022097027 -0.005313537
0000d0 b1 42 d0 3c b9 4d 44 bb 72 2a 8a bc 8b b0 07 bc
       0.025422426 -0.0029953553 -0.016865943 -0.008281837
0000e0 75 21 e8 3a 5d e8 83 3c 95 34 ac 3b 07 de a0 3b
       0.0017710166 0.01610201 0.0052552917 0.00490928
0000f0 28 9a 43 bc eb 85 6f b7 3a 46 07 bc 63 a0 ea b8
       -0.011938609 -1.427669e-05 -0.008256489 -0.00011187864

conv3.weight f4 [8, 64, 5, 5]
000000 21 c4 56 31 ed 7e e0 2e 9c c7 8c 2c 0f 4a f0 b6
       3.1252585e-09 1.0208887e-10 4.0012004e-12 -7.161179e-06
000010 e2 1d 21 24 3f 25 84 ad 4e 92 ba 2d 74 4c c1 24
       3.4936622e-17 -1.5023203e-11 2.1210724e-11 8.3829924e-17
000020 55 cd 8a 36 b0 00 57 a2 f0 1c 53 31 cf c5 6d b4
       4.1366243e-06 -2.9138297e-18 3.072099e-09 -2.2144307e-07
000030 bc 21 98 35 80 5c 8f ba b3 f0 20 b5 4f e7 2f a5
       1.13347e-06 -0.0010937601 -5.995491e-07 -1.5257201e-16
000040 70 61 d3 a2 4b 5e 39 b4 d0 fb 0a 3a b6 e2 b4 b8
       -5.729483e-18 -1.7263771e-07 0.0005301805 -8.625297e-05
000050 c9 86 30 a2 e0 19 c4 24 a3 a3 b2 b6 26 8e 75 b9
       -2.3923802e-18 8.5045284e-17 -5.323863e-06 -0.00023417975
000060 fa db 32 36 35 a0 85 3b e6 e0 6f 39 05 95 6f ba
       2.665211e-06 0.004077936 0.00022876597 -0.0009139332
000070 5a 60 b5 b8 ed b7 ee 33 65 21 15 b8 39 f0 d9 b8
       -8.6486994e-05 1.11161945e-07 -3.555547e-05 -0.00010392111
000080 42 bb d3 33 56 8c 46 37 41 e3 bf a3 af ef 8c 3b
       9.859515e-08 1.1834394e-05 -2.0804507e-17 0.0043010334
000090 a3 a8 5e b8 0e 54 87 ba 5a 39 61 bb 22 92 b5 38
       -5.308598e-05 -0.0010324733 -0.003436646 8.657972e-05
0000a0 7b 8e 4a b9 1f ff 61 b3 c8 83 fe 38 05 3e c3 38
       -0.000193173 -5.2618926e-08 0.0001213621 9.3098766e-05
0000b0 35 fa 95 35 c7 af b8 2d 81 4b e5 27 a8 8e df 35
       1.1174185e-06 2.0996439e-11 6.364213e-15 1.6656313e-06
0000c0 e3 14 e1 35 82 92 06 b6 7c c9 c2 b8 2d f5 fe ba
       1.6769885e-06 -2.0052835e-06 -9.28817e-05 -0.001945173
0000d0 6a b9 3c bb 64 41 99 3a 08 81 ed b7 f2 90 2d 3b
       -0.0028797039 0.0011692462 -2.8312686e-05 0.00264841
0000e0 ec 42 73 3b 64 97 0e ba 38 82 fd 39 22 5a e0 35
       0.0037118746 -0.0005439429 0.0004835294 1.6715533e-06
0000f0 5d 0b 44 ba 95 be ce 3a d8 72 9c 3a 49 4e ce 3a
       -0.00074785 0.0015773351 0.0011936082 0.0015739884
000100 b4 14 a0 b9 ad 6b ea 3a 4f 9e a7 ba 79 36 50 bc
       -0.00030533003 0.0017884873 -0.0012788269 -0.0127083
000110 1c 78 f4 3a 41 64 6f b9 62 bb b1 bb d8 21 3f 3a
       0.0018651518 -0.00022830164 -0.005423949 0.0007291115
000120 93 5d ae bb d7 c4 cf bb 92 b8 9c b8 e5 63 89 b9
       -0.0053212135 -0.006340604 -7.4730386e-05 -0.00026205103
000130 de 69 6c b9 c1 67 fc ba 27 74 ad b9 f5 20 73 2a
       -0.00022546152 -0.0019256995 -0.00033083672 2.159417e-13
000140 0e 56 05 3b c1 86 b4 39 bf 49 b0 ba 6d af 09 b8
       0.0020345482 0.00034432675 -0.0013449712 -3.2826723e-05
000150 ca 7f 48 b0 c9 19 71 b9 2c 70 5a b9 d7 30 47 ba
       -7.2941175e-10 -0.00022993157 -0.00020831887 -0.0007598525
000160 6a bb a3 39 c6 31 d3 b9 5b 36 85 38 9d 81 57 b9
       0.00031229417 -0.0004028214 6.352059e-05 -0.00020552283
000170 f5 cd 9b 3b c5 9c f8 39 93 7e 25 ba d4 29 96 ba
       0.0047547766 0.00047419048 -0.00063131115 -0.0011456558
000180 94 28 0a bb 2b cb e3 bb db 2c d5 3a 2a 19 c0 38
       -0.0021081315 -0.0069517097 0.0016263978 9.1599606e-05
000190 82 78 09 ba b3 d8 d2 37 a9 2f 11 39 73 a8 04 b7
       -0.00052440923 2.513486e-05 0.00013846032 -7.907033e-06
0001a0 5c 72 0f aa d3 d7 3a 33 1c 10 9a ad f8 fc a7 ab
       -1.2740628e-13 4.350279e-08 -1.7514927e-11 -1.1936277e-12
0001b0 eb 53 92 2e ae 93 11 25 f9 a1 43 3a 58 61 3a b8
       6.654218e-11 1.2626781e-16 0.00074627955 -4.4436514e-05
0001c0 9b 66 81 ba 20 1d 47 ba 53 92 b1 36 50 77 20 b4
       -0.0009872498 -0.00075955875 5.2920454e-06 -1.4944567e-07
0001d0 7a 4a a5 ad 78 39 6d b5 c0 20 2f 36 6c 36 f1 b5
       -1.8791402e-11 -8.837301e-07 2.6096095e-06 -1.7971738e-06
0001e0 3b 9a 96 ab 35 d0 15 24 6e 1e 29 b5 5f 02 39 b6
       -1.0700949e-12 3.2485583e-17 -6.3001687e-07 -2.7568528e-06
0001f0 89 b6 4b b5 00 a0 a7 ba 53 d0 8c ba 6b 40 b5 39
       -7.5889017e-07 -0.0012788773 -0.0010743238 0.00034571005
000200 57 ad 35 3a 24 dc ba 32 77 77 98 b9 4c 62 47 3a
       0.00069304317 2.1753358e-08 -0.00029080707 0.0007605895
000210 5a 12 e9 38 91 70 01 37 04 72 f8 b1 9e e2 0d 39
       0.00011113724 7.715208e-06 -7.230712e-09 0.0001353123
000220 85 f0 21 39 5d d4 d1 bb db f5 88 3b f1 17 9d b7
       0.00015443757 -0.0064034895 0.004179699 -1.8727007e-05
000230 2e 76 92 ba 01 6c 05 36 ee ec 86 ba 29 89 13 bb
       -0.0011174136 1.988141e-06 -0.0010293999 -0.0022512174
000240 20 81 88 b7 12 11 90 b9 e4 64 fe b9 f1 57 32 ba
       -1.6272592e-05 -0.0002747854 -0.00048521825 -0.00068032654
000250 4c bb 81 3a 09 70 da 35 a0 2d 15 bb 6d d6 cc 38
       0.0009897738 1.6274872e-06 -0.002276279 9.767418e-05
000260 48 01 28 b9 45 b0 43 3a eb c9 82 ab 9d e9 0d b3
       -0.00016022206 0.0007464926 -9.293099e-13 -3.304159e-08
000270 14 66 50 b6 14 b5 ca 38 41 5c fb 38 fb 1d da 22
       -3.1053833e-06 9.665839e-05 0.00011985796 5.912076e-18
000280 ff 5a 2c 3b b4 d7 f1 ba 3c f9 86 ba e0 9c a5 b8
       0.0026299355 -0.0018451125 -0.0010297666 -7.897033e-05
000290 78 13 69 37 fd 16 95 b9 b7 70 ef 35 b5 57 7d b8
       1.3892415e-05 -0.00028436622 1.7839692e-06 -6.0401584e-05
0002a0 0a 88 16 b7 3e fe d0 35 fb cc 1a b7 07 ff 45 36
       -8.972371e-06 1.5571202e-06 -9.226841e-06 2.9503733e-06
0002b0 2f ff bb b7 dd 38 39 b9 ef c0 ea 37 0a 8b 92 ae
       -2.2410966e-05 -0.00017664158 2.7984815e-05 -6.6640096e-11
0002c0 12 ab 9b 2e 76 b0 0a b4 67 66 60 b2 55 6d 06 24
       7.078972e-11 -1.2916448e-07 -1.30618e-08 2.9149226e-17
0002d0 fb 5d 01 b3 22 29 18 ae 86 4c 98 2a bf be 8b b5
       -3.0120628e-08 -3.4597332e-11 2.7053723e-13 -1.0411821e-06
0002e0 b9 af a2 a2 42 5e bf ad f3 47 f2 ae c7 1c ba b8
       -4.409624e-18 -2.1756045e-11 -1.10176666e-10 -8.874531e-05
0002f0 9f 7f ac b5 20 0e 5e b2 19 f8 f4 2a ef 16 6f b0
       -1.2852141e-06 -1.2925312e-08 4.351526e-13 -8.6980284e-10
000300 60 f4 9c b6 8d 65 ab b8 78 55 e5 b4 ef bc 46 a5
       -4.6776113e-06 -8.172831e-05 -4.271676e-07 -1.7237776e-16
000310 c6 8b c3 26 2d ac de 36 65 45 ca b6 03 e8 af 36
       1.3568729e-15 6.6361595e-06 -6.0281477e-06 5.242416e-06
000320 74 ba c3 b9 05 54 f1 b5 11 f8 1f b7 b2 f6 3c 3a
       -0.00037332217 -1.7980352e-06 -9.534896e-06 0.00072083913
000330 ea 7b 4a 22 f9 c0 67 39 34 93 8d 35 95 ac 70 b7
       2.7441704e-18 0.00022101765 1.054816e-06 -1.4345297e-05
000340 5f 11 2c 3a 52 0c 38 25 13 31 2a b6 7e 06 55 34
       0.0006563868 1.596363e-16 -2.536054e-06 1.9839533e-07
000350 f1 55 18 b8 ed fb 9c ba 04 c0 22 37 84 c2 35 b6
       -3.6319663e-05 -0.0011976935 9.70066e-06 -2.7084325e-06
000360 2d 6a 76 39 38 59 6f b7 d7 7f 74 ba 29 c6 8f b4
       0.00023499942 -1.4266283e-05 -0.0009326911 -2.6780006e-07
000370 29 61 17 b5 04 46 4a ab fc 83 f5 b7 cd 97 85 ba
       -5.639327e-07 -7.186198e-13 -2.9267736e-05 -0.0010192335
000380 6e e9 c5 b4 7b ff 86 3a e4 47 2e b8 74 87 b4 b8
       -3.6863952e-07 0.0010299528 -4.1551786e-05 -8.608299e-05
000390 04 92 fd 36 5a 75 84 ab 58 eb 40 3b 66 62 9f 3a
       7.556986e-06 -9.411736e-13 0.002943715 0.0012160062
0003a0 c0 e8 6f b7 63 96 94 39 c7 9a 21 b5 14 80 b8 3a
       -1.4299701e-05 0.00028340807 -6.0202404e-07 0.0014076256
0003b0 51 84 8a b9 54 ff c8 39 4d 51 ee b7 6d 70 a7 b9
       -0.00026419995 0.00038337207 -2.840967e-05 -0.00031936486
0003c0 84 f4 0d 3a 0c 28 bc b9 57 22 7d bb 42 59 71 bb
       0.0005415159 -0.00035887992 -0.0038625204 -0.0036826883
0003d0 04 ac db b9 71 0d 3c 39 c9 c4 11 39 c1 78 46 ba
       -0.00041899097 0.00017934084 0.00013901586 -0.00075710943
0003e0 f3 ef 08 bb c5 d2 f2 35 37 28 b1 b8 4e d9 f0 39
       -0.0020894974 1.8091747e-06 -8.447508e-05 0.00045938272
0003f0 6b e4 6f b7 00 71 47 b8 3c cb 2c 2e 40 43 2e 3b
       -1.4298693e-05 -4.7550537e-05 3.928878e-11 0.0026590377

conv3.bias f4 [8]
000000 99 db 86 ba 89 6f 32 3c e7 65 97 3c 1c e6 f1 ba
       -0.0010288834 0.01089085 0.018481208 -0.0018455419
000010 75 c3 05 3b d1 6d c6 bb e5 a1 f7 3c 70 2f ac 3a
       0.002041069 -0.0060555716 0.030228565 0.0013136696

fc1.weight f4 [8, 32]
000000 0a 6d 85 b9 20 ae 01 b9 f3 b3 49 b6 94 0e e2 b6
       -0.00025448977 -0.00012367265 -3.0056078e-06 -6.737022e-06
000010 4a 33 82 be c1 cb 31 be a7 a8 5d be e0 56 e2 3d
       -0.25429755 -0.17362882 -0.21646367 0.11051726
000020 93 42 2a 3e c3 6b 76 3d 48 8f 2c 3d a9 07 91 bd
       0.16626959 0.060161363 0.04212883 -0.07081539
000030 04 bc f6 ba 61 63 90 3c 81 0a 18 3a 6a 63 62 3d
       -0.0018824344 0.017625513 0.0005799905 0.05527059
000040 c0 26 2f be 04 6b 8f 3e c7 fb 60 3d 0d 0a 08 3e
       -0.17104626 0.28011334 0.054927614 0.13285084
000050 69 1d e5 3b d2 8a 20 3c 6f 89 66 3c a3 7d 70 3b
       0.0069920314 0.009798722 0.014070853 0.003669598
000060 27 61 49 be 18 fb f4 bd 60 f3 55 be ef 74 69 bc
       -0.19665967 -0.11961955 -0.20893621 -0.014249071
000070 76 15 07 3e ae 43 ab 3d e2 88 4d 3d 92 d3 e0 3c
       0.1319178 0.08362518 0.05017937 0.027444635
000080 a7 71 01 ba a6 56 0a 2c b1 b7 72 b4 03 02 3c 39
       -0.0004937895 1.965908e-12 -2.2604833e-07 0.00017929827
000090 4e 11 27 bd 87 ef 9d 3e e4 05 46 bc 49 18 80 3e
       -0.040787987 0.30846807 -0.012086365 0.25018528
0000a0 10 83 09 be 39 f3 ad 3e f7 8a 02 be 9a 61 85 bd
       -0.13428903 0.33974627 -0.12748323 -0.06512757
0000b0 f4 76 51 3c 0f 66 02 bb fd 93 37 bb b3 b2 05 3d
       0.012784708 -0.0019897257 -0.0028011792 0.032641124
0000c0 d8 21 8a be 67 a2 b7 3d de 9f b0 bd 96 38 dd 3c
       -0.26978946 0.08966523 -0.08624242 0.027004521
0000d0 b8 0c 98 bb e0 e1 6b bb d7 f6 81 bc 8d 10 83 bc
       -0.004640188 -0.0035992786 -0.015864773 -0.015999103
0000e0 38 74 59 be e3 93 48 3e 2d a0 52 be dd af e3 3c
       -0.2123574 0.19587664 -0.20568915 0.02779382
0000f0 0a 81 80 be 55 4e a8 be 34 1a 46 bd 5f e0 09 be
       -0.2509845 -0.32872263 -0.048364833 -0.13464497
000100 52 5e 47 3a ad c2 7e bc e1 a9 5a a7 e9 13 46 3b
       0.00076053024 -0.015549344 -3.034567e-15 0.003022427
000110 a7 a2 8d 3d 17 05 3e 3d 6b 19 0c be 2e b8 bc 3b
       0.06915789 0.046391573 -0.13681571 0.0057592606
000120 41 1f 0d be 49 73 60 bd 87 eb 84 3e 9b 1b 70 3d
       -0.13781454 -0.054797444 0.25960943 0.058620077
000130 27 1e 87 bc 8c 17 10 bb bb 89 8e 3b 74 09 4d 3c
       -0.01649387 -0.0021986691 0.004349915 0.012514461
000140 e7 26 86 be 4c 7e 72 be 64 76 74 bd 71 61 05 3e
       -0.26201555 -0.23680991 -0.05968322 0.13025452
000150 e8 9a a1 bb 86 3b ef bb 27 c9 fa 3b a3 2f 82 bb
       -0.0049317963 -0.007300797 0.0076533738 -0.003972964
000160 f1 9e 05 3e b6 d2 72 be a4 5f 88 3e 9e b3 36 3b
       0.13048913 -0.23713192 0.26635468 0.0027878056
000170 d2 1a fd 3d fd 6d 3b bd e5 7b 84 3e 0d 6e c9 3c
       0.12358631 -0.04575919 0.25875774 0.02458861
000180 e2 85 76 bb e8 f1 e3 bc c8 c6 bb 29 b6 78 3d 3c
       -0.0037616421 -0.02782531 8.338951e-14 0.011564424
000190 09 33 88 3e 1c 35 ca 3d 89 0a d5 3d a9 18 54 be
       0.26601437 0.09873411 0.104024 -0.20712532
0001a0 c4 eb ad bd ba 0c d6 bd 2b f8 42 be 02 43 f9 3b
       -0.08492234 -0.10451646 -0.19039981 0.007606865
0001b0 89 3d a8 3b 3f 6a 12 ba 79 05 e5 bb 55 32 0a 3d
       0.0051342887 -0.000558529 -0.006989178 0.033739407
0001c0 c8 84 19 3d d5 cf a6 bd 1c 53 a6 3e 59 1c 36 3d
       0.037480146 -0.081451096 0.32485282 0.04446063
0001d0 c5 94 88 bb 78 df 90 bb 40 48 8a bc 8c 62 30 bc
       -0.0041681253 -0.004421171 -0.016880155 -0.010765683
0001e0 ae 6a ef bd d7 8b c3 bd 42 68 c5 3c 6a 86 33 3d
       -0.116902694 -0.09548157 0.024097566 0.04382936
0001f0 1d 28 22 be 35 00 82 3e d7 a8 b0 bd e1 9c e6 3d
       -0.15835615 0.25390783 -0.08625954 0.11260391
000200 39 43 05 ba eb 1f 55 bb 26 51 c4 30 10 e6 c6 bc
       -0.00050835643 -0.0032520245 1.4283941e-09 -0.024279624
000210 7b 75 08 be 09 5f 43 be c4 a3 4f 3e 62 10 aa 3e
       -0.13326065 -0.19079222 0.20277315 0.33215624
000220 8c 1e aa bc db 3c a0 3e 41 07 4f 3c 5d 3a d2 3e
       -0.020766519 0.3129643 0.012636007 0.41060153
000230 83 b4 1c 3c 23 67 60 bc 2e d3 04 bc fc d7 a1 bc
       0.009564522 -0.013696465 -0.00810699 -0.01975631
000240 4d b3 d0 bd d6 65 66 3d ef 7a 0f 3e 60 c5 6a be
       -0.10190449 0.056249462 0.14011739 -0.22926855
000250 89 83 82 3c 21 43 97 3c af 2c b1 3c 2e 32 df 3c
       0.015931861 0.018464627 0.021627752 0.027245607
000260 40 bb 84 bb 34 da 61 bd cf 65 21 be ab 72 72 3d
       -0.0040506423 -0.055139735 -0.15761493 0.059191387
000270 66 c3 02 3e 6c 7d 3c bd f7 58 17 bd bc a5 0e bd
       0.12769851 -0.04601805 -0.036950078 -0.034826025
000280 4c fc 15 bc 40 88 52 bc 24 49 98 bb eb d3 90 ba
       -0.009154391 -0.012849867 -0.004647391 -0.0011049485
000290 f8 fe 7d 3d a2 ad e1 3d cf 74 dc bd ad c7 46 3e
       0.062010735 0.11019446 -0.10764467 0.19412108
0002a0 f0 7f 82 bd ce eb ec 3d 2d da 48 be d3 42 14 3e
       -0.063720584 0.11568414 -0.19614477 0.14478616
0002b0 c1 95 59 ba 62 dc ca 3a a7 95 e2 3a 73 31 14 3c
       -0.0008300208 0.0015477056 0.0017287032 0.009044993
0002c0 1e fb c4 bc 58 f7 a3 3e b7 2e a7 3d f8 c0 ad bd
       -0.024045523 0.32024646 0.08163207 -0.084840715
0002d0 fb 2f 64 bc b7 34 9a bb d9 c4 4d 3c c5 4e 0d 3c
       -0.013927455 -0.004705991 0.012559139 0.008624737
0002e0 3a cf 2a be 24 ba ab bc 59 67 aa 3e 65 fe 7a bd
       -0.16680613 -0.020962782 0.33281973 -0.061277766
0002f0 72 57 86 bb fd 63 df bd 0e 4c 00 be fc d1 42 3d
       -0.0040997798 -0.10907743 -0.12529013 0.047563538
000300 3b a3 e4 bb a2 6e 07 be d4 00 ca 26 cb ad 3b 3d
       -0.0069774664 -0.13225797 1.401679e-15 0.04582004
000310 78 2c 92 be d2 b0 2a 3d f9 f4 50 bc 23 87 5d bd
       -0.28549552 0.041672535 -0.0127537185 -0.054083955
000320 2c a4 df bd ee a7 e4 bd e6 ba e9 3e fa dc f0 3d
       -0.10919985 -0.111648425 0.45650405 0.11760898
000330 b3 8f 16 3c 9e 6f 35 3b 9d fd d1 3a 3c 4c 35 3c
       0.009189534 0.0027684937 0.0016021017 0.011065539
000340 bb 2d a3 3d 6f 57 03 be 1d ad 3e 3c 13 01 62 3d
       0.07967707 -0.12826322 0.011637953 0.055176806
000350 ae 2c 8b 3c f0 4f 89 ba e1 60 3c bc 2e 23 7e 3c
       0.016989078 -0.0010476094 -0.011497707 0.015511317
000360 6d 75 74 be 88 b4 a2 3e d2 91 ef bd c1 65 8b bc
       -0.2387292 0.3177836 -0.11697735 -0.017016293
000370 13 29 17 be cc 63 24 3e eb a0 1b 3e 85 db 08 be
       -0.14761762 0.16053694 0.15198104 -0.1336499
000380 b1 01 9c bb 36 28 fe 3c 1b 03 b5 3a 30 bb fb 37
       -0.004760944 0.031025033 0.001381013 3.0008698e-05
000390 fc c8 6a 3e 30 70 4b be 2b 0c 5c 3e 5e 56 9c bd
       0.22928232 -0.19867015 0.21489017 -0.07633661
0003a0 bb da 63 bd 85 19 00 3e a9 c8 8a be 0a 7c 01 3d
       -0.05562852 0.12509735 -0.27106217 0.031612433
0003b0 99 0a b4 bb af b2 8a 37 16 2e 0f 3a 93 6b 1d 3c
       -0.0054944274 1.6534088e-05 0.00054618844 0.009608167
0003c0 ed ff 6f 3e 40 b6 b5 bd 84 6f 2e 3d f9 ab f3 bc
       0.23437472 -0.08872652 0.04258682 -0.029745089
0003d0 a1 d4 51 bc ba 7a 73 bc ac 8f cb bb dd df 88 bc
       -0.012807042 -0.014860803 -0.0062121954 -0.016708309
0003e0 dc 75 a6 3e 0f 07 4f be b9 6a 92 be a0 c1 0c 3d
       0.32511795 -0.20217536 -0.28597048 0.034364343
0003f0 37 8f 04 3d 6a d9 47 be e3 73 dd 3d 3b 79 7a be
       0.032363143 -0.1951653 0.10813119 -0.24460308

fc1.bias f4 [8]
000000 8e 82 90 3b 11 e0 44 bd 32 88 0b 3b df 5b a7 bc
       0.0044100946 -0.04806525 0.0021290896 -0.02042955
000010 c6 e6 d0 3c 83 ff 2b ba a6 f5 02 bc cf 64 38 3d
       0.025500666 -0.00065612065 -0.007993137 0.045018014
