checkpoints/source/epoch=6.checkpoint.pth.tar (torch, 164133 bytes, 8 tensors)

conv1.weight f4 [16, 3, 5, 5]
00000000: 2ccf 343e 55fe 013e 75c5 813d 89bb 52be
00000010: c29f 793d 3156 f9bd b7ff bbbc eabf 34be
00000020: 6e8e aebd 34f3 183e ac58 14bd dde3 0bbe
00000030: e575 b2bd ce02 8dbd c69b 9bbd 1cf1 b53d
00000040: b0b2 303e 122f 2abc ab30 52bd b7e3 2a3d
00000050: 9a21 4dbd c798 fb3d 32f5 b03d a10e 1d3e
00000060: 246c f83d af26 f03d 8648 383d 33a4 d43d
00000070: d920 0bbd 3e71 1e3b 8121 0bbd 6771 713d
00000080: b63d 20be 93be c4bd 18de afbc 195d 1c3e
00000090: b2f4 a93c db68 74bd 944b 0d3c 75b0 9cbd
000000a0: 9ab1 ffbd 31a7 e53d df13 9ebd da3d 79bd
000000b0: 5dae f1bd 6f58 583e b8d1 babd b4e5 04bd
000000c0: 8ad1 afbd a3c0 6abd 7400 863b 8a1a 183d
000000d0: ca9e 83bd 6f32 c53d 7e51 9cbd 2803 9ebd
000000e0: eb11 15be dcd8 dfbc 1bc3 b9bc 2001 773d
000000f0: 0b53 23bc c0f9 243e 7aac 03be eff6 d83d
00000100: 99f7 003e 2e7e c73d b21b 683e 7436 583d
00000110: cf0f d63c 638d 8ebc 1856 9ebd e8a1 103e
00000120: 12b3 57bb ee6c 3d3d 7977 0d3c 5f5c 3f3d
00000130: 7761 623d f030 42bd 17dd 44be e8ef 81bd
00000140: ca58 0f3c 66ce aebc 54c1 d6bd 73d9 14bd
00000150: 7f96 6d3d 4f0c 653d d0d0 d13d 1a4e 993c
00000160: d15d 9f3d e053 0abd d83d 8cbd 5a48 7e3d
00000170: a988 0dbe 27e1 6ebd a7c5 fc3d 6fb5 763d
00000180: 6163 57be 98c1 7b3d 4696 ae3d f3ea 5e3c
00000190: 6b26 853d 243f 653d bd2f cb3d 6369 19bd
000001a0: 568c 6bbc 628c 943d 4a02 2d3d 4d23 e53c
000001b0: 3164 173d a329 f93d 2dc0 313c 5809 aabc
000001c0: 2535 e8bd 33b1 ac3b a22d 34bd fe16 823d
000001d0: 33cf 943d 3a7d c03c ffaf a4bc aaf1 573d
000001e0: 648c 8f3c c810 0f3d f4dd f93c 8200 ab3d
000001f0: 3399 d63d 482e 213d eb69 8a3d 3815 303d
00000200: 0305 2d3e 657d b63d 5552 f0bd 92e6 b7bd
00000210: 6859 4d3a acca 1e3e 4eb3 8b3d fa14 773d
00000220: a2de d13d 53f5 813c 04df 13be 2ef2 b33d
00000230: 693c 1cbc 6959 cb3d e6c1 38bd 5546 8c3d
00000240: a945 a0bd 4af1 ce3d 85be 1e3e de04 153e
00000250: 7acc 273d 246b dfbb 8867 f5bc 5b5d 473d
00000260: 6fae 273d ec9a 993d d124 66bd aff6 173e
00000270: f2c9 73be f44c 80bd 509b 17be 04e8 2b3d
00000280: d0f1 59be 1ca4 1bbc c3ae d2bc 4e35 53bd
00000290: 2dc3 a53c 3e03 91bd 5e0f 833c 0c62 bbbd
000002a0: 8588 febd 9c00 1e3e db51 143e 342d be3c
000002b0: 4a17 e3bd d245 eb3d 7264 fd3d 0dd7 653e
000002c0: 8880 2d3d 7c27 a13c c699 b6bd b95f 06bd
000002d0: 4341 b5bd 7bec 1dbe c367 05be 48dd adbd
000002e0: 6cba a6bd 582f 33be 8ef1 58be 85f4 83bc
000002f0: 5106 9a3d 207f 6dbd 9e7c 823d d2af 823d
00000300: 5ab4 303e 7995 7cbd 7201 f23d 5df0 d9bb
00000310: cee1 b8bd 53d8 8a3d 6bbe b63d 63e4 353e
00000320: 182c b03d af79 6f3e c919 24bd 42a1 cebd
00000330: b27c 393b 031c c83d 70ed ed3d 0ab3 a53c
00000340: a20c e6bd 9398 02be d171 a3bd e06f b1bd
00000350: 606c 5fbc 7d81 ac3c 81ff a4bc c32b 62be
00000360: 9f39 15bd fc6f dc3d aa4b 10be 8ac0 2c3e
00000370: 6b18 5b3d 9cfd e3bc 8c21 063e a414 4e3e
00000380: fb76 503d 2ead 3a3e 7dbe 5d3d 4871 75bd
00000390: b36b d3bc 592c b63b 67f2 853d 035a 693e
000003a0: 0ea8 233d 5530 58bd 7223 43be a104 97bd
000003b0: 8d87 423d b01f 6f3d 7bad 553d 9ad7 013d
000003c0: 4a9f 7fbd 6b97 8a3d 9c19 32bb 0e2d a43d
000003d0: 93e6 abbd 5367 2f3c 025b 38bb 8421 353e
000003e0: cd0b 183e 1473 9bbd 9022 db3d a387 b33d
000003f0: e3e4 bb3d 2980 a53d 6d23 353d 99f8 483d
0.17657155 0.12694676 0.0633649 -0.20579351 0.060943373 -0.12174643 -0.022949083 -0.17651334
-0.0852326 0.14936525 -0.036217377 -0.13661142 -0.08713893 -0.068853006 -0.07598071 0.088838786
0.17255664 -0.010387199 -0.051315945 0.041721072 -0.050080873 0.12284999 0.08640517 0.15337612
0.12130001 0.11726128 0.04499104 0.10382881 -0.033966873 0.0024176384 -0.0339675 0.05894604
-0.15648541 -0.09606662 -0.021468207 0.15269889 0.020746563 -0.05967031 0.008623976 -0.07650844
-0.12485047 0.1121353 -0.07718634 -0.060850002 -0.11800835 0.21127485 -0.09122032 -0.032445624
-0.08584888 -0.05731262 0.0040894095 0.037134685 -0.06426771 0.0962876 -0.07632731 -0.07715446
-0.14557616 -0.027325086 -0.022676041 0.060303807 -0.009968529 0.16110897 -0.12858763 0.10593974
0.12594451 0.09740864 0.22666815 0.052786306 0.026130585 -0.017401403 -0.07731265 0.14124262
-0.003291313 0.04624646 0.0086344415 0.04671895 0.05526873 -0.04740995 -0.19224964 -0.063445866
0.008749196 -0.021338653 -0.10486093 -0.03634019 0.058004852 0.05591994 0.10244906 0.018714
0.07781566 -0.033771396 -0.06847733 0.06208072 -0.13821663 -0.05832019 0.12342387 0.060231622
-0.21034004 0.061463922 0.08524756 0.013605821 0.06501468 0.05596842 0.09921215 -0.03745402
-0.01437672 0.072533384 0.04223851 0.027970934 0.036960784 0.12166145 0.010849041 -0.020756409
-0.113382615 0.005270147 -0.04398883 0.06352042 0.072660826 0.023497213 -0.020103453 0.052720703
0.017522998 0.034928113 0.030501343 0.08349706 0.10478439 0.039350778 0.067584835 0.042988986
0.16896443 0.08910636 -0.117344536 -0.08979525 0.0007833452 0.15507 0.06821309 0.06032274
0.10247542 0.01586405 -0.14440542 0.087864265 -0.009535887 0.09929163 -0.04510679 0.06849352
-0.078257866 0.10104616 0.15502365 0.14552638 0.04096649 -0.006818192 -0.029956594 0.048673015
0.040937837 0.07500252 -0.056187455 0.14840196 -0.23807505 -0.06264678 -0.14805341 0.041969314
-0.2128365 -0.009499576 -0.025718099 -0.051564507 0.020234669 -0.070806965 0.015998539 -0.0914956
-0.12428383 0.1542992 0.1448435 0.023214914 -0.110884264 0.114879265 0.12372674 0.22445317
0.042358905 0.019672148 -0.08916049 -0.032806132 -0.08850338 -0.15422241 -0.13027863 -0.08489472
-0.08141026 -0.17498529 -0.21185896 -0.016107807 0.07520736 -0.057982564 0.06371425 0.06381191
0.17256299 -0.061665986 0.11816682 -0.006650968 -0.09027444 0.06779542 0.08923038 0.17762904
0.0860216 0.23386262 -0.040063653 -0.10089351 0.0028303084 0.09770968 0.11617553 0.020226974
-0.11232878 -0.12753515 -0.07980693 -0.086639166 -0.013636678 0.021057839 -0.020141365 -0.22087006
-0.036431905 0.10763547 -0.14091364 0.16870323 0.053490084 -0.027830891 0.13098735 0.20125061
0.05089472 0.18230125 0.054136742 -0.059922487 -0.02580819 0.005559486 0.06540375 0.22788243
0.03995519 -0.052780468 -0.1905649 -0.0737393 0.047492553 0.05837983 0.052167397 0.031699754
-0.06240777 0.06767162 -0.002717591 0.08016406 -0.08393588 0.010705787 -0.0028130417 0.17688566
0.14848252 -0.07590309 0.10699952 0.08766105 0.09174516 0.08081085 0.044223238 0.049065206

conv1.bias f4 [16]
00000000: 3a3e 7e3c d8f9 573b 593b da3c c649 543c
00000010: b57c 073c 612f 103d dd59 05bb c8b3 9d3c
00000020: dd3a c4bb 4a00 993b d6db 573c 98b1 8dbb
00000030: 0da6 0b3d 2c3b 813c 8c77 7c3b ce04 08bd
0.015517766 0.0032955315 0.026639627 0.012957042 0.008269479 0.035201434 -0.0020347752 0.019250765
-0.0059884624 0.004669224 0.013174972 -0.0043241493 0.034093905 0.015775286 0.0038523404 -0.033207707

conv2.weight f4 [64, 16, 5, 5]
00000000: d925 c23c b372 b23c 4701 133d 35c1 863d
00000010: ade0 893c 662b 5a3c 7cfb 01bb 9c52 a53c
00000020: c7c7 75bc 6e8f 12bd da0b 97bc 0dbe 043d
00000030: 678b 03bd d3ac 60bc 6d69 b53c e797 dfbc
00000040: 79a1 2fbc c8fa 7e3c 0052 323d bcce c33c
00000050: 7458 acbb e3ff 1f3c 73c5 2e3b 5b4f 82bb
00000060: 7c53 30bd e9e9 f53c 0efe a03a fb7b 733c
00000070: de09 283c 6881 453d c035 14bd 0848 b2bb
00000080: b542 4dbb 1f61 56bd d5ba 79bd 14bd 1abd
00000090: f6c6 d3bb 50c1 52bd ce50 d13b f71f 7abd
000000a0: d39f fb3b 7a92 20bc 9981 21bd 1fe4 8a3c
000000b0: 68fd 87bc 80aa c6bb 6ad4 673c 00e3 e73c
000000c0: c1b9 32ba 72c7 023d 067c 46bc 0783 0d3a
000000d0: 1ce4 85bc 25d1 303c 5f23 303c bfa3 773c
000000e0: fbf3 a13c 7a69 a0bc 93b3 1ebc 6747 043d
000000f0: 2f97 65bc 6951 12bc cb9b fd3c 34b7 bc3d
00000100: b273 11bd d487 19bd 60eb a43b fc43 463d
00000110: 00e3 ee3c ee31 4e3c 326c c63b a049 0dbb
00000120: c0a9 8a3d 58e4 0cbd 62e9 f83b 52d7 8dbc
00000130: fa94 673c 75a1 2e3d 2ed3 b73c 67d5 52bb
00000140: 7fc3 09ba aa52 29bb e1d4 003d f9de 203c
00000150: 9905 9dba 9b6d 89bd 4434 8f38 4644 4abc
00000160: a924 1bbd 61ca 82bd 9d16 82bc 81da 24bd
00000170: 6e72 b9bc e1eb 3b3d 094e 32bd 5f1b 47bc
00000180: 1510 7d3b 1c7f 3a3c 18c4 003d 062a 433d
00000190: 4667 c5bb 043c b4bc 371c 4ebc b3b7 5d3c
000001a0: 02a4 e1ba 6eca d4bc 54e9 94bc 6afd f83b
000001b0: 5b48 2fbc e047 6fbb 2c7d c7bb e484 19bc
000001c0: 2346 50bb 1df7 48bc cc78 f7bc 5f9a 2ebd
000001d0: 04ad 9bbb c4aa bf3c 70e8 083a 889f f63c
000001e0: fe1e 423c c888 0f3c 59e0 f1bb 3bc3 ca3b
000001f0: bc4b 813c 4f95 cbba 2b4b f1bb f508 a8bc
00000200: 7bc9 f93b 0949 1cbc 8957 a83c 3100 89bb
00000210: a4b1 1ebd 2a3a 7b3c a23f 643b 8c76 2fbd
00000220: b2d0 a2bc 0a28 45bb 485e 88ba 689e d53c
00000230: 1c7c 2d3d 814f e53c b0f0 8ebc 7576 eebc
00000240: 7c3c bdbc bca2 99bc e274 0ebc 92a7 1ebd
00000250: 1175 bebb c21f 53bc 2b82 c6bc 3ac5 d9ba
00000260: 311e 23bc 3348 caba 86f3 003b 6ae5 863c
00000270: 5194 b03c 4a67 93ba 3e59 2e3c 81ba f13c
00000280: d39a 673c 4a0b 043d 414b 8cbb 672e 0c3d
00000290: 2ad8 9fbc f25b 023c 58a5 39bc a20a 3fbc
000002a0: ba87 98bc 77d6 febc 2dc2 2dbb f62a 2fbc
000002b0: a4ff 3fba 9f4f 90bc c62b cebc 9199 7bbc
000002c0: a10c 593d 8e0d a5bc d304 f73c 36c0 acbc
000002d0: fd08 94bc dd3d 9a3b 47b4 88bb 2383 2b3c
000002e0: 1806 e83b 8631 fa3b 6a2a a03c 1e1d dabc
000002f0: 21ed dd3c 23be 513c 6f83 3f3d 8b71 9fbb
00000300: 0a0c f5bc 6a70 e73b ee6c 7dbc 77c9 81bc
00000310: c435 e7bb 517e b8bc a597 9dbc 0241 13bd
00000320: e1a8 0c3d 6984 523c 584f b53c 72a3 95b8
00000330: eabf 133c c404 6abb 1d62 02bc 3f69 85bc
00000340: ca89 a8bc 13d0 a1bc 0983 92bc 6e72 29bc
00000350: bb60 acbc 84f2 e73c 2294 693a f5a8 5b3c
00000360: 6533 0b3c 6046 213b f91d 973c 24ce 0bbc
00000370: f91b b7bb cf7d d83b f148 533c 10d2 d73c
00000380: bca9 c1bb c1d3 243d 7f1a 6c3d 02b0 0cbc
00000390: e6e8 083d af65 013d 3eca 7f3d 260f f0bc
000003a0: d60f 5fbd c8be e1bc 4549 c4bc 9366 66bd
000003b0: f9ab 4abd 3f32 60bd 1b79 e93c bc0e a1bd
000003c0: 303b c4bb 5d65 f4bc 7db2 45bd a39b 813c
000003d0: af26 d93b caa2 8e3c 168c 02bd e8bc 593d
000003e0: 1ac6 d33c c788 8c3d 73f6 fdbb 72b8 2c3b
000003f0: 3353 3bbc 4086 a9bb 7c18 81bc bfe3 3a3d
0.023699688 0.021783208 0.03588989 0.0657982 0.016830767 0.013316011 -0.0019833734 0.020180993
-0.015001244 -0.035781316 -0.018438268 0.03240781 -0.032115366 -0.0137130795 0.022144997 -0.027294112
-0.01071965 0.015562721 0.043535233 0.02390229 -0.005259568 0.009765598 0.0026667982 -0.003976745
-0.043048367 0.030018764 0.0012282745 0.014861102 0.010256259 0.048219115 -0.036184072 -0.0054407157
-0.0031320278 -0.052338716 -0.060969193 -0.037777975 -0.006462927 -0.05145389 0.0063878065 -0.06106564
0.0076789646 -0.009800548 -0.039430235 0.01695448 -0.016600326 -0.0060628057 0.014149765 0.028306484
-0.00068178406 0.031928487 -0.01211453 0.0005398248 -0.016344123 0.010792051 0.010750621 0.015114724
0.01976966 -0.019581545 -0.0096863685 0.032294657 -0.014013096 -0.0089305425 0.030958077 0.09214631
-0.035510726 -0.03748305 0.0050329417 0.04840468 0.029160976 0.012585146 0.0060553784 -0.0021558776
0.067706585 -0.034397453 0.007596181 -0.017314587 0.01413464 0.042634446 0.022439566 -0.0032170655
-0.00052552664 -0.0025836625 0.031453017 0.009818786 -0.0011979818 -0.06710359 6.8285066e-05 -0.012345379
-0.03787676 -0.06386257 -0.015879923 -0.040247444 -0.022637572 0.04587925 -0.04353145 -0.012152522
0.0038614322 0.011382844 0.03143701 0.0476475 -0.006024274 -0.022001274 -0.012579969 0.013532567
-0.0017215016 -0.025975432 -0.018177666 0.0075985687 -0.010698403 -0.0036511347 -0.0060879197 -0.0093700625
-0.0031780086 -0.012265948 -0.030208968 -0.04262769 -0.0047508497 0.023396857 0.0005222624 0.030105367
0.011848209 0.008760639 -0.0073814807 0.006187824 0.015783183 -0.0015532168 -0.007363697 -0.020512084
0.0076228953 -0.009538897 0.020549553 -0.004180931 -0.03874363 0.015333692 0.0034827967 -0.042837664
-0.019874904 -0.003008368 -0.0010404075 0.02607651 0.042354688 0.027992012 -0.017448753 -0.02910922
-0.02310013 -0.018754356 -0.008694859 -0.038734026 -0.0058122952 -0.01288599 -0.02423199 -0.0016614564
-0.009955929 -0.0015432894 0.0019676401 0.016466815 0.021555098 -0.0011245993 0.010641394 0.029507877
0.014136034 0.03223733 -0.004281432 0.03422394 -0.019512255 0.007956492 -0.011330925 -0.01166025
-0.018619407 -0.031108124 -0.0026513443 -0.010691395 -0.0007324165 -0.017616091 -0.025167357 -0.015356437
0.05299056 -0.020148065 0.030153668 -0.021087747 -0.018070692 0.0047070817 -0.0041718814 0.010468277
0.0070808046 0.007635298 0.019551475 -0.026625212 0.027090611 0.01280168 0.046756204 -0.0048658303
-0.029912967 0.0070629613 -0.015467865 -0.015843136 -0.00705597 -0.02252117 -0.019237349 -0.03595067
0.034340743 0.012848952 0.02213256 -7.135318e-05 0.009017924 -0.0035708407 -0.007957962 -0.016285537
-0.020573515 -0.019752538 -0.017884748 -0.010342224 -0.021042218 0.028313883 0.0008910318 0.013406982
0.00849614 0.0024608597 0.01844691 -0.0085330345 -0.0055880514 0.0066067944 0.012895809 0.026345283
-0.0059101265 0.040241007 0.057642456 -0.008586885 0.033425234 0.031591114 0.062448733 -0.029304098
-0.05445846 -0.027556792 -0.023960719 -0.056250166 -0.049480412 -0.05473542 0.02850013 -0.078641385
-0.005988501 -0.02983349 -0.048265923 0.015821284 0.006626926 0.017411608 -0.031871878 0.05315867
0.025851298 0.06862026 -0.0077503263 0.0026355055 -0.01143341 -0.0051734746 -0.015758745 0.04562735

conv2.bias f4 [64]
00000000: cb58 58bc 9779 353b b578 22bd b4f3 afbc
00000010: 9bae 493b dacd 033b 0406 e13b 3bf6 733b
00000020: 3aa0 183c 17d0 62bc 9144 f63b 4dd1 eebb
00000030: c0f5 ac3b 14e9 38bb 36fe ba3a 3f8d 16bc
00000040: 2e7a 7fbb 467e 9f3a a63f 21bc 0902 ad3c
00000050: 6473 adbb afef 28bb dcc9 143c 2871 febb
00000060: 0af4 3d3c aa84 843a 3dab 5fbb 213c 103c
00000070: b646 b8bb b66f 833b fbbb e5bc dcdf 00ba
00000080: 408c c8bc ba3b 843a 801c 11bb dfad dfbb
00000090: 93e4 36bc 56fa 64bb 272b f8bb 60be 6c3c
000000a0: 3977 803c 71b6 713b 2f6a b43b 994e e7bb
000000b0: 2903 28bc 5fc2 dabb efcb d33b 89dd 17bc
000000c0: d276 8cbc f310 dbbb 0338 73bc a207 12bc
000000d0: da5f 893c 5d98 1039 d191 b5bb 4ecf aebb
000000e0: 3dc2 6d3c b706 2e3b aabe ea3b 7eb8 babb
000000f0: 72c6 9dba 10b9 18bc 1e91 f73a e859 9ebb
-0.013204764 0.0027690881 -0.039665896 -0.021478511 0.003077424 0.002011171 0.006867172 0.0037225622
0.009315545 -0.013843558 0.007515498 -0.007288134 0.005278319 -0.0028215097 0.0014266435 -0.009188949
-0.0038982737 0.001216837 -0.009841835 0.021119135 -0.0052932967 -0.0025777628 0.00908133 -0.007764954
0.011593828 0.0010110338 -0.0034129166 0.008803398 -0.005623664 0.0040111197 -0.028043738 -0.000491617
-0.024480939 0.0010088601 -0.0022142231 -0.006826147 -0.011162895 -0.003493925 -0.0075735035 0.014449686
0.01568185 0.0036882425 0.005505822 -0.00705893 -0.01025466 -0.006676003 0.0064635198 -0.009269127
-0.017146502 -0.00668537 -0.014844897 -0.008912953 0.016769338 0.0001378967 -0.0055410643 -0.0053347712
0.014511642 0.0026554295 0.007163842 -0.0056982627 -0.0012037291 -0.009321466 0.0018887853 -0.004832495

conv3.weight f4 [8, 64, 5, 5]
00000000: 90e1 b33a 810c 9b38 8c5f 5636 58b8 06ba
00000010: c78e 52b6 763d abb8 58de e739 7af5 46b7
00000020: 69a0 9a3c 56c5 c4b5 c770 923b ef68 76bb
00000030: 0157 e23a 6641 3abc b5fd 5436 c06d a8b7
00000040: e877 47b6 e2f1 3a38 2673 0a3b a07c 80b8
00000050: c649 8533 403d beb6 08a3 9eb8 f810 b63b
00000060: 871f 0134 4fcd c53c 908b 133b 0b28 6cbc
00000070: 5ec6 58bb fe0b e73a 52d2 95bb 44e6 1cbc
00000080: 05bf 343c c462 943c 5c5d 4d36 20c0 d13c
00000090: 0fa1 a7b9 b53f ccb9 d1fe 77bc 1d3c b53c
000000a0: f91d 2ebc ba19 29bb 0f51 0f3c 4ccd b5ba
000000b0: 5fe4 a6b9 0aae dcba b48f bfb9 ee8a a3ba
000000c0: 3b32 8d3a eaae 60ba ba76 0fba fd49 80bc
000000d0: e42a adbc f4e7 183c 7601 0cbc 14d5 6b3c
000000e0: 0165 d23c cf36 debb 052c ca3b b50f c43a
000000f0: 034f afbc 07d2 873c ee6c 833b f542 103c
00000100: 4890 eeba 6133 1a3c 3c63 2abc 9d10 24bd
00000110: 0567 a13b b201 6f3c 3664 0ebd 7438 c53b
00000120: 2377 d9bc 8b6e d9bc ca5e 5a3b 002c 5dbc
00000130: aefb 52bb c237 c3bc a70d 9cbb 6f79 c0ba
00000140: b49b 9a3c 22e9 b03b 3c22 7fbc 884c 56ba
00000150: f857 e0b8 8950 27bc 1bae 80bc 1855 f1bb
00000160: b577 693c ce6e 793c 0ca0 563b 3d4e 80bb
00000170: 20c8 b73c 7785 173c b7ce 7cbb ae89 07bc
00000180: 9fd7 84bc f42b 07bd 7017 183c 009c 27bc
00000190: 5666 2dbc 84d0 e23b 98a8 ff3b b464 98bc
000001a0: c83b 51bb 0a13 3c3b 1cd6 7934 32d9 023b
000001b0: 5b53 d6bb 20ef 99b5 9e5c 8f3c e6ad 17bb
000001c0: 7998 fabb 2bde 113b 1bc2 2cba 37a9 16bc
000001d0: cf2f 68bb afd8 7f3b 357a 1cba f57f 4eb5
000001e0: 406b 7cbb 2e60 f335 44a0 33ba 05b4 d3b8
000001f0: 6603 8d35 d6a4 9cbc 45c7 cabc b60c 113c
00000200: 0f7e 4b3c b54f b73b d056 71bb 64bb 743c
00000210: f535 d33b 13e4 503a 9cf8 19bc 7666 a63b
00000220: e631 ef3b 05c0 ecbc 0994 d83c a540 f0bb
00000230: 5b77 d8bc 83f0 3d3a b99e 8ebc cf6d 65bc
00000240: b979 0ebc cf5b 43bc 61ac 86bc 3e5e 16bc
00000250: 0a12 c73b 2167 cc3a 935d ebbc 42a0 2d3c
00000260: dd20 0bbc dc2b 1d3c 2c5c e7ba c167 5dba
00000270: 4c89 44bc ff2f 903c 0f72 263c 019c c7b6
00000280: 1ec1 d83c 6075 01bd f8b6 84bb f131 b93b
00000290: 430e 333c 5439 75bc 0b26 a23b e11e 18bc
000002a0: 800a 48bc bcd9 5bb8 1135 a0bb a687 b73b
000002b0: a705 8fbb 7e45 c5bb 9593 4dbc 96c6 16bb
000002c0: 3ea9 813b 704d 5dbb 9290 51ba f871 adb5
000002d0: df26 66bb 76cb 0cbb d576 0aba ad8c eebb
000002e0: 2b31 c8b4 8095 0e3b 4ab5 69ba 05c7 883b
000002f0: 0d01 0238 3bcc ecb6 1157 0f3a 7006 c0ba
00000300: fb83 7d3b 6fad cbba 465e ba35 1cc8 ffb7
00000310: 0143 dd38 cb97 80b9 f2c4 af36 8144 75b6
00000320: be56 81bc d21b 85bc 80e4 62bb d1da 063c
00000330: ec3e 9b34 607a 293c a0d4 843b 59fc 79bc
00000340: 5eb7 b53c 1d4c 1cb7 40e8 7cbb 0288 8e3b
00000350: 28b4 9d38 ce3e a2bb 0402 3f3a a6c4 82bb
00000360: aef9 d13c 8567 863a 4b98 32bc beb8 7bba
00000370: 7b9c b8bb 1b62 9aba 0020 a13b 31ef 07bd
00000380: 8a09 c8ba 4497 e33b 96a6 53bb 88ad 88bc
00000390: 1fcc 473c f0c1 8cba fe2e b53c c33f e33c
000003a0: d67d 14bb 32ed 3c3c 4432 0dbb c518 a23c
000003b0: a8a3 96bc 899d d93b e971 463b 7a4b 44ba
000003c0: a228 a73b aa27 71bc 42ca b5bc 22a3 59bc
000003d0: 2ea3 15bb c119 ee3a 9081 813b 0d8c e5bb
000003e0: ba58 52bc c5bf 7dba 4918 86ba c842 4f3c
000003f0: d971 61bb 3045 0cbc f9bd 3d3b 6fa8 e63c
0.0013723839 7.393305e-05 3.19441e-06 -0.00051391637 -3.1375546e-06 -8.1653634e-05 0.00044225412 -1.1858874e-05
0.018875318 -1.466057e-06 0.0044690105 -0.0037599166 0.0017268361 -0.011368131 3.1738139e-06 -2.0078267e-05
-2.9723105e-06 4.4571127e-05 0.0021125763 -6.126729e-05 6.2067144e-08 -5.6695717e-06 -7.564394e-05 0.005556222
1.2025531e-07 0.02414575 0.0022513606 -0.014413844 -0.003307722 0.0017627475 -0.0045721913 -0.009576384
0.011031871 0.018113501 3.0601723e-06 0.025604308 -0.0003197272 -0.00038957378 -0.015136437 0.02212339
-0.010627263 -0.0025802688 0.008747353 -0.0013870387 -0.00031832137 -0.0016836536 -0.00036537426 -0.0012477317
0.0010772416 -0.0008570986 -0.0005472709 -0.01566028 -0.021138616 0.009332646 -0.00854527 0.0143940635
0.025682928 -0.006781436 0.0061697983 0.0014958294 -0.02139998 0.016579641 0.004010788 0.008805026
-0.0018200958 0.009411664 -0.010399636 -0.040054906 0.004925611 0.014587807 -0.034763537 0.0060186926
-0.026546067 -0.026541969 0.003332066 -0.01349926 -0.003219347 -0.023830298 -0.0047623697 -0.0014684628
0.018873073 0.0053988853 -0.015572127 -0.0008174856 -0.00010697538 -0.010212072 -0.01570802 -0.0073648803
0.014249732 0.015224172 0.0032749204 -0.0039155767 0.022434294 0.009248129 -0.003857536 -0.0082725715
-0.016216097 -0.0330009 0.009282932 -0.010230064 -0.010583481 0.0069218297 0.0078020804 -0.018602706
-0.0031926502 0.0028697872 2.3267825e-07 0.0019965884 -0.0065406985 -1.1468983e-06 0.017500218 -0.0023144423
-0.0076475707 0.0022257667 -0.0006590203 -0.009195617 -0.0035428887 0.0039039066 -0.0005969138 -7.692718e-07
-0.0038516074 1.8132903e-06 -0.00068521895 -0.00010094795 1.0506308e-06 -0.019121569 -0.024753222 0.008853128
0.012420191 0.0055942186 -0.0036825426 0.0149372555 0.006445641 0.0007968556 -0.009397652 0.0050781323
0.0072996495 -0.028900156 0.026437776 -0.007331925 -0.0264241 0.0007245617 -0.01740967 -0.014003231
-0.008696013 -0.011923744 -0.016439619 -0.0091777425 0.0060751485 0.00155947 -0.028731143 0.0105972905
-0.008491722 0.009592976 -0.0017651371 -0.00084459415 -0.011995625 0.017601011 0.01015903 -5.9488234e-06
0.026459273 -0.03160608 -0.004050132 0.0056517054 0.010928693 -0.014967281 0.0049483827 -0.009284706
-0.012209535 -5.241645e-05 -0.0048891385 0.0056008874 -0.0043646875 -0.006020247 -0.012547393 -0.002300655
0.003956943 -0.003376808 -0.000799426 -1.2922674e-06 -0.0035118384 -0.0021483577 -0.00052819896 -0.0072799535
-3.7288677e-07 0.002175659 -0.0008915259 0.0041741156 3.0995394e-05 -7.0571236e-06 0.0005467991 -0.0014650356
0.0038683403 -0.0015539358 1.3885517e-06 -3.0491552e-05 0.00010550582 -0.00024527157 5.238334e-06 -3.654772e-06
-0.015788432 -0.016248617 -0.003462106 0.008230881 2.8916782e-07 0.010344118 0.004053667 -0.015257918
0.022182163 -9.316046e-06 -0.003859058 0.0043497095 7.5199e-05 -0.0049513346 0.0007286372 -0.0039907275
0.025631752 0.001025424 -0.010900567 -0.0009602419 -0.0056338883 -0.0011778505 0.004917145 -0.033187095
-0.0015261632 0.0069455225 -0.0032295338 -0.016684309 0.012194662 -0.001073895 0.022117134 0.027740365
-0.0022658012 0.011531161 -0.0021544853 0.019787202 -0.018388584 0.006641094 0.0030280298 -0.00074880535
0.0051012794 -0.014718929 -0.02219117 -0.013283523 -0.0022832858 0.0018165634 0.0039522126 -0.0070052207
-0.012838537 -0.000967976 -0.0010230626 0.012650199 -0.0034400134 -0.008561417 0.0028952344 0.028156487

conv3.bias f4 [8]
00000000: f2ab f6bb 27cb b3bb 62f3 3c3c 3f7d 8fbb
00000010: 4d01 92bb 3a0c 9abb 524c 863c adb0 5dbb
-0.0075278217 -0.005486864 0.011532636 -0.004378944 -0.0044557215 -0.0047011646 0.016393814 -0.003382723

fc1.weight f4 [8, 32]
00000000: 1bd7 0dbd b4c8 2ebd a960 0abd de24 98bc
00000010: d1a2 14be dec9 00be 3ce9 23be 1f12 d23d
00000020: 4811 083e 77d9 b13d b04c c33c b30b ddbd
00000030: b7fa 663b 1b68 ef3d 7510 e3bd e2d6 943e
00000040: 279e 02be 0cd7 703e aa16 143e 4eca b53d
00000050: d12e 18bc 1fd3 6c39 07b2 5b3e 7386 06b4
00000060: d44b 49be 7c08 d1bd 5dfd 35be 255e 50bd
00000070: 362f 5c3d b6ca 633d b6d0 f83c e909 073d
00000080: a09b 82bd cb71 2dbb 310e 9cbc e97f 223d
00000090: 5c4d 5ebc 3872 843e fde4 eabc d9a4 6a3e
000000a0: ab93 c5bd 139c ac3e f800 4cbd 86ec 93bc
000000b0: ef7c 393e 2238 b1ba 5c1c 16bd aeb1 7a3e
000000c0: 12da 78be abe9 dc3d f9d6 a3bc 3e99 083d
000000d0: 88d5 e6bd 697c 83bd ba82 91bc 377c 8cbc
000000e0: e002 37be 8486 103e 7837 1dbe f7d9 bc3c
000000f0: 9f2c 3fbe e21a abbe 9407 a5bc 25b3 77bd
00000100: ce07 613c adf7 78bd bf9d 0bba 027b 383d
00000110: b07f 8a3d 0938 de3d 6a73 cfbd 7f1c 09bb
00000120: 8a9d f9bd d8a7 d1bc e34b 6d3e ac2c 083e
00000130: d32b 33bd cd04 1d36 a719 8d3a dc51 823d
00000140: d42a 69be ec20 32be 029c e9bc be54 b93d
00000150: 8c94 34bd 6d3d 90bc bff7 533d d2c2 ec3d
00000160: b62f a73d 9d27 0cbe 9977 643e 75cd 58bd
00000170: c73d b73d 6e24 cbbc f012 5e3e a960 38bd
00000180: 2b81 e0bd c86e dfbd ece7 72bb d47a 023e
00000190: 9960 433e f201 e9bb f0f6 ca3c 8908 2dbe
000001a0: 8bc4 73bd b9ac dfbd 69dd cdbd 2bac 9a3c
000001b0: b1c9 f9ba 263e 9dbb 7f2f e1bd 1b08 843e
000001c0: 7b52 c43c 63ae 89bd 6422 463e 74e2 923d
000001d0: 26c7 a5bd de4c dd3c 2de8 34bc a84e fabc
000001e0: 877c a1bd 1c66 c3bd f049 ca3b 1c51 11bd
000001f0: aece a1bd bc0f 583e 252f 8fbc 2bcb c33c
00000200: e889 7dbc 2a1f 17bc 1182 a73a a41e 25be
00000210: cc6c 19be 135c 2fbe bee1 363e 22bf 873e
00000220: fa1a adbc 0d14 853e f5a6 893b c9cd f53e
00000230: f8f9 893b a7a6 00b7 ea8c 493d faab 033b
00000240: 8b9b 8cbd 13d0 983d 0662 583d 0176 35be
00000250: 2030 8abd 7007 423b 797c 333c 8a97 fa3b
00000260: 1972 cdbc d859 64bc 3db3 02be e5c4 793e
00000270: 6b46 223e dbf7 10bd 6d05 d93c 8972 f4bd
00000280: 7058 aebd 15de 18bd 7232 0ebe f299 52bd
00000290: c88f 00bc 949e 0a3e ccb9 82bd 10c5 573e
000002a0: 24a2 9cbd c052 f63d 6747 57be 0d4c 173e
000002b0: ada5 52bb 87de eb37 c06a b43c 3cd9 133d
000002c0: 059f 3ebd fe56 8a3e d15a 883d 5fbf 71bd
000002d0: 12ab 20be 6475 5abc 86e2 cfbd d4f4 68bc
000002e0: 7d98 37be f521 dfbc 2e6b 953e 9380 ed3c
000002f0: 0ba8 c8bc ac2e 94bd b2ea 3ebe 3e87 933a
00000300: 9484 98bd c9ca 9abe 902a 91b9 ab99 763e
00000310: 7126 70be 71aa af3c 895f b83c b565 233b
00000320: dd14 efbd 9cc8 88bd f65e c83e ab9d 463e
00000330: f86b 753d 2c03 8c3d 8489 59b8 cacc 23bc
00000340: 8493 193d 13ef e8bd b0c1 893d 5426 1a3d
00000350: 5bb8 0e3d 9a16 a2bd d477 e837 1311 4eba
00000360: 3efe 47be bfa7 653e 613a fcbd 6c83 a43d
00000370: 9525 debd 0b4b 233e 3b23 813e 7938 32bd
00000380: 5a20 0abe b9fb c83d 13e5 d23d 048a 4a3b
00000390: e8ca 883e 0f22 08be f16f 3a3e 66bd 68b9
000003a0: d067 b4bd d041 093e 41cd 81be b599 f93c
000003b0: 6f4c 923d 2921 39b4 e1be f6bb 5b9b cdbd
000003c0: df8a 433e b2e9 78bd e780 273e 3a60 7bbc
000003d0: c8ed a73d ffac e9bc b08c b83d 8480 8e3d
000003e0: c60b 963e e9ff 25be a5b9 68be a689 c73c
000003f0: 3470 32bb 3818 26be a60a cc3d f035 64bd
-0.03462897 -0.042671874 -0.03378359 -0.018572267 -0.14515235 -0.12577006 -0.1600694 0.102573626
0.13287842 0.08684056 0.023840278 -0.10793247 0.0035244653 0.116897784 -0.11087123 0.29070193
-0.12755643 0.23519534 0.1446177 0.08876477 -0.009288506 0.00022585363 0.21454631 -1.2528635e-07
-0.19657832 -0.102066964 -0.17772432 -0.050871033 0.05375596 0.055613242 0.030372959 0.032968435
-0.06377339 -0.002646553 -0.019049736 0.039672766 -0.013568249 0.25868392 -0.028673643 0.22914447
-0.09647306 0.33712825 -0.04980561 -0.01805712 0.18114065 -0.0013520757 -0.03664814 0.24481842
-0.24301937 0.10786756 -0.019999968 0.03334927 -0.112711966 -0.06420214 -0.01776253 -0.017149074
-0.1787219 0.14113814 -0.15353191 0.023053152 -0.18669365 -0.33418947 -0.020145215 -0.06047358
0.013734771 -0.060783077 -0.0005325935 0.045039184 0.06762636 0.108505316 -0.10129435 -0.0020921526
-0.12188251 -0.02559273 0.2317348 0.13298291 -0.043742966 2.3397617e-06 0.0010765091 0.0636327
-0.22770244 -0.17395371 -0.028516773 0.090493664 -0.044086978 -0.017607415 0.05174994 0.115605965
0.08163397 -0.13686986 0.22311248 -0.052930314 0.0894733 -0.024797644 0.21686912 -0.045014057
-0.10962137 -0.10909802 -0.0037064506 0.12742168 0.19079818 -0.0071108276 0.024775952 -0.16897787
-0.05951361 -0.10921616 -0.10051996 0.018880924 -0.0019057301 -0.0047986684 -0.10995387 0.25787434
0.023965111 -0.06722715 0.19349056 0.07172099 -0.08094625 0.027014192 -0.011041683 -0.030555084
-0.0788508 -0.0954096 0.006173365 -0.035477743 -0.07900749 0.21099752 -0.017478535 0.023900589
-0.015474774 -0.009223739 0.0012779852 -0.1612497 -0.14982909 -0.17124967 0.17859551 0.2651301
-0.021131027 0.2599186 0.004200811 0.48008564 0.004210707 -7.668196e-06 0.04920665 0.002009152
-0.06865605 0.07461562 0.052827857 -0.17720796 -0.0674746 0.0029606484 0.01095497 0.0076474594
-0.02507882 -0.013937436 -0.12763686 0.24391516 0.15847175 -0.035392623 0.026491845 -0.11935908
-0.08512962 -0.03732117 -0.13886431 -0.051416345 -0.00784678 0.13537055 -0.06383094 0.21071267
-0.07648113 0.12027502 -0.21023332 0.14775105 -0.0032142207 2.8117805e-05 0.022023559 0.036095843
-0.04653837 0.27019495 0.06657947 -0.059020396 -0.15690258 -0.013333652 -0.10150628 -0.014218528
-0.17929263 -0.027237872 0.29183334 0.028991973 -0.024494192 -0.072354645 -0.18644217 0.0011255515
-0.07447162 -0.30232838 -0.00027688267 0.24082057 -0.23452164 0.021443577 0.022506492 0.0024932448
-0.11673901 -0.06678888 0.3913495 0.19396083 0.05991742 0.068365425 -5.1864903e-05 -0.009997556
0.037494197 -0.11373725 0.06726396 0.03763421 0.034843784 -0.07914467 2.7712354e-05 -0.00078608206
-0.1953058 0.22427271 -0.123158224 0.08032879 -0.10847012 0.15946595 0.2522219 -0.043510888
-0.13488904 0.09813637 0.10297599 0.0030905018 0.26717305 -0.13294242 0.18206765 -0.000221958
-0.08808863 0.13404012 -0.2535191 0.030468801 0.07143485 -1.7241531e-07 -0.0075300788 -0.10039397
0.19095944 -0.060769744 0.16357766 -0.015342766 0.0819965 -0.028524874 0.09011209 0.06958106
0.29305857 -0.16210903 -0.22727068 0.024357628 -0.0027227523 -0.16220176 0.099629685 -0.0557155

fc1.bias f4 [8]
00000000: c8ec 9f3c 25bb 5dbc 61ac 123c edb7 09bc
00000010: 6426 e4ba 1b8d bebc 34b0 23bc 22c2 003d
0.019522086 -0.013533388 0.008952231 -0.008405668 -0.0017406461 -0.023260644 -0.009990741 0.03143514
