checkpoints/source/epoch=12.checkpoint.pth.tar (torch, 165551 bytes, 8 tensors)

conv1.weight f4 [16, 3, 5, 5]
00000000: d694 2c3e a3dd f63d e9b2 3e3d d30c 3fbe
00000010: 5d96 583d 68c1 c3bd 11ce bebc 2e3f 3abe
00000020: b75c d4bd b628 f03d 4cf3 c4bc 206e f7bd
00000030: a007 d1bd 0f9c bdbd 3dec b4bd 09cd d33d
00000040: 582c 373e 7e26 09bc b4e6 77bd a497 a53c
00000050: 3a60 bbbc 689f 0b3e ae31 ae3d 603c 073e
00000060: 42e6 d13d 67d1 f03d 7cec 4d3d 2d58 a63d
00000070: 1eda 24bd 66c5 3d3b 4ad0 aabc 62da 3d3d
00000080: f7cf 28be 8543 e7bd e670 eebc 0338 0e3e
00000090: 232d 733c da98 a0bd 8d3d d1bc c9db b5bd
000000a0: 3115 abbd e50e 013e 6269 88bd b5f8 8cbd
000000b0: 9565 f4bd 9dc4 513e 90f6 51bd 2d20 9abc
000000c0: 8817 9ebd b57f 5bbd 49f0 a73c e55b 323d
000000d0: 12c1 7fbd 85e6 903d 59d5 83bd f9e7 6bbd
000000e0: 2584 02be b9b5 60bd ee36 4ebd d44a 273d
000000f0: 9898 b9ba 9768 0b3e 6b08 0dbe 0ce0 713d
00000100: 8cfd b13d 801a e33d efa4 673e b52f 3f3d
00000110: adf6 e53b 8ad5 00bd 213b 3fbd 6813 1c3e
00000120: 57f1 da3b 70d9 1c3d cecf 833b 5dad 423d
00000130: d0a5 7a3d 3a99 b7bc 3001 11be 7ef3 5cbd
00000140: 936b a93c e9ae 0d3a a46b 80bd 4afb 37bc
00000150: 3945 363d aa38 733d 1c2c cd3d ae0e 1e3d
00000160: f725 9b3d e7e2 c4bc 9414 c8bc 9a3e 933d
00000170: 7dd2 aabd d916 03bd 4d87 b03d 8705 913d
00000180: 61c0 0bbe 96c6 863d ad6c 953d 8251 ce3b
00000190: 3f5f 7a3d 7ac7 7c3d 049e b23d 6d2e c1bc
000001a0: 9616 8fbc 09b7 8a3d ab02 433d 0d13 173d
000001b0: d122 2e3d 3ab6 b93d 28d2 d73c 254e 233c
000001c0: 1ff9 78bd 13bf bb3c e1c2 00bd e4a5 933d
000001d0: 3df3 a23d 520e 1f3d 5062 7fbb 4c11 0f3d
000001e0: 2653 233d f72f 493d ffa4 303d b7d6 923d
000001f0: 8ebb 913d bc3f 2c3d 5f16 903d f13f 393d
00000200: 87f1 063e e12d 743d 04db 96bd bfe5 4fbd
00000210: 74fb 883c d403 043e 5579 543d db35 803d
00000220: 4236 cd3d b96c 153d 555d b6bd b87c 823d
00000230: 40f7 9c3c b97f ca3d 9ccc 49bc a536 783d
00000240: d98f 73bd bc51 cd3d f0ec 0b3e 6d66 023e
00000250: 1a1c 283d 7525 06bc 9591 403c b29d 9f3d
00000260: 68b2 503d ad4d 923d e547 45bd dd3b 133e
00000270: 6da8 62be a50e a2bd 0647 28be 9b73 773c
00000280: 7220 64be d893 1cbd 8c5d 53bd 52ab 8fbd
00000290: b580 0a3c 24ad 95bd 864c 803c 515a 9dbd
000002a0: f08b c1bd 7179 283e 6f4b 123e 9e56 0a3d
000002b0: 3769 a8bd 67e9 0a3e 3904 133e fe9a 7b3e
000002c0: 30ba 933d 30b4 003d 8789 a2bd 30ac dabc
000002d0: 633f 97bd eb99 13be 7bea 10be 1c35 d9bd
000002e0: 8df6 c9bd 7c57 40be d7be 66be 08ed 2ebd
000002f0: d07e 403d 9c8e 82bd f60d 543d cad3 753d
00000300: 6843 2c3e 9c92 14bd db06 063e fbaa 043b
00000310: 0600 93bd 7096 ac3d abc8 e43d 5ba2 463e
00000320: 7bbd f23d 7eef 7d3e 991d c0bc dc9c b8bd
00000330: 759a c53b ba16 c73d 0e5b d63d d4a5 2cbb
00000340: 3387 06be fb79 10be 31a5 ccbd 1073 e0bd
00000350: 258e 25bd 62b6 48bb 5217 ecbc 407b 59be
00000360: ba13 07bd bc23 dd3d 2e3c e1bd 9334 363e
00000370: f956 6d3d 714d 60bc 2287 123e 4972 5d3e
00000380: 5479 9a3d 60a8 393e 0128 a43d dd7f bcbc
00000390: dc57 71bc 5d4f d2bc c1bb aa3d 6913 6e3e
000003a0: 0780 8e3d 5d0e 1fbd efc0 4fbe eac0 2fbd
000003b0: d7a5 a23d e30f c03d 7ce9 703d c59f 69bc
000003c0: 3956 3dbd c9f0 bf3d b2f0 163d b042 aa3d
000003d0: 4a4d ddbd 7ecf 0f3b 820b b43c 44d3 3b3e
000003e0: b922 083e c5d3 dbbd 2811 f13d 2ff0 de3d
000003f0: d044 db3d bf38 9b3d 437d e73b 4594 8e3d
0.16853651 0.120539926 0.04655734 -0.18657236 0.052877773 -0.09558374 -0.02329162 -0.18188164
-0.103692465 0.11726515 -0.024041794 -0.120815516 -0.102065325 -0.092582814 -0.088341214 0.10341842
0.1788801 -0.008370994 -0.06052275 0.02021391 -0.022873033 0.13635027 0.085055694 0.13206625
0.10248996 0.1175869 0.050274357 0.08122287 -0.040247075 0.002895677 -0.020851273 0.046350844
-0.16485582 -0.11292175 -0.029106569 0.13888554 0.014842304 -0.07841654 -0.025542045 -0.08879811
-0.08353651 0.12603338 -0.06660725 -0.068833746 -0.11933438 0.20485158 -0.05126053 -0.01881417
-0.07719332 -0.053588588 0.02050032 0.04354467 -0.062439986 0.07075218 -0.06437177 -0.057594273
-0.12745722 -0.054860804 -0.050345354 0.040842846 -0.0014159856 0.13614117 -0.13772742 0.05905156
0.08690938 0.11089039 0.22621511 0.046676356 0.0070179314 -0.031453647 -0.04668725 0.15241778
0.006681602 0.038293302 0.004022575 0.047528613 0.061193287 -0.022411931 -0.14160609 -0.05394315
0.020681178 0.0005404787 -0.06270531 -0.011229346 0.04449961 0.05938021 0.10018179 0.03858822
0.075756006 -0.024033977 -0.024423875 0.07189675 -0.08340929 -0.03200421 0.086195566 0.070811324
-0.13647605 0.06580846 0.07296119 0.0062963376 0.06112599 0.061713673 0.08721545 -0.023581708
-0.017466825 0.067731924 0.047609966 0.036883403 0.042513672 0.0906796 0.026345327 0.009967362
-0.060784455 0.02291826 -0.03143585 0.072093755 0.0795655 0.038832016 -0.003896851 0.034928605
0.03987422 0.04911801 0.043126103 0.0716986 0.07115851 0.04205297 0.07035517 0.045226995
0.13178073 0.059614066 -0.07365993 -0.050756212 0.016721465 0.12892085 0.051873524 0.06260272
0.100201145 0.03648064 -0.089045204 0.063714445 0.019160867 0.098876424 -0.012316849 0.060598988
-0.059463356 0.10025355 0.13664603 0.12734385 0.041042425 -0.008187641 0.011753459 0.0779375
0.05095139 0.07143722 -0.048164267 0.14378305 -0.22134562 -0.079129495 -0.16433343 0.015103246
-0.22278002 -0.038226932 -0.051602885 -0.07015099 0.008453538 -0.073084146 0.01566149 -0.07683242
-0.09450519 0.16452576 0.14286588 0.03377401 -0.08223193 0.13565598 0.1435708 0.24570844
0.07213247 0.03142184 -0.079363875 -0.026693434 -0.07385137 -0.14414184 -0.14151947 -0.10605833
-0.09861479 -0.18783373 -0.22533737 -0.04270652 0.046995938 -0.06374857 0.051771127 0.06001643
0.16822588 -0.03627263 0.13088553 0.0020243514 -0.07177739 0.08427131 0.11171087 0.19397871
0.11852547 0.2479839 -0.023451613 -0.090142936 0.0060303756 0.097211316 0.10466586 -0.0026343958
-0.13137512 -0.14109032 -0.09992445 -0.109594464 -0.040418763 -0.0030626287 -0.028819714 -0.21238422
-0.032977797 0.107978314 -0.109978065 0.17793493 0.05794427 -0.0136903385 0.14309362 0.21625628
0.07542673 0.18130636 0.08015443 -0.023010189 -0.01473042 -0.025672609 0.083365925 0.23249592
0.06958013 -0.038832057 -0.20288442 -0.042908587 0.07941788 0.0937803 0.058816418 -0.014259283
-0.046224806 0.09372098 0.03685064 0.08313501 -0.10805757 0.0021943743 0.021978144 0.1834231
0.13294496 -0.10733751 0.117708504 0.10885655 0.10706484 0.07579183 0.007064493 0.06961874

conv1.bias f4 [16]
00000000: 3c35 1e3d 12ed 15bb 2edd be3c 3edb 463d
00000010: ce7d 203c 7a62 693d 354f 33bc 7008 fc3c
00000020: 662c 3b3c 56c7 d03c 9897 a63c 63a5 3dbc
00000030: fef7 3c3d b7ec 8a3c 4524 02bc 438b 0fbd
0.038624987 -0.00228769 0.023298826 0.04854893 0.009795619 0.05697868 -0.010944177 0.030765742
0.01142416 0.025485676 0.020335957 -0.011575076 0.04613494 0.016958578 -0.007943218 -0.03504492

conv2.weight f4 [64, 16, 5, 5]
00000000: a2cc 8b3c 133d 123d a2f8 b13c f459 5d3d
00000010: 449e 893a 2a88 0cbb f736 f2bb 8154 dfbb
00000020: 7052 0fbd ffe9 16bd f153 2abd e59b ae3a
00000030: bfdf 13bd 13b0 c1bc c274 733c 2872 48bd
00000040: 5c78 f1bc 80ea 0cba 510d 553c 38b4 253c
00000050: 2427 8dbc 0637 f33b 1465 a5bb a2a3 5abc
00000060: 2bd0 0dbd c1a5 2f3d beff 833c 91a1 c73c
00000070: e11a f33c c40e 7f3d 40fc 6dbc 07b0 f8bb
00000080: 80ab 55bc 6833 25bd 5a30 7cbd 2731 5ebd
00000090: 2dde a0bc 797a 73bd 00d8 a7bc b913 71bd
000000a0: d814 a3bb 5df1 74bc 164d 16bd 059c 463c
000000b0: 3403 a6bb e98d 953b 8d25 9a3c 32a6 163d
000000c0: 7847 923c 4cb3 5b3d 16ba 3e3c 8409 5b3c
000000d0: df85 49bc 23ae 573c ff00 8cbc 78a3 903a
000000e0: 708c 923c 4b35 3cbd 582d 72bc b163 9e3c
000000f0: f8a0 493c 04d2 503b 926c 3d3d 28e9 da3d
00000100: ea36 07bd 0fec 75bd 54f9 c0bc d25b 6a3d
00000110: d14a 0a3c f70a 673c b76c e53b 2b15 b63a
00000120: 2f5c 853d 8840 e1bc 30d5 cb3b 70a2 383b
00000130: 4b69 d23c db3a 693d 9f6d 303d 92c1 dd3c
00000140: 48c8 713c 4ad1 6d39 3b88 323c 5568 c13c
00000150: 99a0 12bc be6a b1bd 83b7 1fbc 9f97 35bd
00000160: 0eb5 6abd 02ab a3bd d5e8 afbc 303d 29bd
00000170: 7971 d9bc 36c3 b83c 1ca5 2abd 0c21 42bc
00000180: ccc2 f63a c601 b03c ba11 153d c71b 833d
00000190: cf65 3abb 2ac2 03bd 775e b3bc 8a0a d9b9
000001a0: 87b4 d7bc 554e 2fbd fa78 e0bc dd3d f2bc
000001b0: 9f11 43bd ccbd 3fbd 8b12 6abb 64bb 9cbc
000001c0: 1c22 adbc f6b0 9c3c 8a9d aabc 4238 68bd
000001d0: da12 39bd 832c d03b 5401 35ba 3a84 903c
000001e0: f690 18bb dfc7 1e3c 4f72 ffb9 0faf 8b3c
000001f0: 5598 1f3c c0f7 6ebc 7137 7c3c d278 f8bc
00000200: e20f cd3a 8635 b5bb baf3 5c3c f550 6d3b
00000210: db36 3dbd efd9 22bb 2702 e2bb 9a1c 7fbd
00000220: 6b44 16bd d3b8 73bc 8fbd 5bbd 5d45 c73b
00000230: b420 683c a1d4 0e3b 47c6 61bc e6c7 41bd
00000240: 5470 2abd 7514 fdbc f81e 26bc 30b7 04bd
00000250: 9a03 d7bc a629 40bd 5225 b6bc 98d2 e03b
00000260: d46a 2f3b 2d8a 1bbb 78b5 98bc 7af1 e33c
00000270: c2ad 093d 6420 cb3b b785 d93c 3295 e83c
00000280: e05a 9f3c e74e e83c 9859 193c 41a1 f23c
00000290: bf98 aabc 0993 913c 6c7e f1ba 6895 0ebc
000002a0: d42f dcbc e966 43bd 0f20 473c 8f52 e53b
000002b0: 6e1c 843b 583b d1bc 9c1f 33bd 08dd adbc
000002c0: f575 293d 17fd 32bc 66d2 b33c 4729 2fbd
000002d0: 5e33 caba e70e 0c3c 8386 013c 5b4a d53c
000002e0: 3047 543a 4dd3 0f3c a0c7 853c 41f2 45bc
000002f0: c9ce bb3c 88cb e93b 5f16 323d 3430 c7bb
00000300: 96c3 adbc 88dd 44bc da4c 00bd fea2 faba
00000310: 04f9 cc3a 595b 00bd 58d1 b3bc 7164 a2bd
00000320: 8426 cc3b ba8e 843c 7a10 163b 8bd6 923c
00000330: 2f3d 32bc fd1a 1abd 48ff fbbc a6cd 79bd
00000340: b62b 75bd 80af a9bd 2ca1 bfbc d861 48bc
00000350: d4c5 c8bc 2a22 183d e5e3 4e3b 21cd fcbb
00000360: 4c86 f8bc 116b 813b 4fe5 4f3a b13a 003a
00000370: cfc9 01bc 59b4 8b3b 104d c13c be24 973c
00000380: 4a27 2ebc 91a9 5c3d 77f9 843d 0a15 e13a
00000390: 1d5a 753d 5c46 523d 9030 813d c4cb 16bd
000003a0: 41b0 8abd 95d0 aabc c43d 42bd 79f4 9fbd
000003b0: 3c13 6fbd 4950 aabd 2300 e63b 1206 b7bd
000003c0: 513b babc 2c9e 01bd 3bbb 50bd 9950 823c
000003d0: f07a 4c3c b415 bd3c 1137 64bc fd32 883d
000003e0: 5e94 2b3d adc0 c13d 43ee 6abc 9c84 573c
000003f0: a099 b4bb e6ad 53bb abe1 3cbd 0f3f 6b3d
0.01706535 0.035702776 0.021725003 0.054040864 0.0010499437 -0.0021443465 -0.007391806 -0.0068154936
-0.034990728 -0.03684425 -0.04158396 0.0013321607 -0.036102053 -0.023643529 0.01485938 -0.048936993
-0.029476337 -0.00053755194 0.013003663 0.010113768 -0.017230578 0.007422331 -0.00504745 -0.013344677
-0.034622353 0.042882685 0.016113158 0.024369033 0.029675903 0.06226994 -0.014525473 -0.0075893435
-0.013041377 -0.040332228 -0.06156955 -0.054246094 -0.019637192 -0.05944297 -0.020488739 -0.0588567
-0.00497685 -0.014950124 -0.03669461 0.012122159 -0.0050663 0.004564036 0.018816734 0.03677959
0.017856345 0.053637788 0.011641046 0.013368968 -0.012299984 0.013164076 -0.017090319 0.0011035046
0.017889231 -0.04594926 -0.014781319 0.019334646 0.012306444 0.003186346 0.04624612 0.10689002
-0.033011355 -0.060039576 -0.023556389 0.057216473 0.008440689 0.014101735 0.007001485 0.0013891807
0.06511723 -0.027496591 0.0062204823 0.0028172992 0.025684973 0.056940895 0.043073293 0.02706984
0.014757223 0.00022680048 0.010896738 0.02360932 -0.008949422 -0.086629376 -0.009748342 -0.04433405
-0.057301573 -0.079916015 -0.021473328 -0.04131812 -0.026543366 0.022554021 -0.041661367 -0.011848699
0.0018826365 0.02148522 0.03639386 0.064017825 -0.002844203 -0.03216759 -0.02189563 -0.00041397318
-0.0263312 -0.042799313 -0.027401436 -0.029570514 -0.047624227 -0.046811864 -0.003571662 -0.019132324
-0.021134429 0.01912735 -0.020827074 -0.056694277 -0.045183994 0.0063529625 -0.00069048 0.017641176
-0.0023279763 0.009691208 -0.00048722557 0.017051248 0.009740909 -0.014585435 0.015394078 -0.03033105
0.0015644992 -0.005530062 0.013485843 0.0036211584 -0.046194892 -0.0024849137 -0.0068972292 -0.062283136
-0.036686342 -0.0148756085 -0.053647574 0.006081267 0.014167953 0.0021794217 -0.013780183 -0.04730978
-0.04161103 -0.030893544 -0.010139219 -0.032401264 -0.026246835 -0.04691472 -0.022234593 0.006861042
0.0026766555 -0.0023733482 -0.018641219 0.027825106 0.033612974 0.0061989296 0.026553018 0.028391454
0.019452512 0.028357936 0.00935974 0.029617907 -0.020824788 0.017770307 -0.0018424517 -0.008702613
-0.026878275 -0.047705565 0.012153639 0.006998367 0.0040317094 -0.025540993 -0.043731317 -0.02122356
0.04137226 -0.010924599 0.021950912 -0.042763975 -0.0015426686 0.008548475 0.007905605 0.026036432
0.0008097766 0.008778405 0.01633054 -0.012081684 0.022925751 0.0071348585 0.043478366 -0.0060787443
-0.021211427 -0.012015708 -0.03132329 -0.0019122062 0.0015638177 -0.031337116 -0.021950409 -0.07929314
0.0062301774 0.016181339 0.0022898004 0.017924568 -0.010878845 -0.037623394 -0.030761376 -0.060987137
-0.05985614 -0.08285427 -0.023392282 -0.012230359 -0.024508394 0.037141956 0.0031568941 -0.007714883
-0.030337475 0.003949531 0.0007930593 0.0004891558 -0.00792165 0.0042634425 0.023596317 0.018450137
-0.010629484 0.05387265 0.06492894 0.0017172408 0.05990039 0.05133663 0.06308091 -0.03681542
-0.06771899 -0.020851413 -0.047422186 -0.07810301 -0.058367953 -0.083160944 0.0070190593 -0.08936705
-0.022733362 -0.031644985 -0.050959807 0.015907573 0.012480482 0.023081638 -0.0139291445 0.0665035
0.04188954 0.09460578 -0.014339033 0.013154175 -0.0055114776 -0.0032299696 -0.04611365 0.057433184

conv2.bias f4 [64]
00000000: c6a0 eabc c45f e1ba 1857 3bbd 9c47 12bd
00000010: 495c 3f3c d8f3 bc3b f2f9 243c b37c 31bb
00000020: 27f3 453c 884e dfbc 1d70 803c 409c cebc
00000030: a8b3 b23b b04a 94bb 9006 1abc 77e3 8bbb
00000040: 0a74 1e3b c340 0ebc 6db9 8cbc ebc6 fa3c
00000050: 2fac 8bbb 75b5 013c 6d33 903c 5719 3eba
00000060: 232b e43c fcc6 9e39 4431 01bc 473d d53b
00000070: 5ed5 34b8 ee0a a23b 1c7c 27bd 4206 d23b
00000080: b16a 01bd 9b87 b73b cc67 353b c88d 82b9
00000090: 21d0 b6bc 3b10 963b 4b74 05bc 0872 0b3d
000000a0: c3f3 813c a0e5 853c 17c0 bbba 3302 b5bb
000000b0: 5b79 5dbb 1878 32bc a075 923c c472 82bc
000000c0: e423 51bc dacd e6bb 008b abbc 4558 29bc
000000d0: 337a d93c 4cab 9abb 2893 8dbc 3efb 1dbc
000000e0: 6e2f b43b 4a76 403c 0d6e 453c 9286 0cbb
000000f0: 4030 2bbc d802 33bb c4c8 73bb 3003 e8ba
-0.028641116 -0.0017194678 -0.045737356 -0.035712823 0.011679717 0.005766373 0.010069357 -0.0027082383
0.012081898 -0.027259126 0.01567846 -0.02522099 0.0054535456 -0.004525505 -0.009400979 -0.0042690593
0.0024178051 -0.008682433 -0.017178262 0.03061243 -0.0042624692 0.007916798 0.017602647 -0.0007251701
0.0278526 0.00030284363 -0.007885281 0.006507549 -4.3114058e-05 0.0049451506 -0.040889844 0.0064094374
-0.03159589 0.005600882 0.0027680276 -0.00024901167 -0.02231604 0.0045795715 -0.008145402 0.034044296
0.015863305 0.016344845 -0.0014324215 -0.005523944 -0.0033794257 -0.01089289 0.017878354 -0.015923865
-0.012764905 -0.0070435824 -0.020940304 -0.0103359865 0.026547527 -0.004720127 -0.017282084 -0.00964242
0.005498818 0.011746952 0.012050164 -0.0021442515 -0.010448515 -0.0027314927 -0.0037198523 -0.0017701145

conv3.weight f4 [8, 64, 5, 5]
00000000: 9610 1938 7fba 5635 987c 1f2f 34af 10b9
00000010: e50f e9ae 5d30 e434 b71f 0835 5a28 e8af
00000020: 42b9 c93a ec5c f3ae 2ca8 bd38 09b1 66b9
00000030: da7d a636 f714 b0bb 0020 f62e f007 5130
00000040: 508b 0baf eea7 a9af 9c56 3d3a 241b be30
00000050: a6a4 78ad c81b 2630 558e 2ab1 84e7 4139
00000060: f8bd edab d1ce 623c efa9 903a 3856 c8bb
00000070: ac89 8cba f2e9 d838 7830 87ba 6045 1cbb
00000080: 3fcc d039 92eb 023b afed f6ae 3319 703c
00000090: 114e 3fb9 6a3f 85b9 9509 15bc e2d2 a63b
000000a0: 4051 4abb db92 eeb8 d918 893a ab9e 13b9
000000b0: 40f8 0cb4 a2af 8ab7 348f f232 1556 f6b6
000000c0: 2e77 f036 c95e 5f33 95d3 a4b9 aacb 05bc
000000d0: 17cd 39bc f2e8 9f3b a8aa c4ba 87de 0a3c
000000e0: 24e1 653c ed9d 4abb 9d07 373b 3284 4939
000000f0: 9cfc f7bb 3c7a 023c befd 2a3b f2bd b03b
00000100: e4d8 f7b9 dc6f b73b 9f2b b1bb 23a1 e4bc
00000110: 7d4b 723b 95f7 a03b db42 9fbc 0622 4c3b
00000120: 8605 83bc 1ad3 8abc 8161 9539 d20d 83bb
00000130: c090 b8ba c751 32bc f028 08bb 1c9f a1b5
00000140: b256 1a3c 135f 163b 64ef edbb 6b36 9eb9
00000150: fd95 73b6 1058 4fbb 3903 88bb 008b f7ba
00000160: 60d8 443b 120d 533b c34f 7e3a 138b cdba
00000170: 0ab9 613c dcb0 9d3b 45f0 0cba 4133 92bb
00000180: 4c81 0cbc bff2 9fbc 36d1 b73b ae33 32ba
00000190: ff72 88bb 1482 a33a 7c77 133b ebaa eeba
000001a0: ddd9 97b6 32c6 f638 e622 c435 8370 2137
000001b0: e78a 86b8 e846 3b2f ae7b d73b 2149 33ba
000001c0: 1ad6 82bb a108 0b3a 314a c9b3 76da c9b9
000001d0: f206 07b8 6d76 a737 8ec3 47b5 8081 43ae
000001e0: 2657 eab6 a4cb 01af ca6f 1133 749f 41b1
000001f0: 69af 332e 320c 07bc b427 19bc fe53 543b
00000200: fd05 a63b 3532 2f39 1a02 dbba 4327 c23b
00000210: 9a96 f13a fb20 4939 6e69 52b9 b9f6 d83a
00000220: 9e77 113b d9f8 8cbc 433a 733c 091f d4ba
00000230: f42f 22bc a9a4 fc38 dbbd dfbb 697a fbbb
00000240: 745d bbba 9bc6 73bb f90c b5bb d8db 6ebb
00000250: 7dd3 603b 9f2e 1a37 8da3 55bc 2ab4 243b
00000260: ed7d 23bb b5f9 8d3b cd23 82b6 5587 46b8
00000270: 045c 86ba 92a9 6a3b 65ec 293b 7f8a 93ae
00000280: a1fa 523c fdf9 55bc 0b7a 7aba 31db 8c3a
00000290: 3490 143a b259 90bb 4bd3 f239 5f67 dbba
000002a0: 9bb2 31bb ab86 4ab4 4a41 3fba 15a5 183a
000002b0: 9806 21ba dc4b b1ba efc1 adb9 fe2e 25b7
000002c0: f10a 4938 70e3 36b9 c75c 0fb8 b087 e0ae
000002d0: 09ef 03b9 301a 31b6 aa35 29b6 2eed 0aba
000002e0: 49b5 802d c7dc be37 ed93 60b6 bc21 e737
000002f0: 8cef fd33 bf43 8eaf 1dd2 0e34 9731 fab7
00000300: fa42 c138 3950 03b9 58a5 4b2c 9e5f 0131
00000310: d64d 26b1 84ae 84b4 2161 352f b8ff 902f
00000320: e7a0 a2bb 5bd7 90ba eb39 17ba 16a1 7c3b
00000330: f607 dbad 5ab9 4e3b fcdd b539 e78f f4ba
00000340: ab65 f43b 728d 12b0 d3c5 dfb9 12ae 7439
00000350: 29db 1336 9223 38bb 0924 7fb3 75a0 e9b9
00000360: 62a5 c63b dd9e c837 995d 7cbb 6927 a733
00000370: e194 c3b9 69aa 38b6 9cd9 dd38 71ac 1bbc
00000380: 49a1 e6b4 03bd 7a3b 95d1 5dba f16b 5abb
00000390: 9fc4 ad3a 3758 71b6 ed00 413c 5b1f 2c3c
000003a0: 6207 fcb9 265f 703b e72d 45b9 4469 0e3c
000003b0: e80d a3bb 85fc 113b 8478 4239 8fbc a6b8
000003c0: 5c1e 263b d305 99bb b2bc 4cbc 74b6 09bc
000003d0: 07fd 6db9 5d67 673a 48ac b73a 2432 49bb
000003e0: d796 eebb bab8 1bb7 f7bc f6b9 605f 943b
000003f0: 0234 29ba f930 e5ba 020a 1b38 fefc 5c3c
3.649349e-05 7.99926e-07 1.450523e-10 -0.00013798178 -1.0598437e-10 4.2503498e-07 5.07101e-07 -4.2229226e-10
0.0015390294 -1.1066867e-10 9.043547e-05 -0.0002200046 4.9618366e-06 -0.005373593 1.1192469e-10 7.6045037e-10
-1.269147e-10 -3.0860242e-10 0.00072226836 1.3832033e-09 -1.4133727e-11 6.042993e-10 -2.4819162e-09 0.0001849216
-1.689259e-12 0.013843254 0.0011036972 -0.0061137937 -0.0010722182 0.00010343258 -0.0010314127 -0.0023845062
0.00039825027 0.0019976837 -1.1229006e-10 0.014654445 -0.00018244261 -0.00025414984 -0.009096523 0.005091057
-0.0030871183 -0.00011376078 0.0010459676 -0.00014078121 -1.3128829e-07 -1.6532667e-05 2.823763e-08 -7.3413926e-06
7.1664317e-06 5.200744e-08 -0.00031438158 -0.008166233 -0.011340401 0.004880064 -0.0015004473 0.008475906
0.0140307285 -0.0030916885 0.0027928122 0.000192181 -0.007567955 0.007963713 0.0026091184 0.005393737
-0.00047273107 0.0055980515 -0.0054068114 -0.027908867 0.0036971264 0.0049123266 -0.019441059 0.003114821
-0.015993845 -0.016946364 0.0002849214 -0.0039994502 -0.0014081225 -0.010883755 -0.0020776354 -1.2041742e-06
0.009420084 0.0022944852 -0.0072612036 -0.00030176653 -3.6297126e-06 -0.0031638183 -0.004150775 -0.001888603
0.0030036196 0.0032203835 0.00097012165 -0.0015681706 0.013777027 0.004812343 -0.0005376379 -0.0044616763
-0.008575749 -0.01952493 0.0056096567 -0.0006797862 -0.004164099 0.0012474679 0.0022501638 -0.0018208897
-4.5255133e-06 0.00011767111 1.4613295e-06 9.622544e-06 -6.4154905e-05 1.7032742e-10 0.006576023 -0.0006839205
-0.003992808 0.0005303715 -9.373287e-08 -0.00038500474 -3.2192977e-05 1.9963098e-05 -7.4417846e-07 -4.4452886e-11
-6.983889e-06 -1.180483e-10 3.3862115e-08 -2.8175835e-09 4.0855683e-11 -0.008242654 -0.009347845 0.0032398696
0.005066632 0.00016708004 -0.0016709 0.0059250905 0.0018431724 0.0001918114 -0.00020066436 0.0016553021
0.0022196542 -0.017208504 0.014845434 -0.0016183566 -0.009899128 0.00012046967 -0.0068280525 -0.0076745045
-0.0014294819 -0.0037197236 -0.005525228 -0.0036446955 0.0034305744 9.18997e-06 -0.013039482 0.00251318
-0.0024946884 0.004332746 -3.8784697e-06 -4.7332916e-05 -0.0010250811 0.0035806638 0.0025928256 -6.709388e-11
0.012877137 -0.01306009 -0.0009554929 0.0010746476 0.000566724 -0.0044052238 0.00046315262 -0.0016739181
-0.0027114514 -1.8861708e-07 -0.00072958006 0.0005822939 -0.0006142645 -0.0013526636 -0.00033141623 -9.845708e-06
4.7932324e-05 -0.000174416 -3.4180262e-05 -1.02104436e-10 -0.00012582181 -2.6390298e-06 -2.52142e-06 -0.0005299625
1.4632422e-11 2.2752572e-05 -3.3464705e-06 2.7553055e-05 1.1824804e-07 -2.5877786e-10 1.330122e-07 -2.9825414e-05
9.2154325e-05 -0.00012523019 2.893982e-12 1.8826323e-09 -2.4200424e-09 -2.4713893e-07 1.6496361e-10 2.6375147e-10
-0.0049630287 -0.0011050509 -0.00057688233 0.0038548163 -2.4900953e-11 0.0031543584 0.00034688402 -0.0018658609
0.007458409 -5.3315496e-10 -0.00042681265 0.000233345 2.2032275e-06 -0.0028097373 -5.9404588e-08 -0.00044560773
0.0060621956 2.3915834e-05 -0.0038507937 7.783712e-08 -0.00037304222 -2.7517328e-06 0.00010578634 -0.009501562
-4.295819e-07 0.0038259632 -0.0008461711 -0.0033328498 0.001325745 -3.5963146e-06 0.011780006 0.010505523
-0.00048070686 0.0036677807 -0.00018804484 0.0086920895 -0.004976023 0.0022275758 0.00018546177 -7.9506186e-05
0.0025347685 -0.0046698838 -0.01249616 -0.008405317 -0.00022696341 0.0008827353 0.0014013136 -0.0030700052
-0.007281165 -9.28173e-06 -0.00047061566 0.004527971 -0.0006454588 -0.0017485908 3.69642e-05 0.013488052

conv3.bias f4 [8]
00000000: 7742 79bb 0c3a 1e3b ccae 623c 0317 33ba
00000010: 5328 19bb 40aa 23bb 4f8f c23c a372 ab3a
-0.0038034 0.0024143485 0.01383562 -0.0006831737 -0.0023369982 -0.0024973303 0.023749975 0.0013080429

fc1.weight f4 [8, 32]
00000000: 93fd 3fbb 72f2 eabb c856 0dbb 88ed e3ba
00000010: 762f 40be e49a 13be 2faa 42be 9666 b93d
00000020: ac3a 123e 5046 823d 0a34 8a3c 592e bfbd
00000030: aed1 5534 c7a0 093d c873 f6bc ac76 253e
00000040: aa1e 0dbe ff9c 813e 25f7 b83d 6f4c e83d
00000050: 7e1f 66b8 5e57 8db2 2a3e cc3d 2ef8 59ad
00000060: 7616 41be b155 c9bd 1093 35be 0ce0 debc
00000070: 75e9 bd3d 13c5 8b3d 34b7 f23c 6ce1 063d
00000080: 0c7e 36bc bf5c 03b8 a69b 40ba 3be8 f83b
00000090: b153 f2bc f3db 903e 8ed2 17bc b556 7d3e
000000a0: d1f7 ebbd ef0a ac3e b9c6 b2bd fbeb 3abd
000000b0: eb97 993d e903 9f33 fdd0 a9bb d15b ff3d
000000c0: 1a19 83be dace ce3d ea6c 80bd 9d84 c93c
000000d0: 0ac4 02bd 121f 8abc 5852 7eba 9b3a 94ba
000000e0: 790f 48be 568a 233e e8e6 35be 5b3f eb3c
000000f0: f060 4abe 17c9 a4be aefa cabc 4d1c efbd
00000100: 89ff cd3b 723d 22bd a913 58b2 69f0 9e3c
00000110: 411d fc3c e6b8 7f3d 25da fabd e642 01bb
00000120: 0d50 ffbd 8cd9 3ebd fcff 753e 5413 d23d
00000130: 4c13 83bb 3656 7daf 4af4 ea37 1d75 203c
00000140: c113 76be 6230 43be 7aac 7bbc 4b79 da3d
00000150: dbc6 14bc 0139 edba 7c21 d03b b43a 1b3d
00000160: d5a3 e03d 18dd 2ebe 5002 703e c64c 8bbb
00000170: 48e5 d33d 1598 0abd 156f 553e 5ad2 96bc
00000180: 1d30 19bd ab1d 91bd 8801 71b5 f5c6 733d
00000190: df69 793e 6a5d 6c3d 7118 883d 632c 2dbe
000001a0: 876a 8cbd 32e8 afbd 5e85 fdbd 1eac b43c
000001b0: ec7a 99b3 36e1 83b6 9820 f4bc fdac 093e
000001c0: 45a8 eb3c d483 80bd 9b07 893e 84d3 673d
000001d0: 6346 a9bc 247d 6c3b 7729 b8b8 7845 a7bb
000001e0: 8fc3 d3bd 8e38 b1bd a739 983b ac80 03bc
000001f0: bd33 ecbd 9ead 6b3e 0e5e 5dbc 16f3 c43d
00000200: 72d1 d3bb 9fe4 d9bb de46 f637 ce27 b4bd
00000210: a462 f8bd a13a 29be b6b2 3f3e 4cb8 983e
00000220: 0f9e 93bc 5860 943e 935f 0d3c eeb3 e23e
00000230: d898 41b4 26b5 c6af 5586 dc3b 3642 9832
00000240: c5fb b7bd 7f3e 953d 87e8 d93d bc7e 4ebe
00000250: ecce a7bc 225d b939 b864 4b39 d73a 0d39
00000260: f991 53bc 8440 ecbc 8839 14be d957 123e
00000270: 51e9 0c3e c3ca 46bd 164f 7a39 bb91 8ebd
00000280: cbb7 29bd 4dbc dabc 2a2b 41bd 331b 80bc
00000290: aa27 f93c 3994 d83d c426 a5bd 8e13 4c3e
000002a0: 71e2 97bd d464 f33d b714 49be 7bc6 1e3e
000002b0: fe67 09b4 9b91 8cb0 e728 dd3a 94dc 223b
000002c0: cd8b f2bc 25c2 943e 2aa2 313d eb50 8cbd
000002d0: 18d4 8ebd f98b 70bb 4089 dabc 7222 4dbb
000002e0: dc22 35be 235f 16bd 0cb5 9d3e 57f4 3ebc
000002f0: fd21 05bc b104 afbd 6dbd f9bd f305 663c
00000300: eaf8 10bd a3ae 6cbe c6b7 edb1 8115 0f3e
00000310: d626 80be c727 f83c d499 1f3b e5de bbbc
00000320: c9bb e3bd e557 a8bd 92c5 d73e ab9f 293e
00000330: 66a1 0b3c bc64 353c 3f0e c6b0 d251 8eb8
00000340: 4f85 433d 2a86 0ebe 7b5e 223c 986f 4a3d
00000350: 904d 483c 5028 41bd 6e6b 47b1 e2fb 0cb2
00000360: 601c 5cbe e09b 813e d7a2 e3bd f196 023d
00000370: dae9 0ebe 84c2 243e cb25 383e f4ae 9abd
00000380: 4133 4fbd 9ec6 8b3d 810a db3c 9931 433a
00000390: 1282 703e af1a 2abe b7f7 453e 05f3 2abd
000003a0: eac5 91bd e234 023e f411 84be 4176 2c3d
000003b0: daef 4a3c 079b 272d ba06 17b8 b30d ccbc
000003c0: a156 573e 5db8 a2bd bb23 bd3d f4b9 abbc
000003d0: b181 e43c 7c54 35bb eb85 a33c 68a2 3d3c
000003e0: 0a82 9d3e a79e 36be 4c65 7ebe 433d debb
000003f0: b0e6 b43c 5d40 3abe 2511 913d 4213 1ebe
-0.002929543 -0.007170015 -0.0021566618 -0.0017389515 -0.18768105 -0.14414555 -0.19010232 0.0905277
0.14280194 0.06361067 0.016870517 -0.09335012 1.9913452e-07 0.033600595 -0.030084506 0.16158551
-0.13781229 0.2531509 0.09031514 0.113427036 -5.4865603e-05 -1.645429e-08 0.09972794 -1.2390129e-11
-0.18856224 -0.098307975 -0.17731881 -0.027206443 0.09273044 0.06824698 0.029628374 0.032929823
-0.01113845 -3.131921e-05 -0.0007347412 0.0075960434 -0.029580923 0.28292808 -0.009266509 0.24740107
-0.115218766 0.33602092 -0.087293096 -0.045635205 0.07499679 7.404726e-08 -0.005182384 0.124686845
-0.25605088 0.100980476 -0.06270774 0.024599368 -0.03192524 -0.016860519 -0.0009701601 -0.001130897
-0.19537152 0.1597074 -0.17763865 0.028716734 -0.19763541 -0.3218467 -0.024777737 -0.1167532
0.0062865657 -0.03960938 -1.2577325e-08 0.019401746 0.030775668 0.062432192 -0.12248639 -0.0019723712
-0.1246644 -0.046594188 0.24023432 0.10257593 -0.004000103 -2.3040844e-10 2.800873e-05 0.009793547
-0.24030973 -0.19061425 -0.015360946 0.10667666 -0.009080614 -0.0018098654 0.006351648 0.03789778
0.109687485 -0.17076528 0.23438382 -0.0042510955 0.10346466 -0.033836443 0.20843156 -0.01841085
-0.0373994 -0.07085737 -8.9781724e-07 0.059515912 0.24356793 0.057706274 0.06645287 -0.16911463
-0.06856256 -0.085892096 -0.123789534 0.022054728 -7.146977e-08 -3.9303222e-06 -0.029800698 0.13444896
0.02876676 -0.06275144 0.26763615 0.0565982 -0.020663446 0.0036085332 -8.781527e-05 -0.005104717
-0.10340034 -0.08653365 0.0046455446 -0.008026283 -0.11533306 0.23015448 -0.013511194 0.096166775
-0.006464177 -0.006649568 2.9358485e-05 -0.08796655 -0.12128189 -0.16526271 0.18720517 0.29828107
-0.018019704 0.28979754 0.008628744 0.442779 -1.803013e-07 -3.6144704e-10 0.006729881 1.7725238e-08
-0.08983568 0.07287311 0.10640054 -0.20165533 -0.02048441 0.0003535534 0.0001939711 0.00013468727
-0.012913221 -0.028839357 -0.14475071 0.14291324 0.13760878 -0.048533212 0.0002387132 -0.0696139
-0.041435044 -0.026701117 -0.047160305 -0.01563797 0.030414421 0.10575146 -0.080640346 0.19929335
-0.07416237 0.11884466 -0.19636808 0.15505402 -1.2796951e-07 -1.0227724e-09 0.0016873152 0.0024850713
-0.029607678 0.2905437 0.043367542 -0.068513714 -0.069740474 -0.0036704524 -0.026676774 -0.0031301049
-0.17689079 -0.036711823 0.3080219 -0.011654935 -0.008125779 -0.08545817 -0.12194333 0.014039504
-0.035393633 -0.23113494 -6.9185004e-09 0.13973047 -0.2502963 0.030292405 0.0024353163 -0.022933433
-0.111198016 -0.082198896 0.42142922 0.16564815 0.008522367 0.01107138 -1.4410445e-09 -6.786328e-05
0.047734555 -0.13918367 0.009910221 0.04942283 0.012225524 -0.047157586 -2.9019378e-09 -8.206344e-09
-0.21495199 0.25314236 -0.111150436 0.03188223 -0.13956395 0.16089827 0.17983167 -0.07552901
-0.05058599 0.068249926 0.026738407 0.00074460503 0.23487118 -0.16611741 0.19332777 -0.041735668
-0.07117827 0.12715486 -0.25794947 0.042104963 0.012386287 9.527274e-12 -3.600747e-05 -0.024908876
0.2102914 -0.07945321 0.09235331 -0.020962693 0.027893873 -0.0027668765 0.019961318 0.011574365
0.30763274 -0.17833959 -0.24843329 -0.0067822053 0.022082657 -0.18188615 0.07083348 -0.15437034

fc1.bias f4 [8]
00000000: b771 393c 6408 ffbc 8858 be3b 68a2 55bc
00000010: 7f1a 883c 7cfe 82bc 7001 27bc 161b 1c3d
0.011318616 -0.03113193 0.0058088936 -0.013039209 0.016614197 -0.015990488 -0.010193214 0.03811177
