checkpoints/source/epoch=8.checkpoint.pth.tar (torch, 164581 bytes, 8 tensors)

conv1.weight f4 [16, 3, 5, 5]
0	0x3e32e735	0.17471011
1	0x3e00b1d0	0.1256783
2	0x3d766822	0.060157903
3	0xbe4726aa	-0.19448343
4	0x3d74c61b	0.05975924
5	0xbde542fa	-0.111944154
6	0xbcc24066	-0.023712348
7	0xbe357f3f	-0.17724322
8	0xbdb867ee	-0.09004198
9	0x3e0d6e2b	0.13811557
10	0xbd045575	-0.03230806
11	0xbe059c4b	-0.13047902
12	0xbdbb55c9	-0.091472216
13	0xbd9adf0c	-0.07562074
14	0xbda1e2ee	-0.079046115
15	0x3dc264b8	0.09491867
16	0x3e33883b	0.17532437
17	0xbbfa3082	-0.007635177
18	0xbd56e8de	-0.052468173
19	0x3d12a71a	0.03580389
20	0xbd1c592f	-0.03817099
21	0x3e03b6ad	0.12862654
22	0x3db31370	0.08743942
23	0x3e163533	0.14668731
24	0x3dee237e	0.11627863
25	0x3df33cf1	0.11876858
26	0x3d465268	0.048418432
27	0x3dc95393	0.09830394
28	0xbd05ffdd	-0.032714713
29	0x3b96d6cd	0.004603243
30	0xbcf13984	-0.02944637
31	0x3d5a57da	0.053306438
32	0xbe223270	-0.15839553
33	0xbdcd4d8f	-0.10024559
34	0xbcbcb657	-0.023036165
35	0x3e15a47a	0.14613524
36	0x3c951aea	0.01820131
37	0xbd862858	-0.06550664
38	0xbb1418d3	-0.0022597804
39	0xbda2e8e0	-0.07954574
40	0xbddd2ef7	-0.107999735
41	0x3df196b5	0.11796323
42	0xbd9180a9	-0.07104618
43	0xbd7bfcda	-0.061520435
44	0xbded87d9	-0.115981765
45	0x3e5690a3	0.20953612
46	0xbd9920f9	-0.07476992
47	0xbcd076ad	-0.025447214
48	0xbda52580	-0.08063793
49	0xbd5a984b	-0.053367894
50	0x3c463c57	0.012099347
51	0x3d28000d	0.041015673
52	0xbd75c62d	-0.06000345
53	0x3db8118c	0.08987722
54	0xbd8e9929	-0.06962807
55	0xbd8f67f1	-0.07002247
56	0xbe0e4b4d	-0.13895912
57	0xbd169542	-0.036763437
58	0xbcfecf56	-0.031104725
59	0x3d5d6206	0.05404856
60	0xbbf686a5	-0.007523375
61	0x3e1a9b75	0.15098365
62	0xbe05c79c	-0.13064426
63	0x3db87369	0.09006388
64	0x3de5fb41	0.112295635
65	0x3dd307c7	0.10304218
66	0x3e682405	0.2266999
67	0x3d5644bf	0.052311655
68	0x3cac9e4f	0.021071581
69	0xbca6edfd	-0.020377154
70	0xbd832361	-0.06403232
71	0x3e15941e	0.14607283
72	0x3b13c1ac	0.0022545857
73	0x3d37c194	0.044862345
74	0x3c17da20	0.009268314
75	0x3d40aa6f	0.04703754
76	0x3d5efffe	0.054443352
77	0xbd2754a7	-0.040852215
78	0xbe33c6dd	-0.17556329
79	0xbd7f3152	-0.062302895
80	0x3c5804c8	0.013184734
81	0xbc722182	-0.014778497
82	0xbdb78388	-0.089606345
83	0xbce069e7	-0.027394248
84	0x3d5b5c93	0.053555083
85	0x3d6e1dc3	0.05813385
86	0x3dcc8b7d	0.09987543
87	0x3cd6ae26	0.026206087
88	0x3da03e8f	0.07824432
89	0xbcdf4d39	-0.027258502
90	0xbd54f8bc	-0.051995024
91	0x3d809a3e	0.06279419
92	0xbdf3627b	-0.11884018
93	0xbd444669	-0.04791871
94	0x3de48332	0.11157836
95	0x3d80a5bc	0.06281611
96	0xbe3d6afb	-0.18497841
97	0x3d839a46	0.0642591
98	0x3da60526	0.08106451
99	0x3c455e7d	0.012046454
100	0x3d821ae8	0.06352788
101	0x3d619603	0.055074703
102	0x3dbbf49a	0.091775134
103	0xbd0d0727	-0.03443065
104	0xbc935a81	-0.017987492
105	0x3d909e1a	0.070614055
106	0x3d2e5e52	0.04257042
107	0x3cfe1c0d	0.031019235
108	0x3d1e50fc	0.03865145
109	0x3de285bc	0.11060664
110	0x3c8ff43a	0.017572511
111	0xbc340252	-0.010986881
112	0xbdc09375	-0.09403125
113	0x3c54a9fc	0.012979981
114	0xbd153f7c	-0.036437497
115	0x3d88d8e9	0.06681997
116	0x3d941083	0.07229712
117	0x3ceb247f	0.028703926
118	0xbc5b12c2	-0.013371171
119	0x3d45036d	0.04809897
120	0x3cc8c0ce	0.024505999
121	0x3d1e3984	0.03862907
122	0x3d14b51d	0.036305536
123	0x3da2cd42	0.07949306
124	0x3dbf6b37	0.093466215
125	0x3d257709	0.040396724
126	0x3d86436f	0.06555831
127	0x3d2798b1	0.040917102
128	0x3e1cb8c3	0.15304856
129	0x3d9acc4c	0.07558498
130	0xbdceca1a	-0.100971416
131	0xbd9d44ae	-0.07679115
132	0x3bd2b723	0.006430523
133	0x3e1475bd	0.14498039
134	0x3d8063dd	0.062690474
135	0x3d7e55fe	0.062093727
136	0x3dcc97f8	0.09989923
137	0x3cc18f6d	0.023627961
138	0xbdfc0c28	-0.12307006
139	0x3da75cdb	0.08172008
140	0x3aa88404	0.0012856727
141	0x3dc512cc	0.09622726
142	0xbd0995f6	-0.03359028
143	0x3d87f808	0.06639105
144	0xbd8e21d5	-0.06940047
145	0x3dcb88a4	0.099381715
146	0x3e164c15	0.1467746
147	0x3e0f7682	0.14010051
148	0x3d293ae6	0.041315936
149	0xbbcaacfc	-0.006185172
150	0xbc6cede2	-0.014461013
151	0x3d7040d4	0.058655575
152	0x3d30b9bd	0.043145884
153	0x3d930511	0.07178701
154	0xbd60053d	-0.054692496
155	0x3e13304f	0.14373897
156	0xbe6f8ecc	-0.23394316
157	0xbd90db63	-0.07073095
158	0xbe1f5198	-0.1555847
159	0x3cf946ab	0.030429205
160	0xbe603a6f	-0.2189729
161	0xbcbb362e	-0.022852983
162	0xbd17fe7d	-0.037107933
163	0xbd75566b	-0.059896868
164	0x3c8039a9	0.015652495
165	0xbd946ce0	-0.07247329
166	0x3c75d0f5	0.0150034325
167	0xbdb1680a	-0.08662422
168	0xbde80385	-0.11328796
169	0x3e226733	0.1585968
170	0x3e123c93	0.1428092
171	0x3cd820e1	0.026382865
172	0xbdccc3e6	-0.09998302
173	0x3dfb695c	0.12275955
174	0x3e06f285	0.13178451
175	0x3e6cf683	0.23140912
176	0x3d573ee5	0.052550215
177	0x3cb8ebed	0.022573436
178	0xbdb26a48	-0.08711678
179	0xbd0360b6	-0.032074653
180	0xbdaf0165	-0.08545188
181	0xbe1c5efa	-0.15270606
182	0xbe0b9a2e	-0.13633034
183	0xbdc1247e	-0.094307885
184	0xbdb69619	-0.089153476
185	0xbe3a9ca7	-0.1822382
186	0xbe60a09b	-0.21936266
187	0xbce385b0	-0.027773708
188	0x3d81414f	0.06311285
189	0xbd7660e4	-0.060150996
190	0x3d6efad9	0.058344696
191	0x3d7bd17b	0.061479073
192	0x3e2df62a	0.16988435
193	0xbd56bb46	-0.05242469
194	0x3dfce2dd	0.12347958
195	0xbb935506	-0.0044962196
196	0xbdac0037	-0.083984785
197	0x3d97466b	0.07386478
198	0x3dc84af5	0.09779922
199	0x3e3cb14b	0.18427007
200	0x3dc80f5c	0.097685546
201	0x3e735228	0.23761809
202	0xbd104442	-0.035221346
203	0xbdc9ac9e	-0.09847377
204	0x3b1d2e8f	0.002398405
205	0x3dc1ed0a	0.0946904
206	0x3ddfa9e7	0.10921078
207	0x3c1e897f	0.009676336
208	0xbdf7a85c	-0.12092659
209	0xbe090cfe	-0.13383862
210	0xbdb80179	-0.08984656
211	0xbdc84353	-0.09778466
212	0xbccfdc07	-0.025373472
213	0x3c2d01d0	0.010559514
214	0xbcc0562e	-0.023478594
215	0xbe5fa79e	-0.21841285
216	0xbd134b10	-0.035960257
217	0x3ddac23e	0.1068158
218	0xbe049011	-0.12945582
219	0x3e30bcd9	0.1725954
220	0x3d5d1fdd	0.053985465
221	0xbcbe7d9c	-0.023253255
222	0x3e0a8fb8	0.13531387
223	0x3e53c1d5	0.2067941
224	0x3d793b9c	0.060847864
225	0x3e39e16b	0.18152396
226	0x3d817695	0.06321446
227	0xbd3dc15e	-0.046326987
228	0xbcad21b4	-0.021134235
229	0xbbd080de	-0.0063630184
230	0x3d93417a	0.07190223
231	0x3e6a62c2	0.22889236
232	0x3d4f8d0b	0.05067162
233	0xbd3ab4b6	-0.045582496
234	0xbe461e72	-0.19347551
235	0xbd7a03ca	-0.06103877
236	0x3d72c85a	0.0592731
237	0x3d92eec0	0.07174444
238	0x3d6b0088	0.057373554
239	0x3c8b3aee	0.016995873
240	0xbd5e03ae	-0.054202728
241	0x3d9d48da	0.07679911
242	0x3c37c33c	0.011215981
243	0x3da9cfdf	0.082916014
244	0xbdba7d0e	-0.091058835
245	0x3c24eb8a	0.0100659225
246	0x3bbab03f	0.0056972797
247	0x3e37094d	0.17874642
248	0x3e136267	0.14393006
249	0xbdaf0723	-0.08546283
250	0x3de26998	0.11055297
251	0x3dc2816a	0.0949734
252	0x3dc795b0	0.097453475
253	0x3da2ec75	0.07955257
254	0x3cf6b296	0.030114453
255	0x3d67862a	0.056524433

conv1.bias f4 [16]
0	0x3cce0459	0.025148557
1	0x3a1f7fd0	0.0006084414
2	0x3cd2c2e5	0.025727699
3	0x3cd26ece	0.025687601
4	0x3c08174c	0.008306336
5	0x3d395e73	0.04525609
6	0xbb4f5e93	-0.0031642064
7	0x3cb353bb	0.021890512
8	0x39afe0d1	0.00033546102
9	0x3c6b0583	0.014344576
10	0x3c61c9f8	0.013781063
11	0xbbd6940a	-0.0065484094
12	0x3d2cb7ee	0.042167597
13	0x3c7bc480	0.0153666735
14	0x3a4789cb	0.00076117803
15	0xbd0b295a	-0.033974983

conv2.weight f4 [64, 16, 5, 5]
0	0x3cd01ebe	0.025405284
1	0x3cd2f4b3	0.025751447
2	0x3ce79fde	0.028274473
3	0x3d7d4fab	0.061843555
4	0x3c53caa5	0.012926732
5	0x3c1e2c02	0.009654047
6	0xbb3a59fd	-0.0028434985
7	0x3c21ab82	0.009867551
8	0xbc940ac8	-0.018071547
9	0xbd145a61	-0.036219005
10	0xbccc2251	-0.024918707
11	0x3c7d747f	0.015469669
12	0xbd08911f	-0.033341523
13	0xbc866c86	-0.01640917
14	0x3c848389	0.016176002
15	0xbd0af118	-0.03392133
16	0xbc782e9b	-0.01514783
17	0x3c14fd53	0.0090936
18	0x3d08a7b7	0.03336307
19	0x3ca1a981	0.019734146
20	0xbbe16db4	-0.0068795327
21	0x3bad7d23	0.0052944585
22	0x3af42ff6	0.0018630016
23	0xbb43db66	-0.002988541
24	0xbd1a7d44	-0.03771712
25	0x3d1412c5	0.036150713
26	0x3c0274a5	0.007962381
27	0x3caa5699	0.020793246
28	0x3cac4d4c	0.021032952
29	0x3d63cab9	0.055613253
30	0xbccf4ee0	-0.025306165
31	0xbb9e0890	-0.004822798
32	0xbc06e9bf	-0.00823444
33	0xbd4e2bcd	-0.05033474
34	0xbd77bee1	-0.06048477
35	0xbd1ceabf	-0.03830981
36	0xbc3cd98e	-0.011526478
37	0xbd5f5fb0	-0.054534614
38	0xbbc6d8a7	-0.0060683074
39	0xbd7a1ad5	-0.061060745
40	0x3b404023	0.0029335103
41	0xbc3f7325	-0.011685167
42	0xbd13ebb9	-0.036113475
43	0x3c7dcbeb	0.015490512
44	0xbc41a728	-0.011819638
45	0xbb8b72de	-0.0042556366
46	0x3c770e27	0.015079058
47	0x3d068457	0.032841053
48	0x3bfab497	0.0076509225
49	0x3d220965	0.03955974
50	0xbbb26858	-0.0054445677
51	0x3b6da13b	0.003625943
52	0xbc84db77	-0.01621793
53	0x3c02b3eb	0.007977466
54	0xba8bf6b8	-0.0010678386
55	0x3c2137d5	0.009839972
56	0x3cce6f89	0.025199668
57	0xbcab93d7	-0.020944519
58	0xbbf0a6d3	-0.0073441057
59	0x3cfb2d76	0.030661326
60	0xbc0d5a9c	-0.00862756
61	0xbc04269d	-0.008065847
62	0x3d09d5aa	0.03365103
63	0x3dc1020f	0.09424221
64	0xbd120d9f	-0.03565752
65	0xbd397de1	-0.045286063
66	0xbbe81116	-0.007082115
67	0x3d516c04	0.051128402
68	0x3ca6d465	0.02036495
69	0x3c328b55	0.010897477
70	0x3c0b8a36	0.008516839
71	0x3b03de83	0.002012164
72	0x3d8ccb75	0.06874744
73	0xbcc84f90	-0.024452
74	0x3b39a6ae	0.0028328109
75	0xbc08d76a	-0.00835214
76	0x3ca4ae39	0.020102607
77	0x3d4d04e5	0.050053496
78	0x3d105e0e	0.035245948
79	0x3c36e88c	0.011163842
80	0x3bd31e7b	0.0064428425
81	0xbabc3878	-0.0014360091
82	0x3cbee9cf	0.023304848
83	0x3c7e842f	0.015534445
84	0xbb7f77a8	-0.0038981233
85	0xbd90a883	-0.07063391
86	0xbb4d75e2	-0.0031350781
87	0xbcbdf3a8	-0.023187473
88	0xbd3ea53f	-0.04654431
89	0xbd999fa6	-0.07501154
90	0xbc68ae58	-0.014201723
91	0xbd270264	-0.040773764
92	0xbcc60905	-0.024174223
93	0x3d15d06b	0.036575716
94	0xbd2fb00a	-0.042892493
95	0xbc7d5daa	-0.015464226
96	0x3b88f7d8	0.004179936
97	0x3c7e7d20	0.015532762
98	0x3d088a35	0.03333493
99	0x3d5ab061	0.053390864
100	0xbbd4138d	-0.006472057
101	0xbcbf08f3	-0.023319697
102	0xbc86b53e	-0.016443845
103	0x3b0de523	0.0021651469
104	0xbc6a250e	-0.014291061
105	0xbd081645	-0.033224363
106	0xbc91a4c7	-0.017778767
107	0xbb81d7f8	-0.003962513
108	0xbcad5bc8	-0.021161929
109	0xbc89bda7	-0.016814066
110	0xbb9b8cf6	-0.0047470285
111	0xbc95f04b	-0.018303057
112	0xbc41c5ef	-0.011826976
113	0xbaff24b0	-0.001946589
114	0xbcd42290	-0.025895387
115	0xbd53fb8a	-0.05175356
116	0xbcac023e	-0.020997163
117	0x3c877dfc	0.016539566
118	0xbaae4eaa	-0.001329859
119	0x3cc22c26	0.023702692
120	0x3bc4d762	0.006007121
121	0x3c24c4fe	0.010056732
122	0xbb616249	-0.0034390858
123	0x3c815eb0	0.01579222
124	0x3c5c95a6	0.013463413
125	0xbb9c8eaa	-0.004777749
126	0xbb1a719e	-0.0023566256
127	0xbccd9b03	-0.02509833
128	0x3c065cee	0.008200867
129	0xbbcdd93b	-0.0062819994
130	0x3c8d0033	0.017212009
131	0xbb542011	-0.0032367746
132	0xbd2b4e00	-0.041822433
133	0x3c3acbfd	0.011401174
134	0xbb012487	-0.001970561
135	0xbd48d7fb	-0.0490341
136	0xbcdd97e0	-0.027049959
137	0xbbf13860	-0.0073614568
138	0xbc74e96b	-0.014948229
139	0x3c57cfa7	0.013172067
140	0x3cfd6387	0.030931247
141	0x3c742ec5	0.014903729
142	0xbc87c784	-0.016574629
143	0xbd04367f	-0.032278534
144	0xbd02ca9b	-0.0319315
145	0xbca9e515	-0.020739118
146	0xbc39ac04	-0.011332516
147	0xbd0e947b	-0.03480957
148	0xbc601f69	-0.013679364
149	0xbcc9621b	-0.024582913
150	0xbcaffe84	-0.021483667
151	0x3b46b77e	0.0030321772
152	0xbba7207d	-0.0051003085
153	0xbb33fae3	-0.0027462773
154	0xbb48866a	-0.0030597695
155	0x3cb2fc51	0.02184883
156	0x3ce457d0	0.027873904
157	0x3b609bf0	0.0034272633
158	0x3c8e0a43	0.017338878
159	0x3cf1b9a6	0.02950747
160	0x3c708b17	0.014681599
161	0x3ce706b4	0.028201438
162	0xbb02460e	-0.0019878182
163	0x3cf6e4e4	0.03013844
164	0xbcb8002c	-0.02246102
165	0x3c17f5fe	0.009274958
166	0xbc2c533f	-0.010517894
167	0xbc39920a	-0.011326322
168	0xbcb73f4d	-0.022369051
169	0xbd23b8dc	-0.039971218
170	0x3b99fa5a	0.0046990337
171	0xbba87bfc	-0.005141733
172	0xbaf30ef8	-0.001854389
173	0xbcae1216	-0.021248858
174	0xbd067dfa	-0.032834984
175	0xbc7739e8	-0.0150894895
176	0x3d44a4aa	0.0480086
177	0xbc8ffebd	-0.017577523
178	0x3ccbf0b0	0.024895042
179	0xbcf54c99	-0.029943751
180	0xbbf6a613	-0.007527122
181	0x3bebbc22	0.007194058
182	0x3a449f27	0.0007500522
183	0x3c8858ee	0.016643967
184	0x3b76e0e4	0.0037670666
185	0x3c06f139	0.008236223
186	0x3c82baa7	0.015958143
187	0xbcbcf1d7	-0.023064537
188	0x3ccc235f	0.02491921
189	0x3c0cbad0	0.008589461
190	0x3d3231b3	0.043504428
191	0xbbef29fc	-0.007298706
192	0xbcea8916	-0.02862982
193	0xba393f02	-0.0007066579
194	0xbccc4a3b	-0.02493774
195	0xbc16777d	-0.009183762
196	0xbbba706e	-0.005689672
197	0xbcd3cbfc	-0.025854103
198	0xbca8f030	-0.020622343
199	0xbd5139eb	-0.051080626
200	0x3cc1eed6	0.023673456
201	0x3c5cea13	0.013483542
202	0x3c275c79	0.010214918
203	0x3b523c2d	0.0032079325
204	0xbbdd428f	-0.006752319
205	0xbc88e6a4	-0.01671154
206	0xbc029d3d	-0.007972059
207	0xbcf679b9	-0.030087339
208	0xbd0a5c2f	-0.03377932
209	0xbd2b03bc	-0.04175161
210	0xbccb75e5	-0.02483649
211	0xbc6087a1	-0.013704211
212	0xbcb239a5	-0.021756003
213	0x3d03dcf3	0.032193135
214	0x3a2e56c5	0.0006650503
215	0x3b91ee6c	0.004453471
216	0xbb3ee008	-0.0029125232
217	0x3b92c04e	0.004478491
218	0x3c452799	0.012033367
219	0xbb893ee2	-0.0041884044
220	0xbc3e2fd3	-0.011608082
221	0x3be829b9	0.007085052
222	0x3ca9ac19	0.020711945
223	0x3cfe02e1	0.031007232
224	0xbc009b92	-0.007849591
225	0x3d39d059	0.04536471
226	0x3d7d17be	0.06179022
227	0xbab7d01d	-0.0014023815
228	0x3d3c587d	0.045982827
229	0x3d2b0fed	0.041763235
230	0x3d80ec86	0.06295113
231	0xbcf7cbf8	-0.030248627
232	0xbd779f50	-0.060454667
233	0xbce6f184	-0.028191335
234	0xbcfd9bfc	-0.030958168
235	0xbd77bfce	-0.060485654
236	0xbd5755c7	-0.052572038
237	0xbd874268	-0.06604463
238	0x3c8c7914	0.017147578
239	0xbdaac134	-0.08337632
240	0xbc4aaeba	-0.01237076
241	0xbcfa2140	-0.030533433
242	0xbd45afa9	-0.048263226
243	0x3c80bc1c	0.015714698
244	0x3c0f2c4b	0.008738588
245	0x3c8a7697	0.016902251
246	0xbcd31b74	-0.025769927
247	0x3d6ac7d1	0.057319466
248	0x3d06dd08	0.032925636
249	0x3d9f876a	0.077895
250	0xbc033674	-0.008008588
251	0x3bf0b3e3	0.007345663
252	0xbc2876c3	-0.010282221
253	0xbbd389b2	-0.0064556235
254	0xbccbd114	-0.02487997
255	0x3d586698	0.052832216

conv2.bias f4 [64]
0	0xbcb06be8	-0.021535829
1	0x3ab402ba	0.0013733723
2	0xbd284ef8	-0.041090935
3	0xbccbb898	-0.024868295
4	0x3c0d68f7	0.008630983
5	0x3be440c8	0.0069657303
6	0x3c05f472	0.008175956
7	0x3b1fe842	0.002439991
8	0x3c75c9b2	0.015001701
9	0xbc8a06d8	-0.016848966
10	0x3c679a36	0.014135888
11	0xbc6e8924	-0.014559064
12	0x3be14abf	0.0068753655
13	0xba766fe1	-0.00094008265
14	0xbb0758ad	-0.002065222
15	0xbbf287cc	-0.007401442
16	0xbb0bf992	-0.0021358472
17	0xbb1ef504	-0.0024254927
18	0xbc4d730e	-0.012539638
19	0x3cd64848	0.026157513
20	0xbb945388	-0.0045265593
21	0x3ac65bb4	0.0015133531
22	0x3c7a6ff4	0.015285481
23	0xbb92c31d	-0.0044788257
24	0x3ca3b4af	0.019983618
25	0x39460f34	0.00018888415
26	0xbba97a05	-0.0051720166
27	0x3c31e592	0.0108579565
28	0xbadc15ae	-0.0016791129
29	0x3b8cb510	0.0042940453
30	0xbd0af26c	-0.033922598
31	0x3bd02a74	0.006352717
32	0xbcf3026b	-0.029664239
33	0x3adbccb3	0.0016769379
34	0x3ac717a6	0.0015189543
35	0xbbeeaad4	-0.007283548
36	0xbc8c8890	-0.017154962
37	0xbab2c76b	-0.0013639753
38	0xbbc5e5dd	-0.0060393647
39	0x3cb8a633	0.022540187
40	0x3c744977	0.0149100935
41	0x3c180f87	0.009281046
42	0x3b51bfd1	0.00320052
43	0xbbaf1d89	-0.005344097
44	0xbbe9dd87	-0.007137004
45	0xbb9c47e4	-0.004769312
46	0x3c7241af	0.014786168
47	0xbc5ce69c	-0.013482716
48	0xbc7411f7	-0.014896861
49	0xbbd6d9e7	-0.0065567377
50	0xbc84ac00	-0.016195297
51	0xbc383dd1	-0.011245207
52	0x3caf8cce	0.021429446
53	0xb92cfb42	-0.00016496799
54	0xbc18bcfa	-0.009322399
55	0xbbcf1897	-0.00632007
56	0x3c1ba34c	0.009499382
57	0x3bb81085	0.0056172037
58	0x3c21fc3b	0.009886797
59	0xbb82d5c9	-0.0039927703
60	0xbba7ddf7	-0.005122896
61	0xbac00214	-0.0014649057
62	0xb9a9b2cc	-0.00032367406
63	0xbbf88076	-0.007583673

conv3.weight f4 [8, 64, 5, 5]
0	0x3a02c43a	0.00049883465
1	0x36bcea42	5.630108e-06
2	0xb3c82747	-9.32037e-08
3	0xb9b8cdcb	-0.00035248543
4	0x33d3af95	9.857391e-08
5	0x3649c9b5	3.0068743e-06
6	0x37823e03	1.5526084e-05
7	0xb33a03e2	-4.331003e-08
8	0x3c17d9be	0.009268222
9	0xb2d22416	-2.4463628e-08
10	0x3ac614b8	0.0015112376
11	0xbadd63ec	-0.0016890741
12	0x39bc8cbc	0.0003596301
13	0xbc161184	-0.0091594495
14	0xb3d28112	-9.802365e-08
15	0x352b365c	6.378157e-07
16	0x34528ece	1.9609726e-07
17	0xb5c45866	-1.4628865e-06
18	0x3acb61dd	0.0015516836
19	0x36254c18	2.4631208e-06
20	0x31a30e46	4.745547e-09
21	0x3501ae46	4.8309846e-07
22	0x35023e71	4.851964e-07
23	0x3b0c6ea1	0.0021428245
24	0x3282c7bf	1.5224826e-08
25	0x3ca870fc	0.020561688
26	0x3af04210	0.0018330235
27	0xbc387546	-0.011258429
28	0xbb1cd47d	-0.0023930364
29	0x3a4f9b0c	0.0007919527
30	0xbb439be3	-0.0029847554
31	0xbbd2a2c5	-0.006428095
32	0x3b8e6718	0.004345786
33	0x3c1e71a9	0.009670653
34	0xae9cd280	-7.131451e-11
35	0x3cb286e5	0.021792838
36	0xb98e9433	-0.00027194768
37	0xb9b4882f	-0.0003443374
38	0xbc5612f1	-0.013066039
39	0x3c6dd529	0.014516153
40	0xbbf42f81	-0.007451952
41	0xba8ca334	-0.0010729791
42	0x3b9c9a33	0.004779124
43	0xba3de6aa	-0.00072441495
44	0xb843063f	-4.649744e-05
45	0xb9f88fd8	-0.00047409418
46	0xb7e0572a	-2.674347e-05
47	0xb9a2991c	-0.00031013123
48	0x399093b9	0.00027575882
49	0xb8afaeff	-8.377246e-05
50	0xb9f48242	-0.00046636356
51	0xbc54a116	-0.012977859
52	0xbc90ad1b	-0.017660668
53	0x3bfda30a	0.007740383
54	0xbbaa53e1	-0.0051979874
55	0x3c4a627f	0.012352585
56	0x3cb0b13c	0.021568887
57	0xbbb13354	-0.00540773
58	0x3ba0e312	0.0049098814
59	0x3a5a98b8	0.0008338797
60	0xbc81fb6f	-0.015866963
61	0x3c5bdd56	0.01341947
62	0x3b682313	0.0035421296
63	0x3bfa6f9f	0.007642701
64	0xbaa21232	-0.0012365042
65	0x3c04b735	0.008100321
66	0xbc0d15c9	-0.008611151
67	0xbd13c7ff	-0.036079403
68	0x3b948bff	0.0045332904
69	0x3c2ec6ce	0.010667516
70	0xbcf0c332	-0.029389951
71	0x3ba316ec	0.0049770977
72	0xbcbbd947	-0.022930754
73	0xbcbefc26	-0.023313593
74	0x3ad98157	0.0016594332
75	0xbc1bf403	-0.009518626
76	0xbb2643e9	-0.0025370067
77	0xbc9bbaac	-0.01900991
78	0xbb75c40d	-0.0037500889
79	0xb97beae6	-0.00024024732
80	0x3c7d0b66	0.015444612
81	0x3b8a447c	0.0042195898
82	0xbc4cc232	-0.012497472
83	0xba20e359	-0.0006137393
84	0xb82df594	-4.1475127e-05
85	0xbbeefb5e	-0.007293149
86	0xbc2fa87b	-0.010721321
87	0xbba35b8c	-0.0049852785
88	0x3c157bd8	0.009123765
89	0x3c1fdc41	0.0097571025
90	0x3b175816	0.0023093275
91	0xbb4530a1	-0.00300888
92	0x3c9fa155	0.019486109
93	0x3bfafd1b	0.007659567
94	0xbb1029f2	-0.0021997658
95	0xbbe2d595	-0.0069224336
96	0xbc5d10be	-0.013492761
97	0xbce84c3f	-0.02835667
98	0x3c037faa	0.008026043
99	0xbb9bbe08	-0.004752878
100	0xbc049103	-0.008091214
101	0x3b8af997	0.004241179
102	0x3bb2e8c7	0.005459878
103	0xbc1d6c0f	-0.009608283
104	0xba17e96b	-0.0005794975
105	0x3a9965c4	0.0011703302
106	0xb2054a50	-7.758516e-09
107	0x39f830e3	0.0004733867
108	0xbaf184e7	-0.0018426449
109	0x345877a2	2.016009e-07
110	0x3c585287	0.01320327
111	0xbad5ca8b	-0.0016310973
112	0xbbcfc04a	-0.0063400613
113	0x3ac16938	0.0014756089
114	0xb8b0f39c	-8.43771e-05
115	0xbb771a00	-0.0037704706
116	0xba809b0d	-0.0009811834
117	0x3a760373	0.0009384669
118	0xb8e70b4c	-0.000110170426
119	0xb29b30c0	-1.8066544e-08
120	0xba40b1b5	-0.0007350699
121	0x336ba37b	5.4863886e-08
122	0xb821313d	-3.8431248e-05
123	0x35a1eb5c	1.2063933e-06
124	0xb38f4020	-6.670621e-08
125	0xbc75d308	-0.015003927
126	0xbc992f7a	-0.018699396
127	0x3bd93f25	0.006629842
128	0x3c1d2f17	0.009593747
129	0x3b096345	0.002096371
130	0xbb403088	-0.0029325802
131	0x3c3b868d	0.011445654
132	0x3b937389	0.004499857
133	0x3a0ae44d	0.00052983017
134	0xbb5340f9	-0.0032234772
135	0x3b712540	0.0036795884
136	0x3ba9ecfa	0.0051857205
137	0xbccbd00b	-0.024879476
138	0x3cb753e8	0.022378877
139	0xbb9bdf07	-0.0047568115
140	0xbca32516	-0.019915145
141	0x39e3978d	0.00043409728
142	0xbc59da1b	-0.013296629
143	0xbc40de2f	-0.011771723
144	0xbbaa2766	-0.005192685
145	0xbc0bca02	-0.008532049
146	0xbc44d923	-0.01201466
147	0xbbe6872b	-0.0070351562
148	0x3ba8cb79	0.005151209
149	0x39cb4be2	0.00038775714
150	0xbcbb670d	-0.022876287
151	0x3be5e2c9	0.0070155603
152	0xbbc3bf4e	-0.005973733
153	0x3bf9fda8	0.007629115
154	0xb9b7f422	-0.00035086373
155	0xb9c52171	-0.00037599684
156	0xbbc3a7fc	-0.005970953
157	0x3c36c68d	0.011155737
158	0x3be10222	0.0068667093
159	0x34584ef3	2.0145289e-07
160	0x3cb015a5	0.021494696
161	0xbcc8abb1	-0.024495931
162	0xbb2f7b08	-0.0026776213
163	0x3b666634	0.0035156133
164	0x3b9b8387	0.004745904
165	0xbc2c9516	-0.010533592
166	0x3b25930a	0.0025264644
167	0xbbba71ab	-0.00568982
168	0xbc01fef2	-0.007934319
169	0xb742eb01	-1.1618017e-05
170	0xbb3a3bc7	-0.0028416978
171	0x3b40ed70	0.0029438399
172	0xbb238f1e	-0.002495713
173	0xbb80a1e7	-0.0039255503
174	0xbb950dc9	-0.0045487625
175	0xba0c1d0a	-0.00053449033
176	0x3a99b09e	0.001172561
177	0xbac01e1d	-0.0014657412
178	0xb9ad144f	-0.00033012262
179	0xb3c3555a	-9.0959205e-08
180	0xbab50ef1	-0.0013813657
181	0xb9cb8d66	-0.00038824527
182	0xb90307ad	-0.00012495993
183	0xbb634d49	-0.0034683517
184	0x3255b39a	1.2439068e-08
185	0x3a22cf87	0.00062107336
186	0xb956b622	-0.0002047648
187	0x3a8bc4ad	0.0010663472
188	0xb5052ba0	-4.9609844e-07
189	0x345e149f	2.0682863e-07
190	0x3758beea	1.2919054e-05
191	0xba022d34	-0.0004965842
192	0x3ab309ed	0.0013659574
193	0xba479b78	-0.0007614414
194	0x33554546	4.965593e-08
195	0x35f28e98	1.8071905e-06
196	0xb68f1652	-4.2643305e-06
197	0xb82ecd92	-4.1676285e-05
198	0x346d9c0c	2.2129115e-07
199	0xb40caea1	-1.3102046e-07
200	0xbc397d00	-0.011321306
201	0xbbf8d36c	-0.007593563
202	0xbb080a6f	-0.0020758172
203	0x3bd8bbc2	0.0066141794
204	0x31d9ac96	6.335152e-09
205	0x3bf0fb08	0.007354144
206	0x3b045113	0.0020189926
207	0xbc096590	-0.008386031
208	0x3c84cd92	0.016211305
209	0x34868775	2.5058003e-07
210	0xbb073bb7	-0.0020634958
211	0x3af9ddd2	0.00190633
212	0x37d14e5b	2.4951229e-05
213	0xbb89c3e8	-0.004204262
214	0x387adb95	5.9809146e-05
215	0xbb0c3921	-0.0021396356
216	0x3c8ad258	0.016946003
217	0x39bb67b1	0.00035744676
218	0xbc0466fe	-0.008081196
219	0xb8a9844d	-8.083191e-05
220	0xbb2b6ab2	-0.0026156125
221	0xb978c267	-0.00023723544
222	0x3add96a5	0.0016905857
223	0xbcbdb42d	-0.023157204
224	0xb95d84c1	-0.00021125657
225	0x3bbf9b53	0.0058473735
226	0xbb1024a5	-0.0021994498
227	0xbc2c5fdb	-0.010520901
228	0x3bd49527	0.006487507
229	0xb9758eb6	-0.00023418185
230	0x3c970ef8	0.018439755
231	0x3cabcc39	0.020971404
232	0xbabe8c80	-0.0014537722
233	0x3c07efab	0.008296887
234	0xba8d6fa6	-0.001079072
235	0x3c7fc225	0.0156102525
236	0xbc4f02ae	-0.012634916
237	0x3b9ef77d	0.0048512802
238	0x3ab46689	0.0013763468
239	0xb9cf91bc	-0.00039590697
240	0x3b88a057	0.0041695046
241	0xbc2d6187	-0.010582334
242	0xbc9a028f	-0.018800048
243	0xbc3ead93	-0.011638063
244	0xba9b5e61	-0.0011853689
245	0x3ac15f27	0.0014753089
246	0x3b403b33	0.002933216
247	0xbbb4fcf6	-0.0055233194
248	0xbc329320	-0.010899335
249	0xb98e10e5	-0.00027096938
250	0xba566a49	-0.000817929
251	0x3c1a3a19	0.009413266
252	0xbb0bbab7	-0.0021321008
253	0xbbb2105d	-0.0054340796
254	0x3a643ddf	0.0008706729
255	0x3cba86d1	0.022769364

conv3.bias f4 [8]
0	0xbbca94ef	-0.006182305
1	0xbb31021b	-0.0027009312
2	0x3c451dbb	0.012031014
3	0xbb461838	-0.0030226838
4	0xbb444317	-0.0029947215
5	0xbb8058cf	-0.003916837
6	0x3ca31a79	0.019910084
7	0xbaea8f09	-0.0017895411

fc1.weight f4 [8, 32]
0	0xbc8c5f43	-0.017135268
1	0xbcd16e07	-0.02556516
2	0xbc7d6ea0	-0.01546827
3	0xbc1b3d18	-0.009475015
4	0xbe25eff2	-0.16204813
5	0xbe0b1539	-0.13582315
6	0xbe335201	-0.17511751
7	0x3db9b413	0.090675496
8	0x3e0cd660	0.13753653
9	0x3d9af3c9	0.075660296
10	0x3c973c56	0.018461388
11	0xbdd257b6	-0.10270636
12	0x38e9e09e	0.00011152144
13	0x3da59364	0.08084753
14	0xbd9a8329	-0.07544548
15	0x3e785873	0.2425249
16	0xbe073e4f	-0.13207363
17	0x3e7402e2	0.23829225
18	0x3df9f152	0.12204231
19	0x3dcc8fef	0.09988391
20	0xbb17517c	-0.002308934
21	0x37836812	1.5664878e-05
22	0x3e2e0854	0.16995364
23	0x32f38468	2.8349135e-08
24	0xbe44ab72	-0.19206026
25	0xbdc7ed09	-0.09762008
26	0xbe35853c	-0.17726606
27	0xbd115512	-0.03548152
28	0x3d8d3a87	0.06895929
29	0x3d75aeed	0.059981275
30	0x3d1db5e8	0.038503557
31	0x3d259099	0.040421102
32	0xbd1dab0c	-0.0384932
33	0xba4caebf	-0.00078080216
34	0xbbfa03b4	-0.007629836
35	0x3cca22c2	0.024674777
36	0xbcc34d5f	-0.023840604
37	0x3e8884d1	0.2666383
38	0xbc9694f4	-0.018381573
39	0x3e741eb7	0.23839842
40	0xbdd5359d	-0.104106165
41	0x3eacaa9a	0.3372391
42	0xbd861da2	-0.06548621
43	0xbceab65c	-0.028651409
44	0x3e0e19e7	0.13877068
45	0xb8a668ca	-7.935015e-05
46	0xbcab745c	-0.020929508
47	0x3e4bf6cf	0.19918369
48	0xbe7d4772	-0.24734285
49	0x3dd696ce	0.104779825
50	0xbd1dee18	-0.038557142
51	0x3ce509bd	0.027958745
52	0xbd9f10ad	-0.077668525
53	0xbd3289f5	-0.043588597
54	0xbc0012c5	-0.007816975
55	0xbc022e8e	-0.00794567
56	0xbe3f692b	-0.18692462
57	0x3e14c51e	0.14528319
58	0xbe28b129	-0.16473831
59	0x3c783d3f	0.015151321
60	0xbe3b2941	-0.18277456
61	0xbeaa4ada	-0.33260232
62	0xbcbccbba	-0.023046363
63	0xbda3ad16	-0.07991998
64	0x3c33a435	0.010964443
65	0xbd5bf008	-0.05369571
66	0xb7303200	-1.0502059e-05
67	0x3d10a5f7	0.035314526
68	0x3d3c3a57	0.045954075
69	0x3db163cf	0.08661615
70	0xbde12da4	-0.109950334
71	0xba348a3c	-0.00068870536
72	0xbdfa4786	-0.12220673
73	0xbd11c94b	-0.03559236
74	0x3e6aee1b	0.22942393
75	0x3df44e8b	0.119290434
76	0xbcb3f2d3	-0.021966374
77	0x3422630e	1.5123462e-07
78	0x39cbfa00	0.00038905442
79	0x3d17b58b	0.037038367
80	0xbe6bca76	-0.23026451
81	0xbe31b7e7	-0.1735531
82	0xbc8e0d29	-0.01734026
83	0x3dc516a4	0.09623459
84	0xbce53a25	-0.027981827
85	0xbc170ade	-0.0092188995
86	0x3ce7f86a	0.028316695
87	0x3daa6947	0.08320861
88	0x3dbdd744	0.09269574
89	0xbe141d6b	-0.14464347
90	0x3e69a845	0.22818096
91	0xbd1e2478	-0.038608998
92	0x3dc74828	0.097305596
93	0xbcce88a5	-0.025211642
94	0x3e545bcf	0.20738147
95	0xbd450cc7	-0.04810789
96	0xbda3aba3	-0.079917215
97	0xbdc51794	-0.09623638
98	0xba03e52c	-0.00050314027
99	0x3dd0aca3	0.10189178
100	0x3e5c1aec	0.21494645
101	0x3c42a820	0.011880904
102	0x3d251945	0.040307302
103	0xbe2af7fd	-0.16696163
104	0xbd7df015	-0.06199654
105	0xbdce6648	-0.10078102
106	0xbdd219ab	-0.10258802
107	0x3cbc9cd7	0.023024006
108	0x38ca2cba	9.6404416e-05
109	0xba4dac63	-0.0007845817
110	0xbd99351d	-0.07480834
111	0x3e583e99	0.21117629
112	0x3ce4f627	0.027949406
113	0xbd81b898	-0.063340366
114	0x3e613a76	0.21994957
115	0x3d869cd9	0.06572885
116	0xbd5ebe0a	-0.054380454
117	0x3c790ecb	0.015201281
118	0xbb413d8b	-0.0029486145
119	0xbc95efa0	-0.018302739
120	0xbdb31165	-0.08743552
121	0xbdb79cd4	-0.089654595
122	0x3ade3c0a	0.0016955149
123	0xbcd0dcbe	-0.025495883
124	0xbdc27a05	-0.0949593
125	0x3e5db47d	0.21650882
126	0xbc46d417	-0.012135527
127	0x3d774af8	0.06037423
128	0xbc452af2	-0.012034165
129	0xbc0979aa	-0.008390823
130	0x39ea603a	0.00044703652
131	0xbe0a197e	-0.13486287
132	0xbe09f808	-0.13473523
133	0xbe2c3731	-0.16817929
134	0x3e36e1cc	0.17859572
135	0x3e8d5d5c	0.2761029
136	0xbcabe1a1	-0.020981612
137	0x3e89b7d1	0.26898053
138	0x3bf9b43c	0.0076203626
139	0x3eef9d4b	0.46799693
140	0xb8146ab1	-3.5385314e-05
141	0x34985845	2.837643e-07
142	0x3ce3900e	0.027778652
143	0x396dff58	0.00022697204
144	0xbd9faf34	-0.07797089
145	0x3d9e337a	0.07724662
146	0x3d8b9868	0.068161786
147	0xbe4152a6	-0.18879184
148	0xbd439e18	-0.04775819
149	0x3ad3f86b	0.0016172057
150	0x3b6a8a40	0.003578797
151	0x3b239191	0.002495859
152	0xbcb25df8	-0.021773323
153	0xbca8e9ca	-0.020619292
154	0xbe0aeb78	-0.13566387
155	0x3e57f8df	0.2109103
156	0x3e14c658	0.14528787
157	0xbd25f484	-0.04051639
158	0x3b53cc43	0.0032317794
159	0xbdbf9ddd	-0.09356282
160	0xbd8d6e3e	-0.06905793
161	0xbd0ac08e	-0.03387504
162	0xbdce2a5b	-0.100666724
163	0xbd15587b	-0.036461335
164	0x3c561e32	0.013068723
165	0x3e0376f5	0.12838347
166	0xbd86b6e2	-0.06577851
167	0x3e5766f9	0.21035375
168	0xbd9cb10a	-0.07650955
169	0x3dfece72	0.1244172
170	0xbe4a8836	-0.19778523
171	0x3e1aee43	0.15129952
172	0xb80cf890	-3.3610093e-05
173	0xb572b318	-9.041264e-07
174	0x3c2e1997	0.010626218
175	0x3c8a28f2	0.016865227
176	0xbd227502	-0.03966237
177	0x3e8e3e56	0.27781934
178	0x3d4f882c	0.050666973
179	0xbd7e071f	-0.06201851
180	0xbdfc83ef	-0.12329852
181	0xbc16db0f	-0.009207501
182	0xbd8c5d93	-0.06853785
183	0xbc16ff81	-0.00921619
184	0xbe37afcf	-0.1793816
185	0xbce6336d	-0.028100694
186	0x3e98a62c	0.2981428
187	0x3c76584d	0.015035701
188	0xbc2272ca	-0.009915063
189	0xbd9e1196	-0.07718198
190	0xbe1b5271	-0.15168168
191	0x3b71bebd	0.003688737
192	0xbd75d4e0	-0.060017467
193	0xbe8f0064	-0.27929986
194	0x36867dec	4.0081704e-06
195	0x3e515cf1	0.2044561
196	0xbe72b3b0	-0.23701358
197	0x3d03627c	0.032076344
198	0x3c8f7ad0	0.017514616
199	0xbb9a0948	-0.0047008134
200	0xbdea280f	-0.11433422
201	0xbd930fc7	-0.07180744
202	0x3ecd24e6	0.40067214
203	0x3e3d0d81	0.18462183
204	0x3d0b1dd4	0.033963993
205	0x3d25377b	0.040336113
206	0x35280733	6.2595353e-07
207	0xbb28621d	-0.0025693246
208	0x3d20c431	0.039249603
209	0xbdffc934	-0.12489548
210	0x3d03d3a5	0.03218426
211	0x3d2e315e	0.04252755
212	0x3cd313e0	0.025766313
213	0xbd8b7db1	-0.06811083
214	0xb61c6a21	-2.3307587e-06
215	0xb7b93d15	-2.2082162e-05
216	0xbe4f857d	-0.20265765
217	0x3e6aee62	0.22942498
218	0xbde9aeed	-0.114103176
219	0x3d80af7b	0.0628347
220	0xbdffc185	-0.12488083
221	0x3e25d0dd	0.16192956
222	0x3e54d859	0.20785655
223	0xbd72a148	-0.05923584
224	0xbdce9115	-0.10086266
225	0x3db4e1da	0.0883214
226	0x3d8dd894	0.069260746
227	0x3b06b3d6	0.0020553968
228	0x3e81b87b	0.2533606
229	0xbe1301d3	-0.14356165
230	0x3e3b00c0	0.18262005
231	0xbcab4b8a	-0.020910043
232	0xbda70652	-0.081555024
233	0x3e07a73e	0.13247392
234	0xbe8266f9	-0.25469187
235	0x3d12ad24	0.03580965
236	0x3d2fcb9f	0.042918798
237	0x330b0ffd	3.2378e-08
238	0xbae97362	-0.0017810876
239	0xbd887ee4	-0.066648275
240	0x3e494b29	0.19657578
241	0xbd96c731	-0.073622115
242	0x3e083a51	0.13303496
243	0xbc5df880	-0.013548017
244	0x3d75643d	0.059910048
245	0xbc7078ee	-0.014677269
246	0x3d6d70d3	0.057968926
247	0x3d2969ac	0.041360542
248	0x3e9a9873	0.30194435
249	0xbe2c9931	-0.16855313
250	0xbe6fe8af	-0.23428605
251	0x3c2404d1	0.010010914
252	0x3bb80283	0.005615534
253	0xbe2ee69e	-0.17080161
254	0x3da10292	0.078618184
255	0xbdd2669e	-0.10273479

fc1.bias f4 [8]
0	0x3c82041e	0.015871104
1	0xbcaafd6b	-0.020872792
2	0x3bfaa9f6	0.0076496555
3	0xbc3d6614	-0.011559982
4	0x3b9f9cd3	0.00487099
5	0xbca579c8	-0.020199671
6	0xbc158cd7	-0.009127817
7	0x3d12cf37	0.035842147
