checkpoints/source/epoch=20.checkpoint.pth.tar (torch, 167471 bytes, 8 tensors)

conv1.weight f4 [16, 3, 5, 5]
00000000: 7d1c 273e 2102 ea3d 0f1f bc3c 65d4 40be
00000010: 8a27 263d 0e3e 79bd e98f 6dbc e3cd 44be
00000020: 6dc8 08be bc6f b63d cfb8 4f3b 9138 c3bd
00000030: 4fd2 f9bd 09e5 01be 7af3 c9bd 666f 023e
00000040: 9d63 463e 7380 3abc 3574 9abd 9054 573b
00000050: cee5 f73b 693a 1c3e 7d8a a63d c60d e03d
00000060: fbd2 ae3d e950 f43d 3de1 5c3d 1d99 573d
00000070: 0d8d 82bd fcc8 0abb 122a 4a3b aad9 363d
00000080: 8906 36be 72d1 10be c32c 14bd 32ce 133e
00000090: 06f5 b23c f533 d0bd 5a22 8dbd c3c2 cabd
000000a0: 1f32 1abd fdb3 163e 930f 7fbd 534f a9bd
000000b0: ad22 f3bd dba1 553e 95ec 5cbc 4953 22bc
000000c0: b050 98bd e1c1 53bd 340d 123d 1337 453d
000000d0: 01b1 8fbd 65b1 fd3c 87ed 73bd 9c19 e8bc
000000e0: a6ef d2bd 1fd6 acbd 0794 b4bd 5495 c13c
000000f0: 5cab ba3c 6ba6 013e 0146 1cbe 5e14 913b
00000100: 7830 5a3d f32c 093e a816 713e f464 163d
00000110: 55ac 86bc 479e 2bbd af27 5dbc 96c4 2a3e
00000120: 139f 4c3c cd48 dd3c 1baa 92ba d46c 393d
00000130: 110e 6c3d 9ae1 96bb 6ee3 c2bd d274 20bd
00000140: d793 053d 9ffe 993c b80f d1bc 1e66 073c
00000150: b33c 0d3d 2f43 963d f902 c73d 91df 473d
00000160: d650 933d 05ce 1ebc 4faa f13c bee5 ae3d
00000170: 06be debc 5c66 c93b 656f 743d 3f9a bf3d
00000180: e4a6 6ebd 169b 983d 73f5 963d 6719 7e3b
00000190: 6db3 5f3d 7383 6d3d 617f 903d ef04 4fbc
000001a0: f0f3 66bc 8132 833d aa50 4d3d 861c 293d
000001b0: b4ae 323d 87bd 843d 6fd6 523d cd74 1b3d
000001c0: 62e4 8cbc 4929 1b3d 51c4 6cbc d990 bf3d
000001d0: aa11 b93d 260e 613d f9bf c83c 22db db3c
000001e0: 9628 963d fe05 8b3d 3db4 743d c14d 953d
000001f0: 6d93 373d e403 2a3d 85de 823d 3b23 2b3d
00000200: ba22 c23d 4280 1f3d 1b56 00bd 330e 81bc
00000210: ed9a e43c c6c6 cd3d 0bfe 203d 4ba0 9a3d
00000220: a509 c73d 7b3d 423d f1e7 14bd 5768 3e3d
00000230: 5db5 703d a1ab d23d 921a ad3c bc3d 873d
00000240: b080 08bd e9c7 e63d 046b ff3d 5b93 ea3d
00000250: 9236 5a3d ec40 abbb 90e1 483d cbe9 d83d
00000260: 056f 863d 2511 893d de43 26bd 2aa5 0f3e
00000270: 7634 53be aca1 c2bd aaa6 3dbe 7f7a 5cbc
00000280: fb0a 6dbe bda2 88bd 6d00 a4bd 9766 c3bd
00000290: 17ef ffbb 7683 a8bd 1ac6 3d3c 4142 89bd
000002a0: ff13 96bd c2cd 2b3e 943b 0c3e 074b 2d3d
000002b0: 7e14 6abd 9013 1a3e 1fdd 1e3e 658b 873e
000002c0: f4fc cd3d 62c8 433d d2cd 90bd 5ea1 abbc
000002d0: b405 6fbd 6a13 0bbe 35b7 1bbe 3d08 07be
000002e0: 311e f1bd 4e63 4cbe e191 73be f949 93bd
000002f0: 072d 473c 302d 98bd a3b8 043d 828b 563d
00000300: 500e 233e d7cd 9dbc c0b1 0b3e 60cf df3b
00000310: 69a0 62bd 72ad c73d 6e2d 033e f437 4f3e
00000320: e312 173e 952e 863e a3bf 19bb 1af4 a4bd
00000330: 752e 133c 403e c83d ce9f ba3d f470 cdbc
00000340: 91c3 1ebe fb6a 20be 066e f4bd c031 07be
00000350: a5fd 8ebd 898a 0abd 8b9a 2cbd a840 57be
00000360: 88ca 07bd 0b31 d43d c97a b3bd 239a 383e
00000370: be96 6f3d 28ab d0ba 3ec1 1b3e 3e24 673e
00000380: a8f7 ba3d 0bee 3b3e df5f dc3d bcc2 743c
00000390: 56a9 4cba b71f 38bd 49b0 db3d 324e 7c3e
000003a0: 7bb6 e13d 7dd0 98bc 14b4 57be 6b13 51bc
000003b0: 4076 ed3d 5b9d 063e 4d38 7e3d 2d69 87bd
000003c0: 083a febc 6c85 fd3d c2cc a13d 33bf a73d
000003d0: 6aed 10be 84b1 1dbc f57a 523d 9523 443e
000003e0: c6b1 e33d 09b8 17be 5d8a 053e f20a 073e
000003f0: f24d ff3d 0f89 983d 917e 93bc c84a c43d
0.16319461 0.11426187 0.022964029 -0.18831022 0.04056505 -0.060850196 -0.014499643 -0.19219165
-0.13357706 0.089080304 0.0031695848 -0.095322736 -0.12198316 -0.12685026 -0.098608926 0.12737808
0.19373937 -0.011383164 -0.07541696 0.00328568 0.0075652367 0.15256657 0.08131883 0.10940127
0.08536335 0.11929495 0.05392574 0.052636255 -0.063745596 -0.0021176925 0.003084783 0.044641174
-0.1777593 -0.14142397 -0.0361755 0.14434126 0.021845352 -0.1016616 -0.06891318 -0.09900429
-0.037645455 0.14717098 -0.062270712 -0.08267083 -0.11871848 0.20862524 -0.01348414 -0.009907552
-0.07437265 -0.05169857 0.035657123 0.048148226 -0.07016183 0.030968377 -0.059552696 -0.028332524
-0.102996156 -0.08439278 -0.088172965 0.023630776 0.022786789 0.1266114 -0.1526108 0.004427477
0.05326888 0.13396053 0.23543799 0.03671737 -0.016439596 -0.041898992 -0.013498231 0.16676554
0.012489098 0.027012253 -0.0011189611 0.045269802 0.057630602 -0.0046045305 -0.09516035 -0.03917391
0.032611694 0.01879817 -0.02552019 0.008264093 0.034481715 0.07337033 0.09717364 0.048797194
0.071931526 -0.009692674 0.029500155 0.085399136 -0.02719022 0.0061462354 0.059676547 0.09355592
-0.058264628 0.07451455 0.073710345 0.0038772465 0.054614473 0.057986688 0.070555456 -0.012635454
-0.014096245 0.06406117 0.050125755 0.041286968 0.04362364 0.06481462 0.05147403 0.037953187
-0.017198745 0.03788117 -0.014451102 0.093537994 0.09036572 0.054945134 0.024505602 0.02683789
0.0733196 0.06788252 0.0597422 0.07290221 0.04481833 0.041507617 0.063900985 0.041781645
0.0947928 0.038940676 -0.031332117 -0.015753841 0.027905906 0.10047679 0.039304774 0.07550105
0.097186364 0.047421914 -0.03635401 0.046486225 0.05876671 0.10286642 0.021130834 0.06603572
-0.03332585 0.112685986 0.124715835 0.11453887 0.0532747 -0.005226245 0.04904324 0.105914675
0.06564144 0.06692723 -0.040592067 0.14027849 -0.20625481 -0.09503493 -0.18520609 -0.01345694
-0.2314872 -0.06671665 -0.08007894 -0.09541052 -0.007810484 -0.08228199 0.011582876 -0.0670209
-0.07328033 0.16777709 0.13694602 0.04230788 -0.05714845 0.15046525 0.15514039 0.26473537
0.100580126 0.04779852 -0.07070507 -0.02095097 -0.05835505 -0.13581625 -0.15206607 -0.13186736
-0.11773337 -0.19959757 -0.23786117 -0.071918435 0.012156731 -0.07430494 0.032402646 0.05237914
0.15923429 -0.019263191 0.13642025 0.006830141 -0.05532876 0.09749879 0.12810299 0.20236188
0.14753298 0.26207414 -0.0023460172 -0.08054371 0.008983244 0.09777498 0.091125116 -0.025078274
-0.1550429 -0.1566581 -0.11935048 -0.13202572 -0.069819726 -0.033823524 -0.04213957 -0.21020758
-0.033152133 0.10360917 -0.08763654 0.18027548 0.05849337 -0.0015920149 0.15210435 0.22572419
0.09129268 0.18352525 0.107604735 0.014939006 -0.00078072154 -0.04495212 0.10726983 0.24639204
0.110211335 -0.018654102 -0.21064788 -0.012760977 0.1159482 0.13145964 0.06206541 -0.066118576
-0.03103353 0.12378964 0.079003826 0.08190765 -0.14153066 -0.009624843 0.051386792 0.19154198
0.11117892 -0.14816298 0.13041063 0.13187769 0.12466039 0.07448017 -0.018004688 0.09584576

conv1.bias f4 [16]
00000000: 35e3 383d 85e7 f3bc 9a0e a43c 1245 913d
00000010: b3d4 783c 565a 893d 6107 2fbd 5480 313d
00000020: a259 da3c 1613 0f3d 83d2 bd3c 5706 bbbc
00000030: c7ce 1a3d 86fe e83b 5df4 bbbc 07db 20bd
0.045138557 -0.029773483 0.020026494 0.07093252 0.01518743 0.06706683 -0.042731646 0.043335274
0.026654068 0.03493031 0.023171669 -0.022830172 0.037794854 0.0071104197 -0.02294367 -0.03927138

conv2.weight f4 [64, 16, 5, 5]
00000000: 8e3f 183c b408 283d dac9 883c 6f3c 493d
00000010: a76f 8cbc 27c9 a5bb b560 ddbc b9ab f4bc
00000020: c6ce 6fbd 1be9 66bd 038c 35bd 48db 81ba
00000030: 2af7 18bd 4af7 92bc 1479 483c 3972 3abd
00000040: 4d85 28bd 6bcb c1bc f205 22bc bc9c 2cba
00000050: 2937 80bc faec c23c b558 03bd f11e 8cbc
00000060: 7ca1 62bd a343 3c3d e910 9b3c 9071 b73c
00000070: 81cc e93c e717 7c3d 0aea 52bc 6a42 96bc
00000080: 6fe1 86bc 94ad e8bc 1b23 6fbd d969 62bd
00000090: a8da 4dbc 1de9 51bd 81b5 02bd e18d 7abd
000000a0: 45b5 d03a 5bed 3bbc 268b 1bbd 9f81 a03b
000000b0: 3131 fbbb d53e a23c 1518 d03c 5a1e 2c3d
000000c0: fada c83c d9a7 713d e23e e13c 7a2f c13c
000000d0: 661a 3fbc fa92 e63c 654b 1cbc a3e8 4a3c
000000e0: 865e d83c ca38 99bd e9e5 a5bc 4d7c dcbb
000000f0: caf8 553d 59ca 973c 88cb 683d a7eb f33d
00000100: e262 35bd e175 b2bd c032 6ebd 249b 6e3d
00000110: ead1 0cbc 3a5f b13c 0e8a 393b 81af 623c
00000120: cdf5 343d db42 38bd d06b 7c3b 78ca 453c
00000130: 0f43 d73c bc89 823d a7db 1e3d a9b6 163d
00000140: 8bfc 873c cbcb 40bb 9b6c d7bb 020f ce3c
00000150: a56c 52bc ffe6 b7bd 2366 88bc fa9b 66bd
00000160: 18a6 7fbd cd78 aabd 2e0e 00bc 5a20 0bbd
00000170: 0df6 e6bc e803 b63b 8e7c 41bd 6de9 1c3b
00000180: 72e3 fa3a cc1b d33c f406 0d3d b887 6e3d
00000190: 419b d2bb 4dc0 15bd 9738 a4bc ebb3 dc3b
000001a0: a696 c0bc a868 b1bc f761 7fbc a8b2 f6bc
000001b0: 9e64 a3bd 649d b2bd 5ab4 233c b280 2cbc
000001c0: 52c0 d6bc 21ad 3e3d b305 b7bc baa0 85bd
000001d0: 6a3c 98bd dc14 5fbc d376 acba 4a8d ab3c
000001e0: 150f 33bb fa0f 2a3c 0fea 9d3b 6250 653c
000001f0: 3e10 b23b d295 90bc 05b7 e93c f696 33bd
00000200: 20d1 83bc 18b4 a7bb 6ef1 993c 5e5d 64bc
00000210: edb3 a4bd 75ea aebc 720c d5bc f8dd 98bd
00000220: fd80 57bd 3c55 f7bc ff90 c1bd 1b02 45bb
00000230: 0233 743c eb8d 373c a801 0fbd e093 3fbd
00000240: d5dc 5fbd 0209 cebc 0cd1 8bba e584 29bd
00000250: 1a43 11bd eec0 b9bd c32d b9bc 8e86 7b3c
00000260: e859 2b3c 2e4c b8bb 886e 00bd 32c3 013d
00000270: abc5 1e3d a9f0 87b9 37da 0d3d 17dd f83c
00000280: 5ee9 a03c 5487 d73c 7ba6 813c c11e 0a3d
00000290: 9a36 79bc 801c 9f3c 69e7 9d3b 7384 17bb
000002a0: 6d41 e3bc 3d65 42bd 54b5 843c 2b98 a33c
000002b0: 82b6 813b b329 b8bc e1b0 50bd 1f8d e7bc
000002c0: 783f 023d 5212 dfbb 3fba 693c 7aa3 3dbd
000002d0: e6a7 3e3b 9009 1f3b 544c 3238 7ddb 0f3d
000002e0: d291 0fbc 91f8 a23b b35a 0a3c 7fb3 51bc
000002f0: 723c f93c df66 453c c52f 3b3d 60b2 e9b6
00000300: 7b66 bbbc 8381 69bc 5913 babc f12f bd3b
00000310: 265a 043c 2e05 1ebd e072 60bc 85da d9bd
00000320: 472e 93bc 278a 833c afdb 0e3c 923c de3c
00000330: 7628 93bb c663 f3bc 1c24 08bc 6938 8cbd
00000340: e0ad cbbd 611c 08be 05e2 38bb d9af 95bb
00000350: eab9 9abc 4490 4f3d c013 e0b9 2f52 aebc
00000360: 4458 91bd 4136 50bb 68ec 133b 8f19 973c
00000370: aa83 b93b e4c7 9c3c 677a 033d 9ae3 403c
00000380: 4801 f2bb 419a 7d3d 76a1 833d c4e1 9fb9
00000390: 39d0 8b3d ec7f 4d3d 0f9b 613d c784 53bd
000003a0: ad86 8ebd eff7 3abc c5e2 83bd 0fa7 a0bd
000003b0: 8169 4cbd 4f1e b4bd 0078 9fbb 52ce d3bd
000003c0: dd62 9ebc 9010 07bd 59a7 51bd 108b 0b3c
000003d0: 3339 b63b f2d5 123d 346e 70bb 4052 a53d
000003e0: 79ba 393d 7931 d43d da64 cbbc 39b2 be3c
000003f0: b881 1fbb d66e 60bb cec4 9dbd 34f6 743d
0.009292496 0.041023925 0.016697813 0.0491299 -0.017143084 -0.0050593796 -0.027023653 -0.02986704
-0.058546804 -0.05637465 -0.04432298 -0.000990727 -0.03734509 -0.017940182 0.0122358985 -0.045519087
-0.04114275 -0.023656568 -0.009889113 -0.00065846345 -0.015651302 0.02379464 -0.03206702 -0.017104598
-0.055329785 0.04596294 0.018928962 0.022393018 0.028539898 0.061546233 -0.012873182 -0.018342216
-0.016464917 -0.028403081 -0.05838309 -0.055276725 -0.012564339 -0.051247705 -0.031911377 -0.061170463
0.0015923163 -0.011470164 -0.0379745 0.0048982645 -0.007665776 0.019805351 0.025402108 0.042021133
0.024518479 0.058997963 0.027495805 0.023582209 -0.011664009 0.028146256 -0.00953946 0.0123845665
0.02641226 -0.07481535 -0.020251231 -0.006728685 0.052239217 0.018529104 0.056834728 0.119101815
-0.044283755 -0.0871389 -0.058153868 0.058253422 -0.008594969 0.021651853 0.0028311047 0.013835789
0.044179726 -0.044985633 0.003851641 0.012072198 0.026277093 0.06373927 0.038783696 0.036795292
0.016599914 -0.0029418345 -0.006574226 0.02515364 -0.012843286 -0.08979606 -0.016650265 -0.056301095
-0.06241426 -0.08323822 -0.007815881 -0.0339664 -0.028193498 0.005554665 -0.047237925 0.0023942844
0.001914127 0.02577009 0.03443046 0.0582349 -0.006427199 -0.036560345 -0.020046515 0.006735315
-0.023509335 -0.02165635 -0.0155873215 -0.030114487 -0.079781756 -0.08721426 0.00999173 -0.01052873
-0.026214752 0.046551827 -0.022341585 -0.06524797 -0.07433398 -0.013615813 -0.0013157971 0.020941395
-0.0027322222 0.010379786 0.0048191617 0.013996216 0.005434065 -0.017649565 0.028529653 -0.04384514
-0.01609093 -0.0051179044 0.01879188 -0.013938276 -0.080421306 -0.021352032 -0.026006911 -0.07464212
-0.052613247 -0.03019201 -0.09451484 -0.003006107 0.014904739 0.0112032695 -0.03491369 -0.046771884
-0.05465396 -0.02515078 -0.0010667159 -0.041386504 -0.035464384 -0.090700015 -0.022604829 0.015351905
0.010458447 -0.0056243157 -0.03135541 0.031680293 0.03876273 -0.00025928512 0.034631934 0.030378861
0.019642528 0.026309647 0.015826454 0.033720735 -0.015210772 0.01942277 0.004818846 -0.0023119717
-0.027741158 -0.04745983 0.016199745 0.01997002 0.003958524 -0.022480821 -0.050949935 -0.028265534
0.03179881 -0.006807604 0.014265596 -0.04629848 0.0029091774 0.0024267174 4.2509593e-05 0.03512143
-0.008762794 0.004973479 0.008444476 -0.012799143 0.03042433 0.012048452 0.045699853 -6.9647067e-06
-0.022876015 -0.014252069 -0.022714304 0.0057735373 0.008078134 -0.03857916 -0.013699263 -0.106373824
-0.017966403 0.016057087 0.008719369 0.027128492 -0.0044909073 -0.029710662 -0.00830939 -0.06846697
-0.099452734 -0.13292076 -0.002821089 -0.004568082 -0.018887479 0.05067469 -0.00042739324 -0.021279423
-0.070969135 -0.003177062 0.002257133 0.018444804 0.0056614475 0.019138284 0.032099154 0.011773014
-0.0073854066 0.061914686 0.064272806 -0.00030495052 0.06826825 0.050170824 0.055079516 -0.0516403
-0.06959281 -0.011411651 -0.06439737 -0.07844364 -0.049905304 -0.087948434 -0.0048666 -0.10342087
-0.019334251 -0.03297478 -0.051184986 0.008517042 0.005561018 0.035848565 -0.003668678 0.080723286
0.04534385 0.10360999 -0.024828363 0.023278343 -0.0024338793 -0.003424575 -0.07703553 0.05980511

conv2.bias f4 [64]
00000000: 30ee 08bd 785d 5abb f3bc 2cbd 5abf 16bd
00000010: f206 073c ff9e 113c d274 373c 8560 02bc
00000020: 7bcd 263b 5910 19bd 1900 973c d51f 06bd
00000030: e53b 0a3b 49eb 82b6 a2ab b6bb 4c71 a0bb
00000040: 954d 023c 8c3e b3bc 9119 b5bc 9ad1 dc3c
00000050: ac44 34bc 60f7 aa3c d2c0 e43c 7dcf 823b
00000060: 8da2 123d c07f 6cbb 5396 e1bb 901a 9bbb
00000070: 21ed b5b5 5b81 053c dfcf 1fbd 8ebf 333b
00000080: 397d 0abd 7981 083c 7d79 563b 0bdb bd39
00000090: a43f debc 14fc 7c3c 2c8e 87bb 4c0e 3c3d
000000a0: 652d a83c e170 df3c 8a46 14bc 9a52 b8bb
000000b0: 1d3a 133b 4f78 98ba 7215 bd3c 05fc a1bc
000000c0: 2a4a 77bc 2270 d1bb b69d bdbc dfa6 94bb
000000d0: 9b06 d03c dd08 8cbb aaf1 90bc 689f 19bc
000000e0: 00bb 203b 7e4d 863c f8c5 693b 3c65 943b
000000f0: 36ef 36bc 6688 bab6 94c5 01bc 2641 d0b8
-0.03343028 -0.0033319872 -0.042172384 -0.03680358 0.008241402 0.008888005 0.011197286 -0.007957582
0.0025452066 -0.037369106 0.018432664 -0.0327452 0.0021092829 -3.9016927e-06 -0.0055746594 -0.0048963185
0.007953067 -0.02188041 -0.022106918 0.026955415 -0.011002701 0.02086991 0.027923975 0.0039920197
0.03579955 -0.0036086887 -0.006884375 -0.004733391 -1.3554564e-06 0.0081485165 -0.0390166 0.0027427408
-0.033810828 0.00833165 0.0032726221 0.0003621209 -0.027129956 0.0154409595 -0.0041368213 0.045912072
0.020529458 0.027275505 -0.009050021 -0.0056250812 0.0022465058 -0.0011632534 0.023081515 -0.019773493
-0.015093366 -0.006391541 -0.023146491 -0.004536494 0.025393775 -0.0042735175 -0.01769336 -0.009376384
0.0024525523 0.016394373 0.0035670977 0.0045286696 -0.011165431 -5.559111e-06 -0.007920641 -9.930348e-05

conv3.weight f4 [8, 64, 5, 5]
00000000: 2617 5132 ad1b a82e cc2d 1bae a2c6 30b7
00000010: 7dd0 84a5 c71e 022f a866 352f c57f 13a6
00000020: 8301 1a37 af64 3aa5 e4fb 8132 8a1e 17b5
00000030: 5c8f 2836 8ba7 b1ba 0483 a836 9880 a926
00000040: b7d6 aa24 36c8 8035 30ba 3d3a ffae c7b9
00000050: de71 b7a3 5843 76a6 8e4e b0b6 cab6 1fba
00000060: 9248 50b7 c67b 9c3b 740d 9339 8849 99ba
00000070: 9ac4 fbb8 01b6 9734 a8e7 67b8 8e31 24b9
00000080: 2a3d aa34 f0b3 c437 1a17 6825 911f a53b
00000090: 518e 82b8 91a4 98ba 8513 82bb aaf9 0b39
000000a0: fa68 91b9 25d7 23b4 b844 7439 592f 4739
000000b0: 9089 6837 e93d dcad a0b4 9aa8 ae23 86b6
000000c0: 5334 1eb7 e462 9737 52fe e3b8 f879 19bb
000000d0: ae52 61bb f85e b83a 9062 48b8 fcb4 493b
000000e0: 9d71 903b f09a 32ba 831b 1f3a 009e 5236
000000f0: 9e75 84ba a1fa fe3a c1ab b03a 1a05 ed3a
00000100: f8a5 edb9 59d2 073b 83fc c9ba 2382 66bc
00000110: 7c81 043b 77c8 a3b9 6e9b d1bb 34a3 663a
00000120: e446 c9bb ffdc ebbb bcc9 29b9 b20a c4b9
00000130: bde4 95b9 9cf5 1dbb dc1f dcb9 250d c0aa
00000140: 3298 223b 4ae4 e639 fe53 dbba b8b4 37b8
00000150: a309 27b1 0aab a9b9 c37e a1b9 b4aa 93ba
00000160: 62ef 013a bd13 26ba b91f be38 ef47 8cb9
00000170: 14de b23b d7a8 153a b4dc 90ba ce06 b3ba
00000180: d6a6 25bb 4e18 04bc 26e3 f53a 7264 6539
00000190: 01eb 33ba 0c63 3038 f9ed 5039 3c4b 89b7
000001a0: 97cc b7ac b378 0c34 4600 98af 0826 e8ad
000001b0: f87b 3f30 df29 40a6 51ca 813a 9e16 85b8
000001c0: b8ba 9bba 189b 95ba 701d f137 ab98 eeb4
000001d0: 0fb5 6e30 62b1 1136 703c 7936 640a 9637
000001e0: af45 18ad 3642 42a5 9035 2335 dedb e437
000001f0: edc5 8736 c073 d5ba 2787 baba 2476 f239
00000200: 6735 6b3a c02a a833 973f bfb9 4926 823a
00000210: 7925 2839 d329 4537 54cd 10b3 ec9d 4439
00000220: c33f 6539 d7e9 f2bb 8f5a a13b 8f00 f6b7
00000230: d977 c2ba 2a4d 6536 81b2 b0ba b50f 2fbb
00000240: a079 ebb7 9c54 cab9 bd96 2eba bfaf 68ba
00000250: da9c 983a 850d 9bb6 6b0b 3bbb 43bb 1c39
00000260: 7561 70b9 5cca 753a 6f64 90ac 2713 b7b3
00000270: a726 e3b6 b9e6 2239 7ae8 3b39 d7a4 64a5
00000280: bbb6 533b dde1 1bbb 5c39 cbba 8a09 08b9
00000290: 5b1e 1c38 412a d5b9 dd2d 7c36 d3a5 d3b8
000002a0: 0d25 6bb7 a913 9535 eef9 89b7 3e8a c836
000002b0: 9973 2ab8 7f0b 90b9 579c db38 b7db 0daf
000002c0: a0da cd30 5282 bab4 43d1 24b3 dfb0 35a5
000002d0: 1b01 d1b3 5ff0 dcaf 8a72 ed2c 584b 22b6
000002e0: 5fb9 d6a3 8ecc 0630 b165 98af 8473 afb9
000002f0: e0e1 1838 b882 0e37 e166 9d2d e250 92b1
00000300: 12d6 9bb7 019d 3cb9 aa7d 9035 3146 ffa6
00000310: bf37 64a7 365d 0437 fca7 3837 5b86 07b8
00000320: 731b 09ba 43fa 8fb6 8054 89b7 eed0 6a3a
00000330: cc52 2524 11e4 a339 ac4e 1a36 63cc e5b7
00000340: 8a1c 6c3a a695 5da6 b189 a8b6 30ef 0c35
00000350: b77f 10b9 f861 b8ba 3a85 26b7 1e5d b3b6
00000360: be98 bc39 6692 60b8 3e03 a5ba 4d55 1137
00000370: c4c5 b6b5 7192 36ac e252 e9b8 76d9 bfba
00000380: ba5d ddb6 78f5 9f3a c238 81b8 64f2 11b9
00000390: 2b9d 7c37 c1a2 c72b 6cd0 663b b9ed d23a
000003a0: 4542 beb7 6270 cf39 79c9 aeb5 d09f e93a
000003b0: 1147 cbb9 be08 0a3a d6ef 93b8 a24e 24ba
000003c0: 6a5a 2d3a 1a6f 03ba a5f7 94bb a955 89bb
000003d0: 2511 56ba a928 6739 c9e1 4439 997f 7bba
000003e0: 78e1 20bb a8c8 a037 4551 ddb8 4d2b 223a
000003f0: 8005 c6b7 831d a0b8 c6c0 4d30 d40b 573b
1.21706645e-08 7.644672e-11 -3.5283595e-11 -1.0536665e-05 -2.3039627e-16 1.1834365e-10 1.6498325e-10 -5.117403e-16
9.179467e-06 -1.6167041e-16 1.5132123e-08 -5.6296324e-07 2.5117397e-06 -0.001355396 5.0220424e-06 1.1761586e-15
7.408949e-17 9.595012e-07 0.0007237522 -0.0003808662 -1.9889124e-17 -8.5439663e-16 -5.2543537e-06 -0.00060926063
-1.2414663e-05 0.004775497 0.00028048048 -0.0011694888 -0.000120052326 2.8258367e-07 -5.529044e-05 -0.0001565872
3.170947e-07 2.344881e-05 2.013062e-16 0.0050391634 -6.2253916e-05 -0.0011645724 -0.003969612 0.0001334908
-0.0002773477 -1.5258827e-07 0.00023295253 0.00018995757 1.3860306e-05 -2.5038598e-11 -1.7175768e-14 -3.997665e-06
-9.429717e-06 1.8046652e-05 -0.00010871574 -0.0023418646 -0.0034381556 0.0014066389 -4.777551e-05 0.003077804
0.004408075 -0.00068132486 0.0006069468 3.1384407e-06 -0.0010105853 0.0019453355 0.0013478921 0.0018083185
-0.0004532782 0.0020724742 -0.0015410337 -0.014069113 0.002021878 -0.0003123914 -0.0063967025 0.0008798123
-0.006142484 -0.0071979756 -0.00016192248 -0.00037392002 -0.00028589918 -0.0024102693 -0.00041985407 -3.4115172e-13
0.0024809954 0.00044039107 -0.0016733406 -4.3798907e-05 -2.4307176e-09 -0.00032361626 -0.00030802758 -0.0011266083
0.00049566303 -0.00063353387 9.065815e-05 -0.00026756476 0.0054586027 0.0005709058 -0.0011052103 -0.0013658644
-0.0025276444 -0.008062435 0.0018759712 0.0002187656 -0.00068633264 4.2053915e-05 0.00019925078 -1.6366706e-05
-5.223887e-12 1.3082426e-07 -2.7648833e-10 -2.6392236e-11 6.9661565e-10 -6.667013e-16 0.0009902214 -6.346147e-05
-0.0011881208 -0.0011414019 2.8743147e-05 -4.4442035e-07 8.6841195e-10 2.1709934e-06 3.713907e-06 1.7886232e-05
-8.6556725e-12 -1.6849251e-16 6.0800176e-07 2.7282102e-05 4.046355e-06 -0.0016285107 -0.0014230952 0.00046245859
0.0008972496 7.830886e-08 -0.00036477737 0.0009929623 0.00016035688 1.1751853e-05 -3.3714358e-08 0.00018750847
0.00021862895 -0.00741313 0.0049241255 -2.9325745e-05 -0.0014836743 3.4168575e-06 -0.0013480933 -0.0026712243
-2.807082e-05 -0.0003859148 -0.0006660035 -0.0008876286 0.0011643425 -4.620934e-06 -0.0028540741 0.0001494708
-0.00022924489 0.0009376162 -4.1038765e-12 -8.525085e-08 -6.769627e-06 0.00015535475 0.00017920314 -1.9831698e-16
0.003230496 -0.0023785748 -0.0015504765 -0.00012973524 3.722157e-05 -0.00040658007 3.7577622e-06 -0.00010092151
-1.4015718e-05 1.1107087e-06 -1.6448055e-05 5.976558e-06 -4.0638817e-05 -0.00027474386 0.00010471854 -1.2901934e-10
1.497785e-09 -3.474002e-07 -3.8374548e-08 -1.5759174e-16 -9.732522e-08 -4.018856e-10 6.7486615e-12 -2.4183737e-06
-2.3280434e-17 4.9039606e-10 -2.7720895e-10 -0.00033464667 3.6449987e-05 8.494295e-06 1.7894521e-11 -4.2583546e-09
-1.8577124e-05 -0.00017987566 1.0765409e-06 -1.7713205e-15 -3.1671576e-15 7.8895155e-06 1.1006367e-05 -3.2311636e-05
-0.00052302255 -4.2908664e-06 -1.6371021e-05 0.00089575246 3.5848803e-17 0.00031259705 2.2993581e-06 -2.7394102e-05
0.0009006938 -7.687759e-16 -5.0228196e-06 5.250213e-07 -0.00013780488 -0.0014067283 -9.92539e-06 -5.345456e-06
0.00035971956 -5.3542106e-05 -0.0012589467 8.662534e-06 -1.3617614e-06 -2.5945047e-12 -0.00011125744 -0.0014636952
-6.5972245e-06 0.0012203893 -6.161771e-05 -0.00013918575 1.5056964e-05 1.4184974e-12 0.0035219444 0.0016092575
-2.2680624e-05 0.00039565848 -1.3022646e-06 0.0017824117 -0.00038772126 0.0005265585 -7.054179e-05 -0.0006267821
0.0006612899 -0.0005013809 -0.004546123 -0.0041911197 -0.0008166007 0.00022045024 0.00018776128 -0.00095939037
-0.0024548452 1.9166924e-05 -0.00010553239 0.0006186262 -2.3606e-05 -7.6348915e-05 7.4852513e-10 0.0032813447

conv3.bias f4 [8]
00000000: 77dd a3ba 01ae 1b3c fcf7 9f3c d235 5abb
00000010: cee4 fe3a a9cc 5eba 2d27 f03c cd88 003b
-0.0012501915 0.009501935 0.019527428 -0.003329624 0.0019446851 -0.00084991247 0.029315555 0.001961279

fc1.weight f4 [8, 32]
00000000: a79e 08ba 7a85 5db9 dc82 f6b6 e5e2 6db7
00000010: 63d8 79be cfe4 2dbe 4a0b 58be ae96 df3d
00000020: 628b 283e e82a 7f3d 0e27 313d 68e2 8cbd
00000030: 9e07 a0bb 73e1 b53c f22f 593a aac4 823d
00000040: 62a2 2abe ad84 8e3e 8561 653d 5ec4 053e
00000050: 0b94 8f2f fecf 9027 dd89 cf3c 8239 7722
00000060: 753b 4abe 62fb ebbd 9c90 54be d54d 8bbc
00000070: 80f3 013e 0033 a83d cd89 4e3d 82f5 cf3c
00000080: d822 59ba 0a6f dbaf 0719 3cb5 48dd 9939
00000090: 64d9 24bd c2ed 9b3e e674 57bc 679e 7f3e
000000a0: 7b9d 07be f838 ad3e d44a fdbd 6bad 82bd
000000b0: b587 823c 4d3d 74bb 5172 8dbb 5cbf 1a3d
000000c0: c933 89be 9216 bc3d 41e6 b1bd 6575 dd3c
000000d0: 48e7 3ebb dca5 a5ba fa31 16b6 e4c1 89b6
000000e0: deec 56be 5210 413e 8168 4ebe 9168 033d
000000f0: af41 7bbe 34c3 a6be 5f35 23bd 81a5 04be
00000100: 5764 793a 4fb2 8fbc c263 9ea8 9414 7c3b
00000110: 4724 923d 820b 4d3d 3a96 09be 44d9 b53b
00000120: 2606 0dbe 74c8 63bd e07b 813e 8a49 7b3d
00000130: 0af2 a4bc 96c7 44bb ad4e ee3b 4ca3 7e3c
00000140: ac20 86be 06ed 72be cbd4 6ebd 65b3 003e
00000150: a783 d6b9 0e74 98b7 d2b6 ca38 9dd3 963b
00000160: dff2 043e 34fe 6dbe c764 873e 88ce 93ba
00000170: 2173 f83d 9330 3ebd f175 803e 7d25 b63c
00000180: a414 a7bb 9189 00bd 2dd0 da2b b71e 6a3c
00000190: 5cc1 843e 7807 be3d 4078 ca3d d3f4 51be
000001a0: cc37 aebd e0ca d2bd 6a17 39be 7fac 203c
000001b0: 689d ca3b 129b 33ba 4f4c 1bbc a8f2 183d
000001c0: 4d2e 183d 83cf 9dbd bfd0 a43e c491 3a3d
000001d0: d389 c2ba 0176 8738 78a9 a42f d19f 1ab9
000001e0: 0455 ebbd e3fc c3bd c804 c43c 4e55 e13c
000001f0: 7fad 1fbe c75d 813e a07f 9bbd 20ec e73d
00000200: 4e33 2bba 74b3 69bb 484b d631 2fb2 eabc
00000210: 09e2 08be ceab 3fbe 3833 4e3e 2dfa a93e
00000220: 4c4d 9abc 555d a03e ac79 6f3c d1a5 d23e
00000230: a333 443c 881f 95bc 32fb 3abc 8d8c b4bc
00000240: 0ef0 c9bd c25a 7a3d 3320 123e 0729 64be
00000250: 2314 07bb 6238 a536 6f6f 9132 9881 4532
00000260: a2a5 a6bb cf85 41bd f60d 20be 67d2 803d
00000270: ad90 033e 2edd 40bd 8fd3 10bd 7731 16bd
00000280: 8ebe 37bc 5d55 67bc 60bc cdbb 1b97 ccba
00000290: e672 6a3d 893f db3d caa0 d4bd 165c 443e
000002a0: 2b16 8cbd 6d94 e63d 659c 4abe 39ee 163e
000002b0: 5550 b0ba ee97 163b fc12 593b 8a43 393c
000002c0: 6524 dbbc 007c a03e 96a7 9e3d 7a2d adbd
000002d0: 9222 7fbc 491d 9bb9 85f1 07bb ff87 27b9
000002e0: 691b 2ebe e1d4 cdbc 40e8 a73e 4703 32bd
000002f0: 10f6 bbbb fff9 dbbd 60dd f8bd 5a3b 263d
00000300: 8022 0dbc 5a5d 11be 0006 0b28 375d 583d
00000310: b690 8fbe a1a3 283d 3563 50bc a7f7 52bd
00000320: 498f dabd 4398 dabd aa77 e73e a67e ff3d
00000330: 4679 393c d02f 723b e8b7 913b 423d 713c
00000340: 726d 9c3d 58e1 03be 4154 953c 7a6c 693d
00000350: 3a1d d33a 2b88 90bc 7dfc 9227 73e1 0627
00000360: d15b 71be 2be7 9e3e 6b46 edbd 65d9 b3bb
00000370: 2580 14be 3901 253e a364 1a3e ed2a 02be
00000380: 4fec cabb 78a4 0c3d 1247 053b 3fa9 3f38
00000390: 8e23 6d3e 5252 45be f37d 593e e7b8 93bd
000003a0: e380 64bd 841b 003e 99b2 89be 49ce 033d
000003b0: 3224 e1bb da20 fbb8 6f26 e73a 0475 3f3c
000003c0: adb3 6d3e 745b b2bd 7e65 313d 5015 f3bc
000003d0: b6f9 673b 9412 ceb7 11c9 8e3a c5b2 b339
000003e0: 1f14 a63e 2f39 4abe 16b4 90be 326e df3c
000003f0: e326 0d3d ef7d 46be d865 ce3d 1b27 74be
-0.00052116293 -0.00021125926 -7.3466053e-06 -1.4179129e-05 -0.24398951 -0.16981815 -0.21098056 0.10917412
0.1645942 0.062296778 0.043250136 -0.06879121 -0.0048837205 0.02220223 0.00082850375 0.06385167
-0.16663507 0.278356 0.056001205 0.1306319 2.611674e-10 4.0193534e-15 0.025334293 3.3505186e-18
-0.19749244 -0.11522557 -0.20758289 -0.017004887 0.12690544 0.082128525 0.050424386 0.025385622
-0.0008283085 -3.9914766e-10 -7.007188e-07 0.00029347301 -0.040246382 0.30454832 -0.013150429 0.2496277
-0.13243668 0.33832526 -0.12367788 -0.06380733 0.01593385 -0.0037267983 -0.004316606 0.03778015
-0.2679732 0.091839924 -0.086864956 0.027033517 -0.0029129554 -0.0012637931 -2.2380832e-06 -4.10549e-06
-0.20988795 0.18853882 -0.20157053 0.032082144 -0.24536775 -0.32570803 -0.03984582 -0.1295376
0.0009513548 -0.017541079 -1.7584787e-14 0.0038464414 0.071358256 0.050059803 -0.13436213 0.0055495817
-0.13771877 -0.05561109 0.25289822 0.06134943 -0.020134944 -0.003002619 0.0072725625 0.015541863
-0.26196802 -0.2372323 -0.058308404 0.12568434 -0.0004091535 -1.8173854e-05 9.6661635e-05 0.004602863
0.12983273 -0.23241502 0.26444075 -0.0011276761 0.12131334 -0.046433043 0.25089982 0.022234673
-0.005098896 -0.031381194 1.5547612e-12 0.01428955 0.25928771 0.09278768 0.09886217 -0.2050355
-0.08506736 -0.102926016 -0.18075338 0.009806751 0.006183315 -0.00068514154 -0.009478643 0.03734079
0.03715353 -0.07705595 0.3219051 0.04554917 -0.00148421 6.4592816e-05 2.995184e-10 -0.0001474612
-0.11490825 -0.09569719 0.023928061 0.027506497 -0.15593527 0.2526686 -0.07592702 0.11324334
-0.00065307773 -0.003565994 6.236778e-09 -0.028649418 -0.13367476 -0.18717882 0.20136726 0.3319868
-0.018835686 0.31321207 0.014616411 0.41142133 0.011975202 -0.018203512 -0.011412429 -0.022039676
-0.0986024 0.06112171 0.14270096 -0.22281276 -0.0020611368 4.923947e-06 1.6930896e-08 1.1496375e-08
-0.005085663 -0.04724675 -0.15630326 0.06290131 0.12848158 -0.047085933 -0.035358008 -0.036668267
-0.011214865 -0.014119473 -0.0062785596 -0.0015608998 0.057238482 0.10705478 -0.103822306 0.19175753
-0.06840166 0.11258779 -0.19786222 0.14739312 -0.0013451675 0.002297874 0.0033122888 0.0113076065
-0.026750753 0.31344604 0.07746808 -0.084559396 -0.015572207 -0.00029585723 -0.0020743322 -0.00015977024
-0.17002644 -0.025125923 0.3279438 -0.043460157 -0.00573612 -0.10741042 -0.12151599 0.040583946
-0.0086141825 -0.14195767 7.717351e-15 0.05282327 -0.28040093 0.041171674 -0.012718965 -0.05150571
-0.10671861 -0.10673573 0.45208484 0.12475328 0.011320418 0.0036954768 0.004446972 0.014724078
0.076380625 -0.1287893 0.018228652 0.056988217 0.0016106733 -0.017643055 4.079689e-15 1.8718452e-15
-0.23570181 0.31035742 -0.11585697 -0.005488562 -0.14502008 0.16113748 0.15077452 -0.12711687
-0.006192721 0.034336537 0.002033655 4.569557e-05 0.23158094 -0.19269684 0.21239452 -0.07213002
-0.05578698 0.12510496 -0.26894072 0.03217915 -0.00687077 -0.00011974732 0.0017635355 0.011685614
0.23213072 -0.087088495 0.04330968 -0.029673249 0.0035396642 -2.4565765e-05 0.0010893663 0.00034274734
0.32437226 -0.19748376 -0.28262395 0.027274225 0.034460913 -0.19383977 0.10078019 -0.23843043

fc1.bias f4 [8]
00000000: 2349 b43b d550 3ebd b817 fa3a 7b62 9fbc
00000010: 4a85 d53c b8f4 94bb 7271 efbb 7fcb 353d
0.0055018826 -0.046463806 0.0019080555 -0.019456139 0.026064534 -0.0045457743 -0.007307225 0.044383522
